checkpoint_actor_param.pth (torch, 536772 bytes, 10 tensors)

seq.0.weight f4 [300, 33]
0	0xbf27c50b	-0.6553504
1	0x3f2527fd	0.6451414
2	0x3ea01386	0.31264895
3	0xbf0a4aa6	-0.54020154
4	0xbe82b03c	-0.2552508
5	0x3ef67179	0.48133448
6	0xbe89c3f7	-0.26907322
7	0x3dd4894e	0.10377751
8	0xbe07747d	-0.1322803
9	0xbd0570f2	-0.032578416
10	0xbc873789	-0.016505973
11	0x3db26b0a	0.08711822
12	0x3c896adc	0.016774587
13	0x3f75e44a	0.96051466
14	0xbd096a19	-0.03354845
15	0xbf0f7909	-0.5604406
16	0x3e9e1202	0.30873114
17	0x3d92b782	0.071639076
18	0x3f19409d	0.5986422
19	0xbdb78d77	-0.08962529
20	0xbc8ccbd3	-0.017187035
21	0x3cac4a5f	0.021031557
22	0x3ceb7748	0.028743401
23	0x3dde8822	0.10865809
24	0xbc3db3b1	-0.011578486
25	0xbd79e82c	-0.061012432
26	0xbf1d20d5	-0.6137822
27	0x3d41cac3	0.04731251
28	0x3ea73aca	0.3266204
29	0x3d05c762	0.03266085
30	0xbb61e81e	-0.0034470628
31	0x3ceb8268	0.028748706
32	0x3f17003e	0.58984745
33	0x3f272b44	0.65300393
34	0x3f83c9e0	1.0295982
35	0x3f0ad665	0.5423339
36	0xbef44a6f	-0.47713038
37	0xbe56c69c	-0.20974201
38	0x3d2b83f6	0.041873895
39	0xbe076f2d	-0.13226004
40	0x3e399856	0.18124518
41	0x3d9b678a	0.07588108
42	0xbeccde1e	-0.40013212
43	0x3e448eae	0.19195053
44	0xbe4dfe17	-0.20116459
45	0xbe9f6267	-0.31129763
46	0xbd97b034	-0.07406655
47	0xbf8d96b1	-1.1061612
48	0xbe02f217	-0.12787662
49	0x3f04e249	0.51907784
50	0xbe1bec82	-0.1522694
51	0xbe478384	-0.19483763
52	0x3d6f95a3	0.058492314
53	0xbef35448	-0.4752524
54	0x3dad26fe	0.08454703
55	0x3e469a87	0.19394885
56	0xbe2be9a5	-0.16788347
57	0xbe46573c	-0.19369215
58	0x3c294059	0.010330283
59	0xbeaff224	-0.34364426
60	0x3d5c4071	0.053772394
61	0xbefa91ad	-0.48939267
62	0xbcd11844	-0.025524266
63	0xbce3157e	-0.02772021
64	0xbcd5da3e	-0.026105043
65	0x3f0c89d0	0.54897785
66	0x3e5cc75c	0.21560425
67	0x3f26f018	0.65210104
68	0x3df629c7	0.12019687
69	0x3e92e2f5	0.2868878
70	0x3db2d80c	0.08732614
71	0xbf7a5628	-0.97787714
72	0x3e4e2799	0.20132293
73	0x3dadc249	0.084843226
74	0x3e9f185c	0.31073272
75	0xbe082e7e	-0.13298985
76	0xbb8524cb	-0.004063224
77	0x3e923813	0.28558406
78	0xbda28feb	-0.079376064
79	0xbd8eb79d	-0.06968615
80	0x40049e8c	2.072177
81	0x3d5d7b73	0.05407281
82	0xbe85b712	-0.26116234
83	0xbed8856f	-0.42289302
84	0xbefc1391	-0.49233678
85	0xbe0cd8b9	-0.13754548
86	0xbdfa381d	-0.12217734
87	0xbc99fc9a	-0.018797208
88	0x3e3810a1	0.17975093
89	0x3e1eca78	0.15506923
90	0x3f40db14	0.75334287
91	0xbe17782d	-0.14791937
92	0x3e49c857	0.1970533
93	0xbc96f1f2	-0.018425915
94	0xbe7e507d	-0.24835391
95	0x3c9de81c	0.019275717
96	0xbd6ab50c	-0.057301566
97	0x3d232918	0.039834112
98	0x3e79903a	0.24371424
99	0xbeac3bf2	-0.33639485
100	0xbacccc6a	-0.0015624885
101	0x3ee39a3a	0.44453603
102	0xbdce7b02	-0.10082056
103	0x3d07d37d	0.033160675
104	0x3e516a7b	0.20450775
105	0x3dce9040	0.10086107
106	0x3eae8b0e	0.34090465
107	0x3d847330	0.06467283
108	0xbe2e1acd	-0.17002411
109	0xbdab7172	-0.08371247
110	0xbebb554b	-0.3658851
111	0x3c300428	0.010743178
112	0xbd351ec7	-0.044218805
113	0xbddafa8c	-0.10692319
114	0xbe3e9253	-0.18610506
115	0x3f149f4e	0.5805558
116	0xbb2c42bd	-0.0026284896
117	0x3ed08172	0.4072376
118	0xbeb02fa8	-0.3441136
119	0xbe08d23d	-0.1336145
120	0xbe71e104	-0.23620993
121	0x3d9d53e4	0.076820165
122	0xbf3541be	-0.7080344
123	0x3e972d38	0.29526687
124	0xbe951dcb	-0.29124293
125	0x3f86154f	1.0475253
126	0x3b80c0d5	0.0039292374
127	0xbe84bb06	-0.25923938
128	0xbb76a4c0	-0.003763482
129	0x3cbddb33	0.023175811
130	0xbd3fd0da	-0.046830036
131	0xbfaac6ce	-1.334192
132	0x3ed04b83	0.4068261
133	0xbe650445	-0.2236491
134	0x3f08da84	0.5345843
135	0x3e24b022	0.16082814
136	0xbde8fdbe	-0.113765225
137	0xbfd8b3a3	-1.6929821
138	0x3e0e774f	0.139127
139	0x3d1f1030	0.038833797
140	0x3ecd1b59	0.40059927
141	0x3d9ce380	0.0766058
142	0x3d2bc551	0.041936222
143	0x3d22bdcd	0.03973179
144	0x3d0c22b6	0.03421279
145	0xbe9548ba	-0.29157048
146	0x3ec1b03a	0.37829763
147	0xbeaaa965	-0.33332363
148	0xbe9e3632	-0.30900723
149	0xbe0ece44	-0.13945872
150	0xbdc3e94b	-0.095659815
151	0xbdda7df5	-0.10668556
152	0x3dc1a26a	0.09454806
153	0x3e8a63c7	0.2702925
154	0xbe08e158	-0.13367212
155	0xbd5e7c8c	-0.054317996
156	0xbd1e2ace	-0.03861504
157	0xbdd34503	-0.10315897
158	0x3e176dd1	0.14787985
159	0x3d46d9b9	0.04854748
160	0x3ccbcfde	0.024879392
161	0x3c864484	0.016390093
162	0x3d42f04f	0.047592457
163	0xbc954698	-0.018222138
164	0xc0a054b8	-5.0103416
165	0x3e3a1f8f	0.18176101
166	0x3eb97233	0.3621994
167	0x3dc98e7b	0.09841629
168	0x3ec9a3d4	0.39382803
169	0xbe54b310	-0.20771432
170	0xbe43eb46	-0.19132718
171	0x3e80fd4e	0.25193256
172	0x3eb08ee5	0.3448402
173	0xbea20112	-0.31641442
174	0xbeb42c6a	-0.35190135
175	0xbeec6487	-0.46170446
176	0x3dddb5a2	0.10825659
177	0xbd883a93	-0.06651797
178	0xbed20cd1	-0.41025403
179	0x3f16f52d	0.5896786
180	0x3d055e0c	0.032560393
181	0x3d03a90a	0.03214363
182	0xbe87d9f7	-0.2653348
183	0x3f003ca8	0.50092554
184	0x3e8cdaa9	0.27510574
185	0x3d9a80c4	0.07544091
186	0x3de5f216	0.11227815
187	0x3e39a252	0.18128327
188	0xbfa34f02	-1.2758486
189	0x3ef4546c	0.4772066
190	0xbec3bd55	-0.38230386
191	0xbe4c0dc5	-0.19927128
192	0x3c9be98f	0.019032268
193	0xbd91ae59	-0.07113332
194	0xbd57a5c0	-0.052648306
195	0x3d0dada6	0.034589432
196	0xbc50e7d0	-0.012750581
197	0x3f957776	1.1677082
198	0x3e5b2dbc	0.21404165
199	0xbec46072	-0.38354832
200	0xbf8a2013	-1.0791038
201	0xbe8c1d9d	-0.27366343
202	0xbe9a2429	-0.30105713
203	0xbf1e01ea	-0.6172167
204	0xbef11ef7	-0.47093937
205	0x3df947da	0.12171908
206	0x3f333eb7	0.7001757
207	0xbe43cf72	-0.19122103
208	0x3e11eb85	0.1425
209	0xbe915fc5	-0.2839338
210	0x3d219989	0.039453063
211	0x3eae29a7	0.34016153
212	0x3f781650	0.96909046
213	0x3e48ef99	0.19622649
214	0xbf62147f	-0.88312525
215	0x3e0ee3ca	0.13954082
216	0xbe893b45	-0.26803032
217	0xbf109a0e	-0.5648507
218	0x3dbee4ef	0.09321009
219	0x3ec405c1	0.3828564
220	0x3f8051ff	1.0025023
221	0xbe42ac9b	-0.19011156
222	0x3f0e0875	0.55481654
223	0x3ed9921b	0.42494282
224	0x3d06d679	0.03291938
225	0xbc601335	-0.013676454
226	0xbdc45dfd	-0.09588239
227	0xbcaeeef8	-0.021354184
228	0x3d4b74e6	0.04967203
229	0x3d659ad8	0.056055874
230	0xbf8640b5	-1.0488497
231	0x3d9da0ea	0.076967075
232	0xbec2d019	-0.3804939
233	0xbe81ddaf	-0.25364444
234	0x3e553284	0.20820051
235	0x3e30600e	0.17224142
236	0x3f0b7d56	0.5448812
237	0x3e08c817	0.13357578
238	0x3e7fc662	0.24978021
239	0xbe58d1d1	-0.21173789
240	0xbe21d81a	-0.15805092
241	0x3de9c791	0.114150174
242	0x3e14b538	0.14522254
243	0xbf0119d1	-0.5043002
244	0xbeb1d4ff	-0.34732816
245	0x3ec422a0	0.38307667
246	0x3edf1b59	0.43575552
247	0xbead1ff5	-0.33813444
248	0xbebace00	-0.3648529
249	0x3e9ab1e8	0.30213857
250	0xbeef7a13	-0.46772823
251	0x3b413618	0.0029481705
252	0xbe416c43	-0.18888955
253	0x3e8a1db0	0.26975775
254	0xbc917bba	-0.017759193
255	0x3e09ab97	0.13444363

seq.0.bias f4 [300]
0	0xbda192a3	-0.07889297
1	0xbe15be18	-0.14623296
2	0xbcf516ec	-0.029918157
3	0xbd9ccd68	-0.07656366
4	0xbd2df964	-0.042474166
5	0x3dd79d10	0.10528004
6	0x3dcea964	0.100909024
7	0x3de8da04	0.11369708
8	0x3e31b49e	0.17354056
9	0x3c479c5e	0.012183277
10	0xbdbd9a1a	-0.09257908
11	0xbc93366c	-0.017970286
12	0x3ce5e56b	0.028063497
13	0xbd7da95e	-0.0619291
14	0x3e0e197a	0.13876906
15	0x3dbaf3ce	0.09128533
16	0xbe013c6b	-0.12620704
17	0x3c87464a	0.016513009
18	0x3c8775a3	0.016535586
19	0x3d5d16b2	0.053976722
20	0xbdedf7a1	-0.11619497
21	0x3e2f4ed4	0.17119914
22	0xbd77336e	-0.06035178
23	0x3d867438	0.06565136
24	0xbdb07db2	-0.086177245
25	0x3d730fbb	0.059341174
26	0xbd77646f	-0.060398515
27	0xbdbc7742	-0.09202434
28	0xbe1f3ea0	-0.15551233
29	0x3d7b1db7	0.061307635
30	0x3cc32f8e	0.023826387
31	0x3d5e2166	0.05423107
32	0xbdc3de81	-0.095639236
33	0x3d17d883	0.037071716
34	0xbd90691b	-0.07051297
35	0x3d4768f2	0.048684068
36	0x3e264b70	0.16239715
37	0xbe158353	-0.14600877
38	0x3d88a051	0.06671203
39	0xbde62d8a	-0.11239155
40	0x3d5b970f	0.053610858
41	0xbd1bebdf	-0.03806674
42	0x3d91d6d7	0.071210556
43	0xbe04f513	-0.12984113
44	0x3dfae303	0.1225033
45	0x3dcafba7	0.0991128
46	0xbdf4785f	-0.119370215
47	0xbdfbbe26	-0.12292127
48	0x3dc32214	0.09527984
49	0xbe0ba0a5	-0.136355
50	0x3d8c8716	0.06861703
51	0xbdb02c29	-0.08602173
52	0xbe1fae8c	-0.15593928
53	0x3d5a0645	0.053228635
54	0xbd96033b	-0.07324835
55	0xbdeb34b8	-0.11484665
56	0x3d540e4b	0.051771443
57	0x3da4f6db	0.080548964
58	0x3e1081cc	0.14112014
59	0x3e2e62d9	0.17029895
60	0x3d77c5cd	0.060491372
61	0xbd4bdc5d	-0.0497707
62	0xbcf59072	-0.029976103
63	0x3e0659a9	0.1312014
64	0xbe0a6ebf	-0.13518809
65	0x3dfff430	0.12497747
66	0x3da3b9b1	0.07994402
67	0x3d89d3d6	0.067298576
68	0x3d5bfd5b	0.053708415
69	0xbe148d40	-0.14507008
70	0x3d8f3db8	0.06994194
71	0xbc2e0003	-0.01062012
72	0x3b130af6	0.0022436953
73	0xbda4f387	-0.08054262
74	0x3e0113cb	0.12605207
75	0xbcf37c41	-0.029722335
76	0x3a9e2ebe	0.0012068374
77	0xbe1880f9	-0.14892949
78	0x3e08da9f	0.13364647
79	0xbe24a134	-0.16077119
80	0x3ddbf33a	0.10739751
81	0x3d9bbc04	0.076042205
82	0x3cd90d06	0.026495468
83	0xbe2c9c91	-0.168566
84	0xbda48e0f	-0.08034908
85	0xbc47c3f7	-0.012192718
86	0xbe042ce9	-0.12907757
87	0xbd672df0	-0.056440294
88	0xbd20420b	-0.039125483
89	0xbd5af726	-0.053458355
90	0x3df7d4cc	0.12101135
91	0x3e231ced	0.15929003
92	0xbd9f7b5b	-0.077872
93	0x3db83278	0.08994001
94	0x3c3544ae	0.011063738
95	0x3e02a74f	0.12759136
96	0xbe1bb253	-0.15204744
97	0xbdb023f5	-0.08600608
98	0xbd0ee0ba	-0.034882285
99	0x3e2b0c0e	0.16703817
100	0x3e0cd425	0.13752802
101	0xbd411531	-0.04713935
102	0xbddae669	-0.106884785
103	0xbdb20c68	-0.086937726
104	0x3cb07e9b	0.021544745
105	0x3d205f9b	0.039153676
106	0xbdb4fc89	-0.0883723
107	0x3d4b049e	0.04956495
108	0xbca26520	-0.01982361
109	0x3e03bbcd	0.12864609
110	0xbd87f9d7	-0.0663945
111	0xbdc7f738	-0.0976395
112	0x3cdae6f3	0.026721453
113	0x3c123bc6	0.008925384
114	0x3dc9876f	0.09840285
115	0x3e2dc839	0.1697091
116	0xbd8ff345	-0.07028822
117	0x3e258e94	0.1616767
118	0x3da78980	0.08180523
119	0x3e17a246	0.14807996
120	0x3d5b0f14	0.053481176
121	0xbcd330ad	-0.025780046
122	0x3cc42e55	0.023947874
123	0x3b8c439c	0.0042805206
124	0xbe037881	-0.12838937
125	0xbd6c1392	-0.05763585
126	0x3e06b67f	0.13155554
127	0x3d0a86d0	0.033819973
128	0x3d3f69a9	0.046731625
129	0x3c8a7d1c	0.01690536
130	0x3d1ac3a8	0.03778425
131	0xbdf7c2fa	-0.12097736
132	0xbd03067b	-0.031988602
133	0xbd19ddfd	-0.03756522
134	0xbd73827d	-0.059450615
135	0xbde191ae	-0.11014114
136	0xbc95dff8	-0.018295273
137	0xbb8a1d38	-0.004214909
138	0xbd68393b	-0.056695204
139	0xbd2dbac2	-0.042414434
140	0xbd5b862d	-0.053594757
141	0xbce2d72e	-0.027690496
142	0xbe0e2d4c	-0.13884467
143	0x3e116458	0.14198434
144	0xbdbe67d5	-0.09297148
145	0x3db92c16	0.09041612
146	0xbe1cf5bf	-0.1532812
147	0xbbfde946	-0.0077487556
148	0xbc818257	-0.015809221
149	0xbe17a7d2	-0.14810112
150	0x3c16b380	0.00919807
151	0xbe05186a	-0.12997594
152	0x3d7c7450	0.06163436
153	0x3ddf2b32	0.10896911
154	0xbcdc34d4	-0.02688066
155	0x3ceca550	0.02888742
156	0xbdb277ac	-0.08714232
157	0x3d813370	0.06308639
158	0xbe2859b4	-0.16440469
159	0x3e317dee	0.17333195
160	0xbc1e8e0f	-0.009677424
161	0x3d137eb2	0.036009498
162	0x3e16f7b7	0.14742933
163	0xbe13300a	-0.14373794
164	0xbdb9d57b	-0.09073921
165	0x3cfecd6f	0.031103818
166	0xbe31c999	-0.1736206
167	0x3d22a7af	0.039710697
168	0xbc6da7e7	-0.014505363
169	0xbe2724ad	-0.16322584
170	0xbd31c9b3	-0.043405246
171	0xbe0259f5	-0.12729628
172	0x3c8a084b	0.016849658
173	0x3e034643	0.12819771
174	0x3e2950bc	0.16534704
175	0xbe2698c3	-0.16269211
176	0x3d7d968c	0.06191115
177	0xbe0948a2	-0.13406613
178	0x3d7ccd6a	0.061719336
179	0x3dc3fcc9	0.09569699
180	0xbe29d20d	-0.16584034
181	0xbe0019b8	-0.12509811
182	0xbe1fbbd6	-0.15598997
183	0xbc84630e	-0.016160514
184	0x3d82d2ef	0.06387889
185	0xbe029c00	-0.12754822
186	0xbc345b9c	-0.0110081695
187	0xbd771dff	-0.06033134
188	0x3e223578	0.15840709
189	0xbe23740f	-0.15962242
190	0xbdc60aa7	-0.096700005
191	0xbaaaf402	-0.0013042691
192	0xbe0b1a03	-0.13584141
193	0x3e09341d	0.13398786
194	0xbe24082a	-0.1601874
195	0xbd672758	-0.056434005
196	0xbd959924	-0.073046
197	0xbadabe4c	-0.0016688793
198	0xbda96cc1	-0.08272696
199	0x3e00055c	0.12502044
200	0xbe195143	-0.14972405
201	0xbdbc0f66	-0.091826245
202	0xbda30641	-0.07960177
203	0xbe2a66d2	-0.16640785
204	0xbe31172f	-0.17294
205	0x3d7a4d51	0.06110889
206	0x3e27bb4a	0.16380039
207	0xbcd9ad04	-0.026571758
208	0xbd8b052d	-0.067880966
209	0x3d9bbb53	0.07604089
210	0x3dd1fc7e	0.10253237
211	0xbe1fc319	-0.15601768
212	0xbda985fb	-0.08277508
213	0x3e16bf9a	0.14721528
214	0x3d9f310c	0.07773027
215	0xbe2551eb	-0.1614453
216	0x3b55fd99	0.0032652377
217	0xbe06fe69	-0.13182987
218	0xbe09c7d5	-0.13455136
219	0xbdb1a2b8	-0.08673614
220	0x3e3146ef	0.17312215
221	0xbdcde780	-0.10053921
222	0x3df48e4a	0.11941202
223	0xbe21d8be	-0.15805337
224	0xbc4291f5	-0.011875619
225	0x3e212e0b	0.1574022
226	0xbd1fedf4	-0.03904529
227	0xbd76da13	-0.060266566
228	0xbd9cf777	-0.07664388
229	0xbe00c879	-0.12576474
230	0x3d63df36	0.055632792
231	0xbe024c78	-0.12724483
232	0xbde24fc5	-0.11050371
233	0x3e1ad815	0.15121491
234	0x3e04b91b	0.12961237
235	0xbdba3922	-0.090929285
236	0x3b70177a	0.0036635087
237	0xbd3e79f5	-0.046503026
238	0x3e07b3c9	0.13252176
239	0xbe201e36	-0.15636525
240	0xbe1f7a03	-0.15573888
241	0x3dae6523	0.08515384
242	0x3c0592af	0.008152648
243	0xbd4efbc1	-0.05053306
244	0x3db5e2ed	0.08881173
245	0x3d923e54	0.071407944
246	0xbdf25f78	-0.118346155
247	0x3dcb5d10	0.0992986
248	0x3dce5799	0.10075302
249	0xbccab7e8	-0.024745896
250	0xbe1a93a3	-0.15095381
251	0x3d9556ba	0.072919324
252	0x3dd45de9	0.103694744
253	0xbe31462b	-0.17311923
254	0xbe2512e2	-0.16120484
255	0xbcabcc5b	-0.020971468

seq.1.weight f4 [300]
0	0x3faa8233	1.3320984
1	0x3f7ae865	0.98010856
2	0x3f8e78f2	1.113066
3	0x3f7c20d1	0.98487574
4	0x3fb5e9a7	1.421193
5	0x3f566304	0.83744836
6	0x3f194041	0.5986367
7	0x3ee1d2db	0.44106182
8	0x3f61d84e	0.8822068
9	0x3f894613	1.072451
10	0x3f428b71	0.7599402
11	0x3f351fa4	0.70751405
12	0x3f4bc1e9	0.7959276
13	0x3f59e4dc	0.85114837
14	0x3faaff28	1.3359118
15	0x3f284fc7	0.6574673
16	0x3f2ac773	0.66710585
17	0x3f788227	0.97073597
18	0x3f4f41bb	0.8095967
19	0x3f1f3e6a	0.6220461
20	0x3f6f4b6b	0.93474454
21	0x3f7b7997	0.98232406
22	0x3f8ea9a9	1.1145526
23	0x3f4ddc73	0.80414504
24	0x3f5a99c2	0.85390866
25	0x3f688c0a	0.9083868
26	0x3f590dde	0.84786785
27	0x3f026131	0.5092955
28	0x3f2df690	0.6795435
29	0x3f898927	1.074498
30	0x3f63f636	0.89047563
31	0x3f8884ee	1.0665567
32	0x3f3a32a3	0.72733516
33	0x3f5291d0	0.8225374
34	0x3f978bcb	1.1839536
35	0x3f856803	1.0422367
36	0x3f5fe767	0.87462467
37	0x3f640950	0.8907671
38	0x3f13f168	0.5779023
39	0x3f8daa01	1.1067506
40	0x3f9ead0e	1.2396562
41	0x3f764bc9	0.9620939
42	0x3f9fecb9	1.2494117
43	0x3f7efcfc	0.99604774
44	0x3f552fc6	0.8327602
45	0x3f847753	1.0348915
46	0x3fce0d13	1.609774
47	0x3f35c400	0.710022
48	0x3f789991	0.97109324
49	0x3f698e88	0.9123311
50	0x3f88b2af	1.067953
51	0x3f57d2db	0.84306115
52	0x3f6b271f	0.9185657
53	0x3fd88b16	1.6917446
54	0x3f630d3a	0.8869206
55	0x3f5c3dff	0.860321
56	0x3f3cafe2	0.73705876
57	0x3f31a028	0.69385004
58	0x3fa70365	1.3047911
59	0x3f8097a1	1.0046273
60	0x3f36c915	0.71400577
61	0x3fa701f5	1.3047472
62	0x3f41f02d	0.75757104
63	0x3f6b9e38	0.920383
64	0x3f871adf	1.0555075
65	0x3f9233d4	1.1422067
66	0x3ef9266c	0.48662126
67	0x3fcf8a9b	1.6214174
68	0x3f5ffa8d	0.87491685
69	0x3f92affb	1.1459955
70	0x3f756e9f	0.9587192
71	0x3f70e3e4	0.94097733
72	0x3f9869a3	1.1907238
73	0x3fa97780	1.3239594
74	0x3f906317	1.128024
75	0x3fad316f	1.3530711
76	0x3f77bf2f	0.967761
77	0x3f7fccd0	0.99921894
78	0x3f41db43	0.7572519
79	0x3f908b78	1.1292562
80	0x3f23dc7c	0.6400831
81	0x3f252566	0.6451019
82	0x3f3bfbb8	0.7343097
83	0x3f54a043	0.8305704
84	0x3f7ec6a8	0.99521875
85	0x3f90b25e	1.1304433
86	0x3fbdd7fe	1.483154
87	0x3f835157	1.0259198
88	0x3f254509	0.64558464
89	0x3f20fe39	0.62887913
90	0x3f78d715	0.9720319
91	0x3f6d7a18	0.92764425
92	0x3f80ba07	1.0056771
93	0x3f5f085c	0.8712213
94	0x3f876b54	1.0579629
95	0x3f86396d	1.0486275
96	0x3f6f2435	0.9341462
97	0x3f2e1907	0.6800694
98	0x3f5045c7	0.8135647
99	0x3f714c54	0.9425709
100	0x3fe0e0ce	1.7568605
101	0x3f5a9ae1	0.85392576
102	0x3f307866	0.68933713
103	0x3f9a04b7	1.2032689
104	0x3f5fc45f	0.87409014
105	0x3f66cc44	0.90155435
106	0x3f56fa23	0.8397543
107	0x3f7f80fd	0.99806195
108	0x3fa3d34d	1.2798859
109	0x3f6ba302	0.92045605
110	0x3f422d98	0.7585082
111	0x3f6b7721	0.9197865
112	0x3f2dba40	0.6786232
113	0x3f27c575	0.6553567
114	0x3f637c99	0.88861996
115	0x3f820769	1.0158511
116	0x3f2ada14	0.6673901
117	0x3f51e13c	0.81984305
118	0x3fab54f8	1.3385305
119	0x3f1a88e4	0.6036513
120	0x3f61bf9f	0.88183016
121	0x3f172af4	0.59049916
122	0x3f82d0c6	1.0219963
123	0x3f77a981	0.9674302
124	0x3fcd1de2	1.6024745
125	0x3f6345d2	0.8877841
126	0x3f1bb36f	0.6082067
127	0x3f7a676b	0.97814053
128	0x3f95c597	1.1700925
129	0x3f803858	1.0017195
130	0x3ed413c8	0.41421342
131	0x3f4dba7e	0.8036269
132	0x3f90092f	1.1252803
133	0x3f912562	1.1339533
134	0x3f23add3	0.6393711
135	0x3f507be9	0.8143907
136	0x3fc10cdf	1.5082053
137	0x3f8d952c	1.1061149
138	0x3f3d66f3	0.73985213
139	0x3f87fad2	1.0623419
140	0x3f4eb1e1	0.8074017
141	0x3f7904b7	0.9727282
142	0x3f30a13b	0.6899602
143	0x3f53a8aa	0.82679236
144	0x3f452b8d	0.7701958
145	0x3f8a2c6e	1.0794809
146	0x3f7a918c	0.97878337
147	0x3f5ce20c	0.8628242
148	0x3f94225d	1.1572987
149	0x3fd7dd18	1.6864347
150	0x3f6e3c7e	0.93061054
151	0x3f3eec00	0.7457886
152	0x3f63a011	0.88916117
153	0x3f2bbdc1	0.67086416
154	0x3f723c49	0.9462324
155	0x3f540269	0.8281618
156	0x3f201d1b	0.6254441
157	0x3f49fdf6	0.7890314
158	0x3f8ed96a	1.11601
159	0x3f6db68c	0.9285667
160	0x3f18bb8b	0.5966117
161	0x3fe766c8	1.8078241
162	0x3f57fc05	0.84368926
163	0x3f74342a	0.95392096
164	0x3f75f3eb	0.96075314
165	0x3f45b8a6	0.77234876
166	0x3f63faba	0.89054453
167	0x3f3e0a2e	0.7423428
168	0x3f63095b	0.8868615
169	0x3f5c73eb	0.86114377
170	0x3fa05fd4	1.2529244
171	0x3f6a2975	0.9146951
172	0x3f175afe	0.5912322
173	0x3fd9f593	1.7028068
174	0x3f8a2c2b	1.0794729
175	0x3f45630d	0.77104264
176	0x3f254adb	0.64567345
177	0x3f2dd807	0.67907757
178	0x3f766640	0.9624977
179	0x3f1ad942	0.6048776
180	0x3fdba0a1	1.7158395
181	0x3fb80870	1.4377575
182	0x3f6732e2	0.90312016
183	0x3f490eb1	0.7853804
184	0x3f1dfcd8	0.61713934
185	0x3f3408e4	0.70326066
186	0x3f85699f	1.0422858
187	0x3fa95528	1.3229113
188	0x3f51df61	0.81981474
189	0x3f58c63f	0.846775
190	0x3f514756	0.81749475
191	0x3f09a717	0.53770584
192	0x3f7ba5e4	0.98300004
193	0x3f719811	0.9437266
194	0x3f738071	0.9511786
195	0x3f2b99f0	0.67031765
196	0x3f5f3d17	0.8720259
197	0x3f6c914d	0.9240921
198	0x3fc20c78	1.5160055
199	0x3f814fcf	1.0102481
200	0x3f39b619	0.72543484
201	0x3f9ba29e	1.2159002
202	0x3f27f1d6	0.6560339
203	0x3f5ed777	0.87047523
204	0x3f652a0c	0.89517283
205	0x3fce183d	1.6101147
206	0x3f8d8c00	1.105835
207	0x3f35bcee	0.7099141
208	0x3f99f663	1.2028316
209	0x3f69e39c	0.9136293
210	0x3f56f0ff	0.8396148
211	0x3fb1393f	1.3845595
212	0x3f61116f	0.87917227
213	0x3f60cd0a	0.87812865
214	0x3f6b589e	0.91932094
215	0x3f4ddefb	0.80418366
216	0x3f97b5f4	1.1852403
217	0x3f405fbe	0.7514609
218	0x3f81f59b	1.0153078
219	0x3f59388e	0.8485192
220	0x3f692936	0.9107851
221	0x3f643857	0.8914847
222	0x3f66b7fd	0.90124494
223	0x3f841175	1.0317827
224	0x3f680b6b	0.9064242
225	0x3f72767f	0.9471206
226	0x3f57b382	0.8425828
227	0x3f560c64	0.83612657
228	0x3f7af3aa	0.9802805
229	0x3f3986ae	0.7247113
230	0x3f7dcd52	0.9914142
231	0x3f57c733	0.8428833
232	0x3f5179bd	0.8182638
233	0x3f8750b0	1.0571499
234	0x3f45641c	0.7710588
235	0x3f8ccac5	1.099938
236	0x3f631416	0.88702524
237	0x3f5d7cc7	0.8651852
238	0x3f512290	0.81693363
239	0x3f9551a4	1.166554
240	0x3f914361	1.1348687
241	0x3f4b9990	0.7953119
242	0x3f48de5c	0.78464293
243	0x3f453ec2	0.77048886
244	0x3ecf8d19	0.40537336
245	0x3f41cf5f	0.7570705
246	0x3fa34c94	1.2757745
247	0x3f320959	0.69545513
248	0x3fa0270b	1.2511915
249	0x3f537f28	0.826159
250	0x3f4d3ebf	0.8017387
251	0x3f66b15d	0.90114385
252	0x3f0c50f6	0.54811037
253	0x3eea6e66	0.45787352
254	0x3f8ab5ec	1.0836768
255	0x3fadd6ce	1.3581178

seq.1.bias f4 [300]
0	0xbfc45456	-1.5338237
1	0xbf81d5ad	-1.0143334
2	0xbfb4f5ca	-1.4137509
3	0xbf1462a4	-0.57963014
4	0xbf92f6dd	-1.1481587
5	0xbf8ae415	-1.0850855
6	0xbf3cdb17	-0.73771805
7	0x3ee59bac	0.4484533
8	0xbfac2900	-1.3450012
9	0xbfb10401	-1.3829347
10	0xbf85800d	-1.0429703
11	0xbe288a4c	-0.16459006
12	0xbf32f370	-0.69902706
13	0xbf61ab8b	-0.8815238
14	0xbfcb8d1b	-1.5902437
15	0xbf491f3b	-0.7856328
16	0xbf3ecbe1	-0.74529845
17	0xbf3e234d	-0.74272615
18	0xbf6a1f72	-0.9145423
19	0xbf190216	-0.5976881
20	0xbf8c3df4	-1.0956407
21	0xbf85a3ff	-1.0440673
22	0xbf85b42f	-1.0445613
23	0xbf73e4a6	-0.95270765
24	0xbfa3b737	-1.2790288
25	0xbf886979	-1.0657188
26	0xbfa4dc55	-1.287974
27	0xbf647e58	-0.89255285
28	0x3e2abe5e	0.16674182
29	0xbf816eae	-1.0111902
30	0xbf2dc769	-0.678824
31	0xbf77a530	-0.9673643
32	0xbf9b201f	-1.2119178
33	0xbf9f0c29	-1.2425586
34	0xbdf86104	-0.12127879
35	0xbfa41564	-1.2819028
36	0xbf302cc4	-0.68818307
37	0xbf2205c9	-0.6329008
38	0x3e8dbb40	0.27681923
39	0xbf80e008	-1.0068369
40	0xbf60e201	-0.87844855
41	0xbf5ff96d	-0.8748997
42	0xbf9a2dfe	-1.2045286
43	0xbfa8885b	-1.3166612
44	0xbf85e851	-1.0461522
45	0xbf8f8175	-1.1211382
46	0xbd992f29	-0.07479698
47	0xbf9ba09e	-1.2158391
48	0xbf88ea56	-1.0696514
49	0xbf400d00	-0.75019836
50	0xbf141575	-0.5784524
51	0xbf85ab44	-1.0442891
52	0xbf7d34d4	-0.98908734
53	0xbf9c001d	-1.2187535
54	0xbf8b0ab8	-1.0862646
55	0xbf8d05ff	-1.1017455
56	0xbfa2a74a	-1.2707303
57	0xbf4cf5fb	-0.80062836
58	0xbf9676f5	-1.1755053
59	0xbf8ed2ba	-1.1158059
60	0xbf3ac329	-0.7295404
61	0xbf070458	-0.52741003
62	0xbf29cee2	-0.66331303
63	0xbf318332	-0.69340813
64	0xbf83a73b	-1.028541
65	0xbeee0366	-0.46486968
66	0x3df3e72a	0.119093254
67	0xbeee8f90	-0.46593904
68	0xbf6fc90b	-0.9366614
69	0xbf560156	-0.8359579
70	0xbf6d36bd	-0.9266165
71	0xbf6831bc	-0.9070089
72	0xbec93acc	-0.3930267
73	0xbf1be4e7	-0.6089615
74	0xbf8a3eff	-1.0800475
75	0xbef0393c	-0.46918666
76	0xbf964d94	-1.1742425
77	0xbf4a7b92	-0.79094803
78	0xbefeae86	-0.49742526
79	0xbea70b18	-0.3262565
80	0xbf186a35	-0.5953706
81	0xbf8b59b2	-1.0886748
82	0xbf878372	-1.0586989
83	0xbf2f8964	-0.68569016
84	0xbf4209d2	-0.75796235
85	0xbf6a999e	-0.9164065
86	0xbf4b0f91	-0.7932063
87	0xbfb901be	-1.4453657
88	0xbf7e1ef3	-0.99265975
89	0x3e145d40	0.14488697
90	0xbf5d7c36	-0.86517656
91	0xbf7f6466	-0.9976257
92	0xbfa01c74	-1.2508683
93	0xbf4ca48a	-0.79938567
94	0xbf6be614	-0.92147946
95	0xbf6fbb1e	-0.93644893
96	0xbf4cdbcf	-0.800229
97	0xbeabfc70	-0.33591032
98	0xbf886105	-1.0654608
99	0xbf9967b7	-1.1984776
100	0xbf52b55d	-0.8230799
101	0xbf98f04f	-1.1948336
102	0xbf96ca27	-1.1780442
103	0xbf85b067	-1.0444459
104	0xbf687262	-0.90799534
105	0xbf52809c	-0.8222749
106	0xbf61c8ea	-0.88197196
107	0xbf7ef1ec	-0.99587893
108	0xbf26e149	-0.6518751
109	0xbf216a45	-0.6305278
110	0xbf48390b	-0.7821204
111	0xbf8f8912	-1.1213706
112	0xbf06dddd	-0.52682287
113	0xbf1eb1b6	-0.61989915
114	0xbf71ec8c	-0.94501567
115	0xbf698507	-0.9121861
116	0xbf196a7a	-0.59928095
117	0xbead95f4	-0.33903468
118	0xbf8f0828	-1.1174364
119	0xbf187102	-0.59547436
120	0xbf1af749	-0.6053358
121	0xbee1f560	-0.4413252
122	0xbfc0a0f1	-1.5049115
123	0xbf1b14c3	-0.60578555
124	0xbf6a875f	-0.9161281
125	0xbf5fe923	-0.87465113
126	0xbe7bc83f	-0.24588107
127	0xbf6996e0	-0.9124584
128	0xbf6b940f	-0.92022794
129	0xbf6bf508	-0.92170763
130	0xbeea71c0	-0.4578991
131	0xbf2f4ee2	-0.6847974
132	0xbf943f4e	-1.1581819
133	0xbfad91e1	-1.3560144
134	0xbe8a4406	-0.27005023
135	0xbf86d08f	-1.0532397
136	0xbea386d5	-0.31938806
137	0xbf832fe0	-1.0248985
138	0xbf64eb49	-0.89421517
139	0xbf37e892	-0.7183925
140	0xbf9bb4e0	-1.2164574
141	0xbf4445e8	-0.7666917
142	0xbf8c646f	-1.096815
143	0xbf5aeca1	-0.8551732
144	0xbf920181	-1.1406709
145	0xbf19c898	-0.60071707
146	0xbf3a886c	-0.72864413
147	0xbe6849ca	-0.22684398
148	0xbf310d11	-0.6916056
149	0xbe8f8e6a	-0.2803834
150	0xbfa2432f	-1.2676753
151	0xbf8de58e	-1.108568
152	0xbf591271	-0.84793764
153	0xbf86d38c	-1.0533309
154	0xbf340334	-0.7031739
155	0xbf5e6354	-0.8687031
156	0xbf6061fb	-0.87649506
157	0xbf7f3691	-0.99692637
158	0xbf962bd1	-1.1732122
159	0xbf6923f6	-0.910705
160	0xbf8c09b1	-1.0940458
161	0xbf24d1ff	-0.6438293
162	0xbf306af5	-0.68913203
163	0xbed73dd2	-0.42039353
164	0xbf96eb08	-1.1790476
165	0xbf76d8c8	-0.9642453
166	0xbf7cbf80	-0.98729706
167	0xbf58c57d	-0.84676343
168	0xbf75d263	-0.9602415
169	0xbf81ac15	-1.013064
170	0xbf98d54d	-1.1940094
171	0xbf67f0ad	-0.9060162
172	0xbed05fc6	-0.4069807
173	0xbf6d8898	-0.9278655
174	0xbf0bf6b8	-0.5467334
175	0xbf89a4c6	-1.075341
176	0xbf8ac73a	-1.0842049
177	0xbee35bbc	-0.44405925
178	0xbf8676f9	-1.0505058
179	0xbedd8df1	-0.43272355
180	0xbf62a371	-0.8853064
181	0xbfac9200	-1.3482056
182	0xbf8702d1	-1.0547734
183	0xbf5662e1	-0.8374463
184	0xbf2e8eb3	-0.6818649
185	0xbf4e81d0	-0.8066683
186	0xbf0e0524	-0.55476594
187	0xbf87fb85	-1.0623633
188	0xbef394b1	-0.4757438
189	0xbf78a6c3	-0.9712946
190	0xbf52fc0b	-0.8241584
191	0xbf382f9c	-0.71947646
192	0xbf96174c	-1.172586
193	0xbf58a380	-0.8462448
194	0xbf8ddfd9	-1.1083938
195	0xbf7af087	-0.98023266
196	0xbf69236b	-0.9106967
197	0xbf979e17	-1.184512
198	0xbfc7be45	-1.5604941
199	0xbf42da97	-0.7611479
200	0xbf07ae27	-0.5300011
201	0xbfb384f8	-1.4024954
202	0xbf6ade9c	-0.91745925
203	0xbf3852cb	-0.7200133
204	0xbf71a9f9	-0.9439998
205	0xbf89a903	-1.0754703
206	0xbf1af92e	-0.6053647
207	0xbf375afd	-0.7162321
208	0xbf0aa4c8	-0.54157686
209	0xbf406f90	-0.7517023
210	0xbed1bbe9	-0.40963677
211	0xbf71c19b	-0.94436044
212	0xbf5f32fd	-0.87187177
213	0xbe0347be	-0.12820336
214	0xbfb2e81b	-1.3977083
215	0xbfb9293a	-1.4465706
216	0xbf2af051	-0.66772944
217	0xbef2c086	-0.4741251
218	0xbf6b4a8e	-0.91910636
219	0xbf7b5d03	-0.981888
220	0xbf540f33	-0.8283569
221	0xbeffb8da	-0.49945718
222	0xbf788772	-0.97081673
223	0xbf69417b	-0.9111554
224	0xbf795052	-0.97388184
225	0xbf5e2456	-0.86774194
226	0xbf5b4ae8	-0.8566117
227	0xbf7c1067	-0.9846253
228	0xbf811f02	-1.0087588
229	0xbf3ced05	-0.73799163
230	0xbf9e2274	-1.2354264
231	0xbf91c747	-1.138894
232	0xbf67adaa	-0.90499365
233	0xbf18bde3	-0.59664744
234	0xbf8e4f18	-1.1117887
235	0xbf8949a6	-1.0725601
236	0xbe9b16d7	-0.30290863
237	0xbf179398	-0.59209585
238	0xbf8f12c6	-1.1177604
239	0xbeee091f	-0.46491334
240	0xbf2f31bc	-0.68435264
241	0xbf64ed57	-0.8942465
242	0xbf8a2412	-1.0792258
243	0xbfbc5701	-1.4714051
244	0xbf9b28fe	-1.2121885
245	0xbfc7290c	-1.5559402
246	0xbf826dc3	-1.0189747
247	0xbf797cc0	-0.9745598
248	0xbfb849bd	-1.4397503
249	0xbf6d1193	-0.9260494
250	0x3f04565e	0.51694286
251	0xbf8b27cd	-1.0871521
252	0xbf6c0d3f	-0.9220771
253	0x3db8392d	0.089952804
254	0xbf764cf6	-0.96211183
255	0xbfb18a6c	-1.3870368

seq.1.running_mean f4 [300]
0	0xc015462c	-2.332408
1	0xbef5ce21	-0.48008826
2	0xc0fcb9e9	-7.897694
3	0x3f050d52	0.5197345
4	0xbf1248d4	-0.57142377
5	0xc017b749	-2.3705618
6	0xbfd9f1af	-1.7026881
7	0x3ed53a5e	0.41646093
8	0xc0bcc3b6	-5.8988905
9	0xbeeef1ff	-0.46669003
10	0xc0ab53c2	-5.3539743
11	0x3fc11ce2	1.5086939
12	0x3f82684b	1.0188078
13	0x3f99ff2b	1.2030996
14	0xbf5b7971	-0.8573218
15	0x4071a6b5	3.7758
16	0x404de15a	3.2168794
17	0x3f5b0e2d	0.85568506
18	0xbe85194e	-0.25995868
19	0x3fa54a06	1.2913215
20	0x4056449c	3.3479376
21	0xc0406a55	-3.00649
22	0xc0032d0d	-2.0496247
23	0xbfe317b8	-1.7741613
24	0x3dd387e5	0.10328654
25	0xc018775d	-2.3822854
26	0xc07adb34	-3.919629
27	0xbfa18c33	-1.262091
28	0x3ed8228b	0.42213854
29	0xbf0b598c	-0.5443351
30	0x3e5db723	0.21651892
31	0xbf971c00	-1.180542
32	0x3f465b23	0.77482814
33	0x3e0fe53d	0.14052291
34	0x3ff3400b	1.9003919
35	0xbfd93b56	-1.6971233
36	0x3f460524	0.77351594
37	0x3fe00bcf	1.7503604
38	0x401f5fb5	2.4902165
39	0xc0a75f22	-5.230363
40	0x3e54caba	0.20780459
41	0xc05036ae	-3.2533374
42	0x3f07d234	0.5305512
43	0xbfa8c125	-1.3183943
44	0xbfcaabc4	-1.5833669
45	0x3fa6003d	1.2968823
46	0x3e27a468	0.1637131
47	0xc1018466	-8.094824
48	0xbf1ce50d	-0.61287004
49	0xc089e7c4	-4.3095417
50	0x3f468fe9	0.7756334
51	0x3eb6f1b2	0.35731274
52	0x40045b81	2.068085
53	0xbdf9f677	-0.122052126
54	0x3f4da719	0.80333096
55	0xc04875e0	-3.1321945
56	0xbf313aed	-0.6923054
57	0x40739dbe	3.8065028
58	0x3f15d100	0.58522034
59	0x405603b7	3.3439767
60	0x40e8b03d	7.2715135
61	0xc0268a44	-2.602189
62	0x4067d19a	3.622168
63	0x402f8e65	2.743066
64	0xbec3a579	-0.38212183
65	0x4030f206	2.764772
66	0x3feff7fc	1.8747554
67	0xbf3c9554	-0.73665357
68	0xbfef97d3	-1.8718208
69	0xbf2cf920	-0.67567635
70	0x3f73f7a8	0.9529977
71	0x3fddfd33	1.7342895
72	0x3ea772aa	0.3270467
73	0xbf421f57	-0.7582907
74	0xbe94772a	-0.28997165
75	0x3e8d72fa	0.27626783
76	0x403cd2b2	2.9503598
77	0x3ef65a8a	0.4811595
78	0xbf05fe1e	-0.5234088
79	0xbfacc300	-1.3497009
80	0x3fea8f30	1.8324947
81	0xbf1e8667	-0.6192383
82	0xc0e767e8	-7.231434
83	0x3e99a11d	0.30005732
84	0x4004e7b3	2.0766418
85	0xbfb7dc54	-1.4364114
86	0x3f4dcc98	0.8039031
87	0xc08202e9	-4.0628552
88	0xbf5256bc	-0.82163596
89	0x3fb9975a	1.4499314
90	0xbf86000a	-1.0468762
91	0xc07a2f3f	-3.9091337
92	0x3fad8076	1.3554828
93	0x4038b190	2.8858376
94	0x3fe159c0	1.7605515
95	0x3f6e52d2	0.93095124
96	0xbfe8f5a8	-1.8199968
97	0x4016e5d6	2.357778
98	0x4018316f	2.3780172
99	0x3e8b870c	0.2725147
100	0x3f245935	0.6419862
101	0xc08f200f	-4.4726634
102	0xbeee58ad	-0.4655203
103	0xbf9faad3	-1.2474006
104	0x3f41d3e2	0.7571393
105	0x3dcc8329	0.09985954
106	0xc0b67a82	-5.7024546
107	0x3f207e76	0.62692964
108	0x3f8d8728	1.1056871
109	0xc008031f	-2.1251905
110	0x40a28f65	5.080004
111	0xc082bf2e	-4.0858374
112	0xbdd96b64	-0.10616186
113	0x40370294	2.8595324
114	0x3ffa380a	1.9548352
115	0xbebab6dd	-0.3646764
116	0x3f9dc6b6	1.2326267
117	0xbf68c93e	-0.9093207
118	0xbb97e14d	-0.0046350122
119	0x3ed0fa49	0.40815952
120	0x3fd5361d	1.6657139
121	0xbea70ce9	-0.32627037
122	0xc0130fe2	-2.2978444
123	0x3e957292	0.29188973
124	0xbdc47f47	-0.09594589
125	0xc0b84034	-5.7578373
126	0x3f373a33	0.7157318
127	0xbfa69946	-1.3015525
128	0xc032822f	-2.7891958
129	0xc046c6e4	-3.1058893
130	0xc09527f3	-4.6611266
131	0xc09588e5	-4.6729608
132	0xbef4860c	-0.4775852
133	0xc078336c	-3.8781385
134	0x3f413b73	0.7548134
135	0xc0834a80	-4.102844
136	0xbf6ad4e2	-0.91731083
137	0x3dfd5d11	0.12371267
138	0xbf9260e1	-1.1435815
139	0x3fc815a8	1.5631609
140	0xc076b766	-3.8549438
141	0xc017a204	-2.3692636
142	0x3ee9a8b3	0.4563652
143	0x3ecdfde8	0.40232778
144	0x3ffe7504	1.987946
145	0x3fc33a55	1.5252177
146	0xc04be09b	-3.1855838
147	0x400b2d24	2.1746302
148	0x3f971ddc	1.1805987
149	0xbec2d57e	-0.38053507
150	0x3f93c4b4	1.1544404
151	0x3f761986	0.96132696
152	0x3fa2ee0f	1.27289
153	0xbf272dd3	-0.653043
154	0xc02a4d7d	-2.6609795
155	0xc0a493b5	-5.1430306
156	0x3e7e55c0	0.24837399
157	0x40674729	3.6137183
158	0x3df68da9	0.12038738
159	0x4019a604	2.4007578
160	0xc03b6e9e	-2.9286265
161	0xbf62e5dc	-0.8863199
162	0x408a86b8	4.328945
163	0xbd23d9f2	-0.04000277
164	0x3ef90715	0.48638216
165	0x3f90f190	1.1323719
166	0xc037c2e2	-2.8712697
167	0xc07538a9	-3.8315833
168	0x405b48f9	3.426329
169	0xc05d6eee	-3.4598956
170	0xbf964e86	-1.1742713
171	0xbea3a9de	-0.31965536
172	0x400029b6	2.0025458
173	0xbee34ad1	-0.44393018
174	0xbdcadb80	-0.099051476
175	0x40754162	3.8321157
176	0x3f128bad	0.5724438
177	0xbf648940	-0.89271927
178	0x3f8bb135	1.0913454
179	0x400eedfe	2.233276
180	0xbed19a35	-0.40937963
181	0xbfa66215	-1.2998682
182	0xc0d54750	-6.664955
183	0x40267364	2.600793
184	0xbff99335	-1.9498049
185	0x3fa08a58	1.2542219
186	0xbfa9e1ad	-1.3271996
187	0x3e0ddb56	0.13853201
188	0xbf65951b	-0.8968064
189	0xc04a9d27	-3.1658418
190	0xbfbf5142	-1.4946673
191	0x3e7c4be2	0.24638322
192	0xbd0dddda	-0.034635402
193	0x40ddddef	6.9333415
194	0xc071f05e	-3.7802958
195	0x409a3737	4.81924
196	0xbfd533d0	-1.6656437
197	0xbecb79f1	-0.3974147
198	0xbf9c9748	-1.2233667
199	0xc07889bc	-3.8834066
200	0x3fd9006f	1.6953257
201	0x3cc5a0f3	0.024124598
202	0x3fa70837	1.3049382
203	0xc0644691	-3.566807
204	0xbf608484	-0.877022
205	0x3f776647	0.9664044
206	0xbfa95683	-1.3229526
207	0xc06103bb	-3.5158527
208	0x3f59f2eb	0.8513629
209	0x3e57dcb0	0.2108028
210	0xbf7e0bb0	-0.99236584
211	0xc0108bda	-2.2585359
212	0xbfb66f4d	-1.4252716
213	0x40746d55	3.819173
214	0xc019cef8	-2.4032574
215	0x3fb6b2e6	1.4273345
216	0xbec28bae	-0.37997192
217	0xbf9bdb77	-1.217635
218	0x40626965	3.5376828
219	0x3bd675a0	0.0065447837
220	0xc08e19b1	-4.440636
221	0xbf8041ca	-1.0020077
222	0xc0a2b4c3	-5.0845656
223	0xbfa7d42b	-1.3111624
224	0xc02e72db	-2.7257602
225	0xbedada0c	-0.42744482
226	0x3fa50d74	1.289473
227	0x4043c1d1	3.0587046
228	0x3f1e7f24	0.6191275
229	0xc08b5b14	-4.354868
230	0xbfc6cd21	-1.553135
231	0x3f8c4caf	1.0960902
232	0xc0813864	-4.0381336
233	0xbdbb77ab	-0.09153684
234	0xbfcce2a1	-1.6006662
235	0x3eae5809	0.3405154
236	0x3fd2164f	1.6413058
237	0x3ee2d32f	0.44301745
238	0xc0715b6c	-3.771205
239	0x3feb3b18	1.8377409
240	0xbf9d3e0e	-1.2284563
241	0xbea29aa0	-0.31758595
242	0x3f82cd10	1.021883
243	0xc0034d28	-2.0515842
244	0xbf93c9ac	-1.154592
245	0xbf688b63	-0.9083769
246	0xbebd6325	-0.36989704
247	0x409fba65	4.9915032
248	0xbf64b42e	-0.8933743
249	0xbeebb8e6	-0.46039504
250	0x4006a430	2.1037712
251	0x3f0d4f35	0.55198985
252	0xbfd708f0	-1.6799603
253	0x3fe38141	1.777382
254	0xbf96ef0d	-1.1791703
255	0xbf5c334c	-0.8601577

seq.1.running_var f4 [300]
0	0x3faad233	1.3345398
1	0x4119d817	9.615256
2	0x410ca621	8.790559
3	0x421c28ee	39.03997
4	0x410a6921	8.650666
5	0x41ce2b70	25.77121
6	0x41331574	11.192738
7	0x4191f8c6	18.246471
8	0x41a19c5a	20.201344
9	0x4231a91d	44.41515
10	0x4187a97a	16.957752
11	0x415092d2	13.035845
12	0x41eb2bbd	29.396357
13	0x426c026d	59.00237
14	0x411219d1	9.131303
15	0x41d01802	26.011723
16	0x42336a30	44.8537
17	0x4265263b	57.287334
18	0x4156629c	13.399075
19	0x40b0ba1a	5.5227175
20	0x41a97692	21.182896
21	0x4107a5ad	8.477948
22	0x41000db0	8.003342
23	0x40cb4e00	6.3532715
24	0x42123cd8	36.559418
25	0x4073a781	3.8070986
26	0x428746ed	67.63853
27	0x40ee5e3d	7.4490037
28	0x4298308d	76.094826
29	0x41ad16bf	21.636106
30	0x41f97bc6	31.185436
31	0x41c30ef6	24.382305
32	0x41f576c5	30.682993
33	0x41c6c05b	24.843924
34	0x4107f787	8.4979315
35	0x41689006	14.535162
36	0x42242fdd	41.04674
37	0x41eca497	29.580366
38	0x41cfa70f	25.956572
39	0x420228f9	32.540012
40	0x40eb9549	7.3619733
41	0x42128c94	36.637283
42	0x410eb49b	8.919093
43	0x4118404a	9.515696
44	0x415422af	13.258468
45	0x40c5f266	6.1858397
46	0x414836b2	12.513353
47	0x41d58a52	26.69254
48	0x412e988f	10.912246
49	0x41069c06	8.413092
50	0x418bd516	17.479046
51	0x422c8b10	43.135803
52	0x42069542	33.64576
53	0x41213f9b	10.078029
54	0x41e4ffe2	28.624943
55	0x41e066f5	28.050272
56	0x41c468cd	24.551172
57	0x420a65f2	34.599556
58	0x410dcaa0	8.861969
59	0x422fc817	43.9454
60	0x416a48e6	14.642797
61	0x4112e353	9.180499
62	0x41664808	14.392586
63	0x41eb0747	29.378553
64	0x41f65005	30.789072
65	0x41a6160a	20.760761
66	0x401afa80	2.4215393
67	0x413e6b4f	11.901198
68	0x4112268c	9.134411
69	0x40494c84	3.1452951
70	0x4219a2dd	38.409046
71	0x417c169d	15.755521
72	0x41250d3a	10.315729
73	0x41a4487f	20.535398
74	0x420ff103	35.985363
75	0x408e9da3	4.456743
76	0x422f107f	43.76611
77	0x40964c10	4.696785
78	0x420382e7	32.877834
79	0x40df465e	6.9773397
80	0x41590782	13.564333
81	0x412a72ea	10.653055
82	0x41317dc5	11.093205
83	0x4224aaed	41.16692
84	0x4283e93c	65.955536
85	0x41546248	13.273994
86	0x410ca045	8.789128
87	0x41796697	15.587546
88	0x41637329	14.215615
89	0x40719e02	3.775269
90	0x418a88f7	17.316877
91	0x415cb708	13.794685
92	0x4153f193	13.246478
93	0x4209d3ed	34.45696
94	0x4104494e	8.267897
95	0x41af8377	21.939192
96	0x4153b560	13.231781
97	0x41730adf	15.190154
98	0x426b416f	58.8139
99	0x421c1b2b	39.02653
100	0x412ce10c	10.804943
101	0x41d5f390	26.743927
102	0x418e3f6c	17.780968
103	0x41c4dd14	24.607948
104	0x415f8ab1	13.97136
105	0x41e4402d	28.531336
106	0x41ada448	21.705215
107	0x40fc209a	7.8789797
108	0x4139c589	11.610726
109	0x41f1c766	30.222363
110	0x42331f71	44.780704
111	0x422e0daf	43.513363
112	0x41e71a18	28.887741
113	0x42122a44	36.541275
114	0x41f77d18	30.93608
115	0x41ee4337	29.78282
116	0x421cd39a	39.206642
117	0x41f5f7ed	30.746058
118	0x41216f4b	10.089671
119	0x41b85b6b	23.044638
120	0x41a6d810	20.8555
121	0x4116db07	9.428473
122	0x41f4e954	30.61393
123	0x4104db7f	8.303588
124	0x413a1265	11.629491
125	0x420f1e31	35.779484
126	0x419c25a8	19.518387
127	0x40a9a0ee	5.3008947
128	0x4226bd90	41.68512
129	0x42643d5a	57.059914
130	0x41fa4bdb	31.287039
131	0x427b207b	62.78172
132	0x406a0b38	3.6569347
133	0x4108d668	8.552345
134	0x420b4ae3	34.82313
135	0x41ed1488	29.635025
136	0x40fce9ae	7.9035254
137	0x40eb1e18	7.3474236
138	0x41a50a65	20.630075
139	0x414b6a6a	12.71348
140	0x41f7afeb	30.960897
141	0x422602a3	41.502575
142	0x4176c821	15.42386
143	0x420513e8	33.26944
144	0x40c4a37b	6.144956
145	0x41313aff	11.076903
146	0x41d93596	27.151165
147	0x4101c2cf	8.110061
148	0x41530466	13.188574
149	0x41063653	8.388263
150	0x40dda1c3	6.9259963
151	0x412911df	10.566863
152	0x416e9f91	14.913957
153	0x425aea75	54.728962
154	0x410656ea	8.396219
155	0x417a9fe8	15.66404
156	0x4249f2f1	50.487247
157	0x418eb9a1	17.84064
158	0x419ea316	19.829632
159	0x41532318	13.196068
160	0x42135c98	36.840424
161	0x416055bc	14.020931
162	0x42108880	36.1333
163	0x3fff9f0b	1.9970411
164	0x41a23edf	20.280699
165	0x41e46cde	28.553158
166	0x4201b41c	32.425888
167	0x42871b76	67.553635
168	0x4260fe27	56.248196
169	0x41b12a72	22.145725
170	0x41cb34e8	25.400833
171	0x40db00bb	6.843839
172	0x42747cd2	61.121895
173	0x411b243b	9.696345
174	0x3fa634fd	1.2984921
175	0x416d5ed8	14.835655
176	0x415c65be	13.774839
177	0x4294c00a	74.37508
178	0x42312259	44.283543
179	0x4182ba3e	16.340939
180	0x40fc9d89	7.8942304
181	0x3fed9f80	1.85643
182	0x4183951b	16.447805
183	0x40e9480f	7.290046
184	0x41ba52eb	23.290487
185	0x4291f8ef	72.9862
186	0x40fda0ba	7.92587
187	0x3f26eacf	0.6520204
188	0x40cb4276	6.351863
189	0x41990293	19.126257
190	0x41fea94f	31.83267
191	0x420a6482	34.598152
192	0x418792cd	16.94668
193	0x4201c069	32.4379
194	0x4131240a	11.071299
195	0x40875960	4.22966
196	0x418c73a9	17.556475
197	0x424527bb	49.2888
198	0x3f6f5520	0.93489265
199	0x423a44ff	46.56738
200	0x4098e9cc	4.7785397
201	0x410c664f	8.774978
202	0x40e38ecc	7.1111813
203	0x41b3ecf1	22.490694
204	0x41686ea6	14.527014
205	0x413655b0	11.39592
206	0x411ccd1c	9.800076
207	0x426c78d0	59.11798
208	0x414d2a10	12.822769
209	0x417c30be	15.7619
210	0x40949c58	4.644085
211	0x41068bb5	8.409108
212	0x414a11db	12.629359
213	0x4131bc4a	11.108469
214	0x416c7732	14.7791
215	0x418979b1	17.18442
216	0x4174996e	15.287458
217	0x4148f493	12.5597105
218	0x41512f4d	13.074048
219	0x41858135	16.68809
220	0x413a272e	11.634565
221	0x413f46eb	11.954814
222	0x414e7ed3	12.905963
223	0x427c5f0e	63.092827
224	0x425297a9	52.648106
225	0x41babb55	23.34147
226	0x427fa722	63.913216
227	0x429334ba	73.60298
228	0x411a2d16	9.636007
229	0x4199a07d	19.203363
230	0x40ed0c06	7.4077177
231	0x41ee8e7b	29.81957
232	0x40b8e21a	5.7776003
233	0x40c5aef6	6.1776075
234	0x41bef9b0	23.871918
235	0x4198cc6c	19.099815
236	0x40ac5f4e	5.386634
237	0x405217cf	3.2827032
238	0x41df8144	27.938118
239	0x414b532d	12.707807
240	0x40a6fc16	5.218272
241	0x415a252c	13.634075
242	0x421e7ef7	39.62399
243	0x41e4376c	28.527061
244	0x4228b160	42.173218
245	0x4228ab7e	42.167473
246	0x411c2dd2	9.761187
247	0x412bd0d5	10.738484
248	0x3f90c712	1.1310751
249	0x40cc9300	6.3929443
250	0x42d9c3ae	108.88219
251	0x416e3378	14.887566
252	0x415997ad	13.59953
253	0x41500f60	13.003754
254	0x40fcb44e	7.89701
255	0x40c1a83c	6.0517864

seq.3.weight f4 [400, 300]
0	0x3e4de3a5	0.20106371
1	0xbc86145f	-0.016367136
2	0xbd9c8940	-0.07643366
3	0xbdd404d8	-0.10352486
4	0xbda8aaf3	-0.08235731
5	0xbe39a9bd	-0.18131156
6	0xbd73ef9e	-0.05955469
7	0xbee05399	-0.4381378
8	0xbdb9aaec	-0.09065804
9	0xbea97a50	-0.3310113
10	0xbe8d9312	-0.27651268
11	0xbe8241c5	-0.25440803
12	0x3de340df	0.110963576
13	0x3b1bea49	0.0023790768
14	0xbdff4281	-0.124638565
15	0xbea9cee8	-0.3316567
16	0x3e05e75c	0.13076538
17	0xbdb0f5a2	-0.08640601
18	0xbec2a2e1	-0.38014892
19	0xbd94545b	-0.07242652
20	0xbe30a2cc	-0.17249602
21	0xbe87cac8	-0.26521897
22	0xbc4b672e	-0.012414737
23	0xbda41b8c	-0.08013067
24	0x3e305949	0.1722156
25	0xbe0b9e8d	-0.13634701
26	0x3c5441f4	0.012955178
27	0xbdceb5f5	-0.10093299
28	0xbe1074e1	-0.14107086
29	0x3d315a82	0.043299206
30	0xbe1e6210	-0.15467095
31	0x3d62c631	0.05536479
32	0xbe2e9e98	-0.17052686
33	0xbd99d706	-0.075117156
34	0xbe2499ad	-0.16074248
35	0xbda7f655	-0.08201281
36	0xbe14496a	-0.1448113
37	0xbe6ef3e7	-0.23335229
38	0xbe9edac7	-0.3102629
39	0xbb4179ca	-0.0029522055
40	0xbe9b891f	-0.30378053
41	0xbb910730	-0.0044259056
42	0xbe2decfe	-0.16984937
43	0x3d508c4c	0.050915048
44	0xbd93993d	-0.07206962
45	0xbe11b059	-0.14227428
46	0xbce25c07	-0.027631773
47	0xbde9d4fc	-0.11417577
48	0x3db8e872	0.090287104
49	0xbe5bb611	-0.21456172
50	0xbdad7263	-0.08469083
51	0x3d0fbd62	0.03509272
52	0xbd7f92ed	-0.06239598
53	0xbe814eac	-0.25255334
54	0xbc5d54f6	-0.013509026
55	0xbe34fdf4	-0.17675
56	0xbe899f2d	-0.26879254
57	0xbebefe39	-0.37303331
58	0xbd950a30	-0.07277334
59	0x3e864e97	0.26231834
60	0xbeaef8d7	-0.34174225
61	0x3d7925b4	0.060826972
62	0xbec8d4ad	-0.3922476
63	0xbe14217b	-0.14465897
64	0x3d1f9551	0.03896076
65	0xbeba78be	-0.36420244
66	0x3d04cfb5	0.032424647
67	0xbc603225	-0.01368383
68	0xbb119e44	-0.0022219578
69	0x3d11ae8f	0.035566863
70	0x3d932ae6	0.071859166
71	0xbe6a9615	-0.22908814
72	0xbe8e0cf8	-0.2774427
73	0xbe6b68f5	-0.22989257
74	0xbddb0f8b	-0.10696324
75	0x3e10764a	0.14107624
76	0x3ce1779d	0.027522856
77	0x3d8dbd34	0.06920853
78	0xbe57af33	-0.21062927
79	0xbe325197	-0.17413937
80	0xbe268374	-0.16261083
81	0x3e2f94e4	0.17146641
82	0xbd084874	-0.03327222
83	0xbe7f1fdf	-0.24914502
84	0xbd9754a5	-0.073891915
85	0x3d58b2e1	0.052904967
86	0xbe8a7c2c	-0.2704786
87	0x3e251d17	0.16124378
88	0xbe9dd839	-0.30829027
89	0x3cc4ae0e	0.024008777
90	0xbd1709b3	-0.036874484
91	0xbcb44c0c	-0.022008918
92	0x3d69c666	0.057073973
93	0x3d54fff5	0.052001912
94	0x3c2fada2	0.01072255
95	0xbe8d7b53	-0.2763315
96	0xbb0fb712	-0.0021929187
97	0xbe62a7dc	-0.22134346
98	0xbd52f4a4	-0.05150284
99	0xbe74aee6	-0.23894843
100	0xbe51f382	-0.20503047
101	0xbd3ba5f6	-0.04581257
102	0x3e37050a	0.17873016
103	0xbe23e7c7	-0.16006385
104	0x3d92eb2f	0.07173764
105	0xbe8d5209	-0.2760165
106	0xbea82467	-0.32840273
107	0xbe6f5273	-0.23371296
108	0xbe8616e3	-0.26189336
109	0xbe811779	-0.2521322
110	0x3ca041e5	0.019562671
111	0xbd77f664	-0.06053771
112	0xbd918daa	-0.071070984
113	0xbe6613d3	-0.224685
114	0xbdece49d	-0.11567042
115	0xbd659231	-0.056047622
116	0xbe1e77fd	-0.1547546
117	0xbe65a179	-0.22424878
118	0xbe1b260c	-0.15151232
119	0xbe816122	-0.2526942
120	0x3d5e8706	0.054327987
121	0xbe1d0164	-0.15332562
122	0xbdb77c69	-0.08959276
123	0xbe111d9d	-0.14171453
124	0xbe44d7e0	-0.19222975
125	0xbd884541	-0.06653834
126	0x3de7c7d8	0.11317414
127	0x3da3c903	0.07997324
128	0xbec11b25	-0.37716022
129	0xbdefedb8	-0.11715263
130	0xbe13122a	-0.14362398
131	0x3e00b89a	0.1257042
132	0x3c5c2ebe	0.013438879
133	0xbe85543b	-0.26040825
134	0xbe1185b1	-0.14211155
135	0xbe786497	-0.24257122
136	0xbca3bc6a	-0.019987304
137	0x3d39e10c	0.045380637
138	0x3b1805c5	0.0023196798
139	0xbe1f622a	-0.1556479
140	0xbda020c3	-0.07818749
141	0xbe4463ea	-0.19178739
142	0xbe159dbb	-0.1461095
143	0xbd829471	-0.06375969
144	0xbe12dc51	-0.14341857
145	0x3da92412	0.08258833
146	0xbdb04814	-0.08607498
147	0xbe2740c6	-0.16333303
148	0x3e0cb6f7	0.1374167
149	0xbe351938	-0.17685401
150	0xbe751d3d	-0.23936935
151	0xbe22996a	-0.15878835
152	0xbe6dee66	-0.23235473
153	0x3d69185e	0.056908004
154	0xbe1d677f	-0.15371512
155	0xbdd3e036	-0.10345499
156	0xbe48392e	-0.19553062
157	0xbda7b3a8	-0.081885636
158	0xbe0069eb	-0.12540404
159	0xbe5e6294	-0.21717292
160	0xbe532d4d	-0.2062275
161	0xbd2010a6	-0.039078377
162	0x3dc28859	0.094986625
163	0xbe232fb0	-0.1593616
164	0xbe0c56ab	-0.13704936
165	0xbe2a4bce	-0.1663048
166	0x3afefc4a	0.001945385
167	0x3d7a0097	0.06103572
168	0xbd236c2b	-0.03989808
169	0x3d01ee14	0.03172119
170	0xbd54e1a2	-0.051972993
171	0xbe3a5584	-0.18196684
172	0xbde65d83	-0.11248305
173	0xbbc18222	-0.0059054056
174	0x3e14d3c2	0.14533904
175	0xbe400261	-0.18750907
176	0x3d6b684c	0.057472512
177	0xbd085ac1	-0.033289675
178	0xbe19376b	-0.14962547
179	0x3dd6a784	0.1048117
180	0xbcdb4d9b	-0.026770404
181	0xbde3eb21	-0.11128832
182	0xbe2c16a1	-0.16805507
183	0xbe76fa5b	-0.2411894
184	0xbe79ffbe	-0.24413964
185	0x3e08f953	0.1337636
186	0xbe0f2fd2	-0.13983086
187	0x3d78bf6c	0.06072943
188	0x3def8e8e	0.11697112
189	0xbe845691	-0.25847295
190	0xbe248b15	-0.1606868
191	0xbeb60543	-0.3555089
192	0x3c12a3f7	0.008950225
193	0xbe0ed990	-0.13950181
194	0xbe57576b	-0.21029441
195	0x3db2ef9f	0.0873711
196	0xbe52bcc0	-0.20579815
197	0xbcfc2137	-0.030777557
198	0xbd846d27	-0.06466132
199	0xbd97df2e	-0.07415615
200	0xbdc65000	-0.096832275
201	0xbe196e9a	-0.14983597
202	0xbe130cd6	-0.14360365
203	0xbe398503	-0.18117146
204	0xbe476fce	-0.19476244
205	0xbe3084a7	-0.17238103
206	0xbe84c042	-0.2592793
207	0xbe2f20a1	-0.1710229
208	0xbdfb76c2	-0.12278511
209	0x3d72cc4f	0.059276875
210	0xbe1b7802	-0.15182498
211	0x3dae08ce	0.08497773
212	0xbe04b1dd	-0.12958474
213	0xbdcf8d49	-0.1013437
214	0xbea5f23e	-0.3241138
215	0xbda2e956	-0.079546615
216	0xbde89580	-0.1135664
217	0xbe8c3623	-0.27385053
218	0x3cff9e6b	0.03120347
219	0xbdaf8b12	-0.085714474
220	0xbe46ce83	-0.19414715
221	0xbe76d8d5	-0.24106152
222	0xbdb4edab	-0.08834394
223	0x3dcf40f9	0.101198144
224	0xbd837ec7	-0.06420665
225	0xbe78c69d	-0.24294515
226	0xbeade3d4	-0.33962882
227	0xbd78a765	-0.060706515
228	0xbe535c77	-0.20640741
229	0x3d9a00cb	0.075196825
230	0xbe9eb4ad	-0.3099722
231	0xbee38293	-0.44435558
232	0x3c942130	0.018082231
233	0x3d3be806	0.04587557
234	0xbe83a0e6	-0.25708693
235	0xbe458d90	-0.19292283
236	0xbe58db03	-0.21177296
237	0x3d24e2a8	0.04025522
238	0x3e184c72	0.14872912
239	0xbe9c3bf9	-0.30514506
240	0x3c3bf425	0.011471783
241	0x3c67aacb	0.014139841
242	0xbda66203	-0.08124163
243	0x3b0d3c01	0.0021550658
244	0xbe534412	-0.20631436
245	0xbcbd01a5	-0.023072073
246	0xbb91dbe6	-0.0044512628
247	0xbe8a8429	-0.27053955
248	0x3da69d1b	0.08135434
249	0xbe0d3a0e	-0.13791677
250	0xbeb3dee6	-0.35130996
251	0xbc5f5b66	-0.013632631
252	0xbbddb9a5	-0.0067665153
253	0xbde08ea7	-0.10964709
254	0xbe5a3e0d	-0.21312733
255	0xbe00de7a	-0.12584868
