checkpoint_critic_param.pth (torch, 538372 bytes, 9 tensors)

seq1.0.weight f4 [300, 33]
000000 79 2f af be f3 13 fc be 81 c5 1b bf d7 0f b1 3e
       -0.34215906 -0.4923397 -0.6084824 0.34582397
000010 7b 71 d5 bd 45 21 60 3f 89 e2 71 bf dd cc 88 3e
       -0.10422035 0.87550765 -0.9448629 0.26718798
000020 0e 66 43 3e f5 86 bb be 4c c3 fb bd a3 af 1f 3e
       0.190819 -0.36626402 -0.12293109 0.15594344
000030 27 43 c8 3d b0 07 8c 3e 17 64 ea 3e a7 e4 3c 3f
       0.09778433 0.27349615 0.45779487 0.73786396
000040 60 0e 8b be d2 b0 fe bd ab c8 04 3e 9c d7 41 be
       -0.27159405 -0.124360695 0.12967174 -0.18929905
000050 5d b0 00 be b1 22 d4 3e 84 b8 77 3e b5 b8 89 3e
       -0.12567277 0.41432717 0.24191481 0.26898733
000060 21 e4 85 bd 28 8e af 3e 78 f5 c6 3e c0 87 c9 bc
       -0.06537653 0.34288144 0.38859153 -0.024600863
000070 c0 79 96 3e 90 d2 d5 bc b9 ce 55 bc 00 59 44 3d
       0.29389763 -0.02610138 -0.013049775 0.04793644
000080 2d 52 2e 3f 0b 64 a8 3b 45 a5 f0 be 00 9d 36 be
       0.6809414 0.005138879 -0.4700109 -0.17833328
000090 77 2c bb 3e 57 ac 78 be 22 65 4c bf 46 87 38 3e
       0.3655736 -0.24284492 -0.79841816 0.18020353
0000a0 b8 12 ad bc 0b 8a b4 be 57 f6 33 bf 47 7d 39 3d
       -0.02112709 -0.35261568 -0.7029776 0.04528549
0000b0 87 74 8d bd 7d 38 9f be d7 91 07 3f 49 49 8a 3f
       -0.069069915 -0.31097785 0.5295691 1.0803615
0000c0 51 79 54 bd 87 b1 ed 3e 1c f9 5e be 77 5c e5 3e
       -0.05187351 0.46424505 -0.21774715 0.44797108
0000d0 1e a9 e3 3d 9e df 16 3c 2d 49 1f bd 38 6a 61 3d
       0.11116241 0.009208588 -0.038888145 0.05503294
0000e0 3c 64 c8 3e 17 bc 7b 3e bb d3 92 be c9 6d 43 be
       0.39138973 0.2458347 -0.28677163 -0.19084848
0000f0 c1 59 ec 3c 7f 76 ce be 58 65 9a 3c ae 50 27 3d
       0.028851392 -0.4032478 0.018847153 0.040848427
000100 70 cc 32 bb 40 64 91 be 4e 41 a8 3b 2f 5a 88 bd
       -0.0027282499 -0.28396797 0.005134738 -0.06657826
000110 18 7b 44 3e c7 65 25 3f 81 96 ab 3e 2c 32 77 3d
       0.19187582 0.64608425 0.33513263 0.060350582
000120 73 b9 17 3e 97 aa b3 3c b1 2f 35 bf 63 3d 21 3e
       0.14816837 0.02193193 -0.70775896 0.15746073
000130 ff 84 69 3d de ff fa bd 24 ba 85 3e cf 4d 00 bf
       0.0570116 -0.12255834 0.26118577 -0.50118726
000140 bf 3d 2b bf 68 c1 be 3e ef bd 4f 3f e4 5a 8a bd
       -0.6689109 0.37256932 0.8114919 -0.06755617
000150 23 ff 99 3e 58 a5 1a 3e 20 63 e9 3d c6 58 ac 3e
       0.30077466 0.15102136 0.1139586 0.3366148
000160 eb da c2 3d 89 f6 8b 3e b9 1f b6 3d 2e c7 3e 3f
       0.095144115 0.2733653 0.08892769 0.74522674
000170 5a 57 aa be 49 58 9c 3b 01 f0 bf 3e d8 1b 37 3c
       -0.3326977 0.0047712666 0.37487796 0.011176072
000180 e6 a0 8f 3c e0 a5 af ba c3 88 04 bd dd 78 cc 3d
       0.017532777 -0.0013400875 -0.03235699 0.0998399
000190 c2 73 3d 3e 0b 25 8f bf 92 85 2f bf 47 fd 6d 3d
       0.1850119 -1.118318 -0.6856319 0.058102872
0001a0 2b a5 3d bf 87 16 87 bf c9 e0 1e bf 4c 16 11 bf
       -0.7408015 -1.055375 -0.62061745 -0.5667465
0001b0 88 28 5e 3e a4 08 f5 bd 40 a2 df be 8e 0c 60 3d
       0.21695149 -0.11964539 -0.43678474 0.054699473
0001c0 3d 86 e8 3e 1e 69 9e 3d 86 7e 76 be f3 7f 1b bf
       0.45414916 0.07734893 -0.24071702 -0.6074211
0001d0 61 bc d1 be 00 c9 49 be 17 93 eb 3d 76 c1 86 3e
       -0.40964034 -0.19705582 0.115026645 0.26319474
0001e0 a1 4f 0c 3e c3 cd 11 be 7b 9b ce 3c 9a 79 b8 bd
       0.13702251 -0.14238648 0.025220623 -0.09007569
0001f0 42 29 0b 3f eb 31 95 be ed 68 e6 3b a4 be 85 be
       0.5435983 -0.29139647 0.007031551 -0.2612201
000200 40 02 34 3b e5 32 05 3d 64 bd 57 bd 68 c0 49 3d
       0.0027467161 0.03251924 -0.05267085 0.04925576
000210 08 16 14 bd 76 d2 db be 66 15 52 bf 20 87 99 3d
       -0.036153823 -0.42934006 -0.820639 0.07496476
000220 c7 ce 29 bf 6c d4 3b 3e 97 29 d3 be 6e 06 fa bd
       -0.6633114 0.18342751 -0.41242668 -0.122082576
000230 e3 e7 83 be c5 2e 06 bf 72 c4 fb bd 19 66 82 be
       -0.25762853 -0.52415115 -0.12293328 -0.2546852
000240 3b 2e 6d bd 67 45 0a be 92 f5 87 be d6 30 c5 3e
       -0.057905417 -0.13503037 -0.26554543 0.3851382
000250 32 b9 85 be 0f e8 0b be 45 6f f8 be ea 59 bb 3e
       -0.26117855 -0.13662742 -0.48522392 0.36592036
000260 a9 eb 44 3e 71 0a ab be 3d 04 86 3e 51 cb 09 bf
       0.19230522 -0.33406404 0.2617511 -0.5382586
000270 31 e3 5a bc cc 5b eb 3d a1 31 1b bd 4a 0d c5 3c
       -0.013359831 0.11492118 -0.037889127 0.024054188
000280 ea d4 31 be 85 21 48 bd d6 e5 2f 3d 61 ff 1f bd
       -0.17366377 -0.04886009 0.042943798 -0.039061908
000290 4c 19 f6 bf c9 bf f6 3d f6 73 42 3f 84 7f f6 be
       -1.922647 0.12048299 0.7595819 -0.48144162
0002a0 f1 09 02 3e d1 34 f4 be b7 94 76 3f 93 51 b0 3e
       0.12699105 -0.47696546 0.9632067 0.34437236
0002b0 60 18 bc bd 81 11 04 3f 91 da 42 3e ea 9f 23 3d
       -0.09184337 0.5158921 0.19028689 0.039947428
0002c0 15 5b db 3d a2 90 0b 39 49 89 2f bf 25 e5 11 be
       0.10710732 0.00013309953 -0.68568856 -0.14247568
0002d0 ac 5f c3 3e c3 f1 95 3e 14 6e 79 be a0 ff a8 bf
       0.3815893 0.29286012 -0.24358398 -1.320301
0002e0 8f 49 a0 3e b7 ab 23 3e 6d af 40 3e cf 43 a8 bc
       0.3130612 0.15983473 0.1881692 -0.020540146
0002f0 ee 47 0b be 69 d7 0b bd 97 1f 5c 3e 00 a7 c6 3b
       -0.13601658 -0.034140978 0.21496426 0.0060623884
000300 76 dc 4f 3d e7 97 eb be f6 81 18 3d 93 55 da 3c
       0.050747357 -0.4601433 0.037233315 0.026652133
000310 e4 9a 0f bd ff a5 0e c0 25 4c a6 3d ed 9c 22 3e
       -0.035059825 -2.2288816 0.08119992 0.15880175
000320 1b 12 e9 3d a3 0a 8b bd 82 bc 55 be ae e5 f3 be
       0.113804065 -0.06789138 -0.20872691 -0.4763617
000330 0d 8a 7d bd 19 a5 91 bd 2e 0a 49 3d ab e6 51 3d
       -0.061899234 -0.07111568 0.049081974 0.051245373
000340 34 bb 78 bc 2e b6 1f 3c eb ca e6 bc 4f a9 b8 bd
       -0.015181351 0.009748025 -0.02817293 -0.09016668
000350 c6 3e 44 bd 15 51 8d bd 80 08 8a be 8c 6a 56 bd
       -0.047911428 -0.06900231 -0.2695961 -0.052347705
000360 5a 64 b3 bd 77 37 95 bd ba 0b d0 ba fa 91 83 3c
       -0.08759375 -0.0728597 -0.0015872635 0.016060818
000370 a3 7e ba 3b b0 02 2b 3b ca fb eb ba 59 92 97 bc
       0.005691366 0.0026094131 -0.0018004116 -0.018502401
000380 fb d6 0a 3e 28 7a b5 3b be 40 ac bd 39 9d 64 bd
       0.13558571 0.005538244 -0.08410786 -0.055814
000390 eb b8 cd bc 76 9b 6a bd 2d 5a a2 c0 f8 81 4c bf
       -0.02511259 -0.057277165 -5.073508 -0.79885817
0003a0 84 2c b0 3f 52 21 1c 3e 17 76 10 be 2f bc 79 3e
       1.3763585 0.15247086 -0.14107548 0.24388193
0003b0 1d 88 89 3f bb 10 45 bd 44 aa 46 3c a0 a9 76 be
       1.0744663 -0.04811166 0.012125555 -0.24088144
0003c0 6d 62 51 be 11 2d c6 3c 3c 87 80 3d 55 f0 bb bb
       -0.20447703 0.024191411 0.06275794 -0.005735437
0003d0 fa 55 29 3f 56 5b 75 bf d3 de 23 3e cd a3 8c be
       0.66146815 -0.9584249 0.1600297 -0.2746872
0003e0 bf fd 0e 3e 80 c8 98 3d e7 87 42 3e 9b a2 b1 bc
       0.13963984 0.07460117 0.18997155 -0.021683982
0003f0 26 da 8d 3d e9 13 85 bd e5 5d 7a 3b 77 0b 02 be
       0.06926374 -0.06497938 0.0038202938 -0.12699686

seq1.0.bias f4 [300]
000000 57 c2 0c be 9d 09 0e bd 5a 73 05 be 29 35 77 bd
       -0.1374601 -0.034677137 -0.13032284 -0.06035343
000010 39 cc 05 bd 37 b2 d3 3d 2e 8d a2 bc 83 b3 92 3d
       -0.032665465 0.10336726 -0.01984271 0.071631454
000020 b1 27 02 3e e5 f9 43 3d 4e 50 c1 3d ff 11 c5 3c
       0.12710454 0.04784574 0.09439145 0.024056433
000030 0d fc 19 3e 34 bd 80 bd aa c1 47 bd d6 1d a9 3d
       0.15037556 -0.06286088 -0.048768677 0.08257644
000040 58 24 d0 3c e9 92 8b 3a 8a ff da 3c e0 60 f4 3c
       0.025407955 0.0010648641 0.026733179 0.02983135
000050 fb 5b cc bd fd 7f a7 3d 04 71 27 3e a2 12 88 3c
       -0.099784814 0.08178709 0.16351706 0.016610447
000060 2a 18 cd 3d c6 4d e4 3d fe 8d 01 be c9 8a 50 bc
       0.100143746 0.111476466 -0.12651822 -0.012728401
000070 d0 b7 9a bd 21 a9 b9 3d 72 13 e9 bd 21 3d bf bd
       -0.07554591 0.09065462 -0.11380662 -0.09337831
000080 b0 76 cf bd f4 d2 b9 3c 9e 53 a3 bd 78 94 0c 3e
       -0.1013006 0.022683598 -0.07974933 0.13728511
000090 ff 56 e6 3d ed 88 29 be ff 74 01 3e 73 8e 11 3e
       0.11247062 -0.1655614 0.12642287 0.14214496
0000a0 33 e0 67 bd f7 d3 08 be d8 bd 16 be 53 1f 11 3d
       -0.056610297 -0.13362108 -0.14720857 0.035430264
0000b0 14 e0 03 be d7 44 32 be a7 52 ff bd 20 cd fc 3d
       -0.12878448 -0.17409073 -0.124669366 0.12343812
0000c0 a8 93 10 3e ee f5 af 3c 1a 66 22 bc 30 00 c6 bd
       0.14118826 0.021479573 -0.009912038 -0.096680045
0000d0 2c bb 58 bb c4 14 12 be 42 1e 12 be 3b 65 d8 3d
       -0.0033070548 -0.14265734 -0.14269355 0.10566183
0000e0 3b 21 05 3e c6 73 16 3e a3 82 1b bb 28 db f9 3c
       0.13000958 0.14692602 -0.0023728989 0.03050001
0000f0 1e 96 1b 3e d7 5f a5 3d 71 17 1e be 16 c4 11 be
       0.15193984 0.080749206 -0.1543863 -0.14234957
000100 83 4f 15 be bb 5b 10 3e 28 3b b5 3d 73 5f 00 be
       -0.14581113 0.14097492 0.08849174 -0.12536411
000110 5a 7c 21 bc 0f 05 25 be da 02 e9 bd a8 f0 56 3d
       -0.009856308 -0.16115211 -0.11377497 0.0524756
000120 bd 19 b8 3d b7 1f f5 3d 5b 37 9d 3d d3 5f eb 3d
       0.08989284 0.1196894 0.07676574 0.114928864
000130 7e 83 a0 bd a1 4f d9 bd 5c bf c3 bd 2b c3 29 bd
       -0.0783758 -0.10610891 -0.09557983 -0.041445892
000140 e5 ff 1e be 2b 46 05 3e 21 43 97 3d 64 e2 d3 bd
       -0.15527304 0.13015048 0.07385851 -0.10345915
000150 cb 23 19 be cb db b0 3b a8 69 d2 3c 0a de 0e bd
       -0.1495506 0.005397295 0.025685146 -0.03487972
000160 ff 62 08 be a5 eb 02 be ff d5 0f be 41 51 15 ba
       -0.13319014 -0.12785204 -0.14046477 -0.00056960067
000170 4f 7d 27 3e 20 58 14 3e 5b bf 90 3d 38 a6 2d 3d
       0.16356395 0.14486742 0.07067748 0.042394847
000180 57 88 c9 3b 1e 94 54 3d 53 6d 82 3c f9 ac 04 3d
       0.006150286 0.051899068 0.01592127 0.032391522
000190 82 b3 07 3e b5 d0 4e bd 1b 58 7b bd 18 17 d4 3d
       0.1325207 -0.050492007 -0.06136332 0.10355967
0001a0 e7 c5 b7 bd 26 ee f8 3d ce af 0e bd 83 99 ca 3c
       -0.08973294 0.12154798 -0.03483563 0.024731403
0001b0 85 61 fb 3d e4 7c f6 bd 64 f9 a2 3d ae 31 b2 3d
       0.1227446 -0.1203554 0.07957724 0.08700882
0001c0 91 6c d1 3d cf 52 f8 bc 3f f8 0d be 2f 63 07 3e
       0.102257855 -0.030312924 -0.1386423 0.1322143
0001d0 0a a5 c5 3d a4 50 b2 bd e1 cc 13 3e 8a 86 a0 bd
       0.09650619 -0.08706787 0.14433624 -0.07838161
0001e0 c9 43 15 be 4d 86 26 bd 99 34 d4 3d 96 dc 1b be
       -0.14576639 -0.040655423 0.10361595 -0.15220866
0001f0 11 90 be bd d4 c0 e0 bd 2c c2 63 bd a1 24 65 3d
       -0.09304822 -0.10974279 -0.0556051 0.055943135
000200 a1 ae 0a 3e be 58 28 3e d7 0d 2a be 4d 42 17 3e
       0.13543178 0.16440102 -0.16606842 0.14771385
000210 8e bb 30 be 57 01 d7 bd 34 4a 2f be d3 87 9d bd
       -0.17259046 -0.104983024 -0.1711815 -0.07691922
000220 76 95 c3 3d 86 3d 0d 3e fd a0 bf bd 96 38 c1 3d
       0.09549992 0.13793 -0.09356878 0.09434621
000230 39 aa 84 3d 08 87 13 be 12 db db 3d d7 80 8f 3d
       0.0647778 -0.14406979 0.10735144 0.07006996
000240 7b 81 1d be e0 ea c7 3d a4 7a 23 3e ed 6c 02 3e
       -0.15381424 0.09761596 0.15964752 0.12736864
000250 6e 6c 9d 3d f1 29 67 bd 47 79 07 be 29 87 b4 3d
       0.07686697 -0.056436483 -0.13229857 0.08814842
000260 dc 54 19 3e 7d 8c 25 3c a6 8e 5c bd 13 a1 70 3b
       0.14973778 0.010104296 -0.053846978 0.0036717101
000270 09 77 28 be 82 d4 88 3d 46 b3 a8 bd cb 35 96 ba
       -0.16451658 0.06681158 -0.08237319 -0.0011460123
000280 84 48 19 3e 90 86 1d 3e e9 db d7 3c e6 73 51 bc
       0.14969069 0.15383363 0.026349979 -0.01278398
000290 a7 91 34 bc 22 06 2f be 2c 5c af 3c 8c db 31 be
       -0.011021054 -0.17092183 0.021406256 -0.17368907
0002a0 2f 68 8d bd 21 61 e2 bc 7c 80 2c be 58 1d b6 3d
       -0.06904637 -0.027634205 -0.16845888 0.088923156
0002b0 b4 4c 27 be 26 6d 7e bd fc b4 bf 3d 40 17 25 be
       -0.16337854 -0.06211581 0.09360692 -0.1612215
0002c0 3a 1e c5 3d 16 27 1f 3d a2 bb b0 3d 5f 29 d8 3c
       0.09624906 0.038855635 0.08629538 0.026386915
0002d0 29 7f a6 bd 8f 93 b5 bd 75 5d 75 3d 37 cd 9a 3d
       -0.081297226 -0.08866035 0.05990358 0.07558673
0002e0 e0 8e e1 bc 29 d8 ba 3d 27 1c 84 bd 0b 53 18 be
       -0.027533948 0.091232605 -0.06450682 -0.14875428
0002f0 9c 5b b1 bd 63 d9 fd 3d 3a 12 94 bd 54 12 5c 3d
       -0.08660051 0.12394979 -0.07230039 0.053728417
000300 e7 80 06 be 7e 6d dc bc 21 7b 2e be a7 d4 a7 bd
       -0.1313511 -0.026907679 -0.17039157 -0.08194857
000310 0c d4 19 be 0e 87 ad 3c bf cc 9c bc 09 f8 0c 3e
       -0.15022296 0.021182563 -0.0191406 0.13766493
000320 44 06 29 be 00 40 9e bc 33 36 fc 3d 08 c8 b9 bd
       -0.16506296 -0.019317627 0.12315025 -0.09071356
000330 27 09 1f be e7 e7 e0 3c 54 93 23 3e ed e2 9d 3d
       -0.15530835 0.02745433 0.1597417 0.07709298
000340 59 34 f3 bd 37 35 7e 3d cf 24 d2 bc de 3b de 3d
       -0.11875219 0.06206247 -0.025652317 0.108512625
000350 14 e6 f5 3d 49 a1 99 bd 5b 69 ff 3c bf b5 15 3e
       0.120067745 -0.07501466 0.031178167 0.14620112
000360 61 9b 17 be 1e a1 13 3e 6a cb cb bc a8 c2 62 3d
       -0.14805366 0.1441693 -0.024877269 0.05536142
000370 5c 23 e5 3d f3 90 14 3d a0 43 a3 3d 92 0b d5 bb
       0.11188385 0.036271047 0.07971883 -0.0065016234
000380 1e 98 89 3d 4c 16 54 bc 31 78 48 3d c2 59 11 bd
       0.06718467 -0.012944769 0.04894275 -0.03548599
000390 ff 99 f3 bd 37 99 0f bb 30 81 11 be 8b a0 82 bd
       -0.11894607 -0.0021911392 -0.14209437 -0.063782774
0003a0 2c d9 ad 3d 93 b1 d5 3d 11 df a2 3d cc 88 18 3e
       0.08488688 0.1043426 0.07952703 0.14895934
0003b0 81 ce 9c 3d 5a 17 61 3d b0 26 2a bd dd 63 15 3e
       0.07656575 0.05495391 -0.0415408 0.14588876
0003c0 5f ef 9e 3d f9 b1 28 be 64 d6 29 3e b1 a4 f8 bb
       0.077605 -0.16474141 0.1658569 -0.007587992
0003d0 f8 68 41 bb ab f5 1d be 07 46 f2 3c 9f 53 ec 3d
       -0.002951203 -0.15425746 0.029574407 0.11539387
0003e0 49 1e e2 3d 2b 70 51 3d 39 05 e3 bd 6b 05 12 3e
       0.11040933 0.051132362 -0.110849805 0.1425988
0003f0 50 3d d2 bd 68 36 00 be 80 92 23 3e 3f f9 c8 3d
       -0.10265601 -0.12520754 0.15973854 0.09813165

seq1.1.weight f4 [300]
000000 29 7a d9 3e bb 3d d0 3e fe 23 06 3f 5d 37 a2 3e
       0.42476013 0.40672097 0.5239867 0.31682864
000010 96 48 92 3e 82 e7 1b 3f d7 f2 78 3f 8f 13 0c 3f
       0.28571004 0.6090013 0.97245544 0.54717344
000020 6e 46 72 3e 63 39 84 3e 6d e7 11 3e ba 78 6d 3f
       0.2365968 0.25825033 0.14248438 0.9276234
000030 b1 35 77 3e 9c 27 09 3f 7b f9 dc 3e cb 63 a7 3f
       0.24141575 0.53576064 0.43159088 1.3077329
000040 25 7a 7a 3f ae a1 de 3e ec b4 36 3f cd 76 a4 3f
       0.9784263 0.43482727 0.71369815 1.2848755
000050 aa ba ed 3e bc 76 16 3f 28 7e 12 3f bb 10 1f 3f
       0.46431476 0.58774924 0.5722375 0.62134904
000060 77 1a 19 3f 4b 84 1a 3f 2d 6b 66 3e 87 62 a0 3f
       0.5980601 0.60358113 0.22501822 1.2530068
000070 5c f5 8e 3f be 43 a5 3e 82 e9 f3 3e bd 1c 22 3f
       1.1168628 0.32278246 0.4763909 0.633251
000080 1d 25 f7 3e 43 c4 55 3e 09 5a de 3e c6 ea 90 3e
       0.48270503 0.20875649 0.43428066 0.28304118
000090 41 4f 06 3f a2 11 12 3f 8d 76 74 3e 46 55 bc 3e
       0.5246468 0.57058156 0.23873349 0.36783808
0000a0 da ac 63 3e 43 37 44 3f 79 f4 98 3e 69 ea 68 3f
       0.22233906 0.7664682 0.29874018 0.9098268
0000b0 99 e7 05 3f ec 08 16 3f b7 f2 8d 3e ea a9 e5 3e
       0.52306515 0.58607364 0.2772424 0.44856197
0000c0 94 54 e3 3e e7 a6 a9 3e d5 46 f0 3e bc 6a 4a 3f
       0.44400465 0.3313515 0.4692904 0.79069114
0000d0 e6 89 ca 3e 1b 12 eb 3e 17 10 9b 3e 7d da b6 3e
       0.39558333 0.4591225 0.30285713 0.35713568
0000e0 9e cb ba 3f b4 1f 07 3f dc e1 1a 3f 72 b8 05 3f
       1.4593389 0.5278275 0.60500884 0.52234566
0000f0 d3 8b 38 3f db 2b 2b 3f 83 8a 6e 3f 76 38 f3 3e
       0.72088355 0.66863793 0.931801 0.47504014
000100 b7 60 e1 3e 38 3f 32 3f c8 6b bc 3e 32 31 da 3e
       0.440191 0.69627714 0.3680098 0.42615658
000110 cf 82 e2 3e 50 cc 38 3e 24 a9 fe 3e 45 0f fe 3e
       0.44240424 0.18046689 0.4973842 0.49621025
000120 48 14 01 3f da ff 17 3f 93 7a b2 3e bf 59 cc 3e
       0.5042157 0.59374774 0.34859142 0.3991222
000130 15 9f d2 3e f7 b4 8e 3e 0d ee c8 3e 9c 84 05 3f
       0.41136995 0.2787244 0.39244118 0.5215547
000140 55 1c d0 3e d2 13 db 3e 09 af 1b 3f 5a f8 89 3e
       0.40646616 0.4278856 0.6081396 0.2694729
000150 8a a8 cd 3e a8 95 0a 3e fe c9 03 3f 52 6d 85 3e
       0.40167648 0.13533652 0.5148009 0.26059967
000160 3a c7 0e 3f 53 0f 40 3f 70 7d 16 3f 23 15 22 3f
       0.55772746 0.7502338 0.5878515 0.633135
000170 95 ef 26 3f fd 38 89 3e 3e 27 22 3f 3a 22 00 3f
       0.65209323 0.2680129 0.6334113 0.50052226
000180 a1 d9 b9 3e d8 e1 a0 3e 25 a2 61 3f 70 76 a2 3e
       0.3629885 0.31422305 0.8813804 0.31730986
000190 f1 b7 11 3f 39 4f b2 3e 04 0a 0e 3f f9 6c 81 3e
       0.569213 0.34826067 0.5548403 0.25278452
0001a0 03 5d e9 3e 54 30 13 3f c2 60 49 3e 92 cb 1f 3f
       0.45578775 0.5749562 0.19665816 0.6242
0001b0 0b 36 5e 3e a3 68 ef 3e c9 8f b0 3e b2 81 77 3f
       0.21700303 0.4675952 0.344847 0.96682274
0001c0 32 90 95 3e cd 13 39 3e ce 88 30 3f 46 d7 09 3f
       0.29211575 0.1807396 0.6895875 0.53844106
0001d0 bd 5e c8 3e d8 04 9a 3e 01 97 8f 3e cb a4 a6 3e
       0.3913478 0.3008182 0.28044894 0.32547602
0001e0 40 64 a1 3e 09 5a f7 3e 58 c4 06 3f 58 07 56 3f
       0.31521797 0.4831088 0.52643347 0.83604956
0001f0 0e 2e c3 3e 9c 7b f4 3e 7c c5 e6 3d 1e e0 c4 3e
       0.38121074 0.47750556 0.11268136 0.38452238
000200 af 65 44 3f 2a 14 48 3f 15 73 ff 3e 95 b9 c2 3e
       0.76717657 0.7815577 0.49892488 0.38032213
000210 c2 ca 0d 3f 4c c7 34 3f 8e c9 ca 3e 80 38 6c 3f
       0.5538751 0.706166 0.396069 0.9227371
000220 fe ba 88 3e a7 13 a1 3e 07 bb 84 3e a7 c6 21 3f
       0.26705164 0.31460306 0.2592394 0.63193744
000230 61 a4 1b 3f 76 00 14 3f 87 8d b1 3e c3 1a 00 3f
       0.607977 0.57813203 0.3467829 0.50040835
000240 90 2d 12 3f 9b bd 99 3e 2a 0f 49 3f 95 0a ed 3e
       0.5710077 0.3002747 0.78538764 0.46297136
000250 b2 02 35 3f b5 69 05 3f 9d a4 0d 3f 63 64 eb 3e
       0.7070724 0.5211442 0.55329305 0.45975026
000260 8b 55 37 3f 90 eb 14 3f 43 22 06 3f 0d 4a e1 3e
       0.71614903 0.5817194 0.5239603 0.4400181
000270 88 14 3b 3e af 5b e7 3e cb 06 b7 3e 94 63 21 3f
       0.18269551 0.45187137 0.3574737 0.6304257
000280 eb f3 07 3f b9 68 b7 3e 5b 66 ea 3e a4 3d 05 3f
       0.53106564 0.35822085 0.45781216 0.5204718
000290 17 ae df 3e 26 fd 2a 3f ee 3a a6 3e 17 0a b2 3e
       0.43687508 0.66792524 0.32466835 0.34773323
0002a0 47 f9 ad 3e e9 8e c8 3e 3f 30 06 3f d7 21 00 3f
       0.33979246 0.39171532 0.5241737 0.50051636
0002b0 a3 a2 63 3e bf 20 16 3e b1 0c ec 3e 11 53 b8 3e
       0.2223001 0.14660929 0.46103433 0.36000875
0002c0 56 c0 4f 3e 7b fd 9c 3e 8f 62 d4 3e af bf fb 3e
       0.20288214 0.3066214 0.41481444 0.4916968
0002d0 41 4f 88 3e 6f 37 e0 3e 1d 2a af 3e a8 fa 25 3f
       0.26622966 0.43792292 0.34211817 0.64835596
0002e0 27 1c 0a 3f fd af ce 3e 95 ee d0 3e 10 58 5d 3f
       0.5394921 0.40368643 0.40807024 0.864625
0002f0 8b 03 18 3f 0c 3f 85 3e 1f e2 02 3f ca 25 90 3f
       0.59380406 0.26024663 0.51126283 1.1261532
000300 b1 51 e9 3e 48 63 f5 3e bf 48 cc 3e aa 27 d2 3e
       0.45570138 0.47927308 0.3989925 0.41045886
000310 11 6c 80 3e d2 a2 9a 3e 00 71 b8 3e 54 51 47 3f
       0.25082448 0.30202347 0.36023712 0.7785847
000320 ae 92 fe 3e c5 e2 d5 3e 6b 03 12 3f d5 22 fe 3e
       0.49721283 0.41774574 0.57036465 0.4963595
000330 9e 7f de 3e e4 39 b7 3e 35 ef e1 3e 9e a5 8b 3f
       0.4345674 0.35786355 0.44127813 1.0909917
000340 cf 77 8b 3e 9d 57 51 3f cf e1 a0 3e be 22 99 3e
       0.27239844 0.8177431 0.31422278 0.2990932
000350 d1 11 e5 3e 31 8b a0 3e f1 8a cf 3e 5d 44 c9 3e
       0.44740155 0.31356195 0.4053569 0.3930997
000360 e5 68 32 3f fa 4e cb 3e 0b b6 a3 3e b2 79 c2 3e
       0.69691306 0.39708692 0.31974825 0.3798347
000370 6a 6b 1a 3f bf a7 38 3e a5 2a f8 3e 41 29 bc 3e
       0.6032015 0.1803274 0.48470035 0.36750224
000380 d7 b6 50 3e 40 01 19 3f c1 69 08 3f ed 6c 6a 3f
       0.20382248 0.5976753 0.5328637 0.9157246
000390 1b 98 cf 3e c1 30 c6 3e 8f 04 d0 3e 05 13 d8 3e
       0.40545735 0.3870907 0.40628478 0.4220201
0003a0 79 61 9b 3e 1b 87 fe 3e f7 b8 31 3f 80 79 07 3f
       0.30347803 0.49712452 0.6942286 0.5291977
0003b0 49 77 10 3f 0b ce e4 3e 73 17 db 3e 36 0e ca 3e
       0.56432015 0.44688448 0.42791328 0.39463967
0003c0 14 ea 0e 3f e6 bc 0f 3f a2 22 7b 3f 54 8d 19 3f
       0.55825925 0.5614761 0.9809972 0.59981275
0003d0 80 9c db 3e 33 16 25 3f f4 21 1f 3f 3d 43 8c 3f
       0.42892838 0.64487 0.62161183 1.095802
0003e0 f5 9c af 3e fb da 08 3f 0c e9 e4 3e 7b 90 18 3e
       0.34299436 0.5345914 0.4470905 0.14898865
0003f0 6c 7f 9a 3f 66 35 0c 3f b7 e8 dd 3e ff bc 2c 3f
       1.2070136 0.5476898 0.4334161 0.67475885

seq1.1.bias f4 [300]
000000 b6 f4 3d be 4a 62 01 bf 3c 9d 2e bf 09 15 1f bf
       -0.18550381 -0.505406 -0.6820867 -0.6214147
000010 67 4a d2 be b7 e7 90 bf 07 3b 81 bf e6 24 67 bf
       -0.4107239 -1.1320714 -1.0096139 -0.9029068
000020 ff 45 8e bf 4a 8b 86 bf b9 ec 6e be 1b 01 1e be
       -1.1115111 -1.0511258 -0.2333249 -0.15430109
000030 35 9f 91 3d 14 12 28 bf 91 62 7d be 35 5b 22 bf
       0.071104445 -0.65652585 -0.24744631 -0.6342042
000040 0b e8 85 bf fe c7 7f bf e1 e5 2c bf 63 38 06 be
       -1.0461439 -0.9991454 -0.6753827 -0.13107447
000050 36 76 00 bf ed 32 0d bf 02 db a0 be c2 8b 15 bf
       -0.50180376 -0.5515583 -0.3141709 -0.5841638
000060 32 a6 75 bf 50 53 73 bf 80 69 90 bf 7c fb ca be
       -0.9595672 -0.95049 -1.1282196 -0.39644992
000070 f0 c3 c8 be ba c8 e0 be ed 31 b9 be 14 11 a2 be
       -0.39211988 -0.43903142 -0.36170903 -0.31653655
000080 e4 37 1b bf 6f 58 da be 38 6b 3a bf 55 1f e6 bc
       -0.6063216 -0.42645594 -0.7281985 -0.028091112
000090 9b 42 26 bf 63 06 bd 3e 9d 27 b5 be 89 9b 01 bf
       -0.6494538 0.36918935 -0.35381785 -0.5062795
0000a0 b5 cb 41 be d4 ed 3c bf 82 47 56 be d9 e7 19 bf
       -0.18925364 -0.73800397 -0.20925716 -0.60119396
0000b0 75 4e 98 bf 31 f3 3b bf 2f 4b 86 be ab 0b 5c bf
       -1.1898943 -0.73417956 -0.26229236 -0.85955304
0000c0 ea 12 38 bf 7e 42 a3 bf 3c 9e 13 bf a2 d1 84 bf
       -0.7190386 -1.2754667 -0.5766332 -1.0376475
0000d0 90 95 74 bf a4 1b 0d bf a8 dc 91 bf 2d 55 45 bf
       -0.95540714 -0.551203 -1.1395464 -0.7708309
0000e0 be 18 09 bf df 2f 67 bf f5 d5 2d bf e1 24 59 bf
       -0.5355338 -0.9030742 -0.679046 -0.848219
0000f0 05 47 83 bf 0b 67 6a bf ca de 15 bf 5a fe a0 bf
       -1.0256048 -0.9156348 -0.58543074 -1.2577622
000100 e6 ab 51 bf 4e e6 36 bf 3b bb 8f bf d6 b8 c8 be
       -0.8190292 -0.7144517 -1.1229013 -0.3920352
000110 fd a6 12 bf 0e b4 6b be a0 3c 7a bf ad 2e 3f bf
       -0.57286054 -0.23017904 -0.97748756 -0.74680597
000120 e6 c1 47 bf 76 64 23 bf 87 10 1f bf ae e4 83 bf
       -0.7803024 -0.63825166 -0.62134594 -1.0304163
000130 40 7c 84 bf 7e 57 1f 3f 55 4e 07 bf bb 79 29 3f
       -1.0350418 0.6224288 -0.528539 0.6620137
000140 ca d4 5e bf 67 0e 4b 3d 5d 18 45 bf eb 87 b1 be
       -0.8704344 0.049574282 -0.769903 -0.3467401
000150 b1 df 1b 3f c7 82 46 3e 65 b0 90 bd a4 35 5b bf
       0.608882 0.19385825 -0.070648946 -0.85628724
000160 05 24 54 bf 2f 12 9e bf 81 6f 9a be d0 6b 8b bf
       -0.8286746 -1.2349299 -0.30163196 -1.0892277
000170 99 64 3e bf 29 00 84 bf 77 90 7c bf 09 f1 10 bf
       -0.7437225 -1.0312549 -0.98657936 -0.5661779
000180 39 b1 17 bf 27 f8 83 be 55 7c 4c bf dd 66 30 bf
       -0.59254795 -0.25775263 -0.79877216 -0.68906957
000190 de f5 24 bf 87 78 55 bf da 2d 35 bf 1c a9 77 bf
       -0.64437664 -0.83387035 -0.7077309 -0.96742415
0001a0 56 f6 50 bf fe 98 2d bf 31 0d 67 bf ea 45 19 bf
       -0.8162588 -0.6781157 -0.90254503 -0.59872305
0001b0 3b 92 af 3d 1b cf 39 bf c1 9c 28 bf 84 ea 3f 3d
       0.08572813 -0.7258164 -0.6586419 0.04685451
0001c0 91 51 d7 be 48 aa ab be 2d eb 7c bf f9 13 46 bf
       -0.42054418 -0.33528352 -0.9879635 -0.77374226
0001d0 2d 35 87 bf a5 c3 06 bf 14 60 b5 bf 8f d5 03 bf
       -1.0563103 -0.5264228 -1.4169946 -0.5149774
0001e0 b8 dc 95 bf e6 9a d6 be a4 3a 24 bf f8 bb 1f be
       -1.1707983 -0.41915053 -0.6415198 -0.15599048
0001f0 46 8d 4c be 53 ed ae be fb 2d f1 3c c3 09 66 bf
       -0.19975767 -0.3416544 0.02944087 -0.89858645
000200 d3 0e 0c bf e6 bf 15 bf c8 c3 4a bf c6 b1 7b bf
       -0.5471012 -0.5849594 -0.7920499 -0.98318136
000210 7b 90 72 bf 30 dd 45 bf 64 a2 40 bf 96 53 7c be
       -0.9475171 -0.7729063 -0.7524779 -0.2464126
000220 bb 06 0e bf 96 5e 7f bf d9 fa 86 bf 3d b4 68 bf
       -0.5547902 -0.997537 -1.0545303 -0.9090002
000230 54 e5 81 bf 47 be 5c bf 24 25 9b bf 50 74 02 bf
       -1.014811 -0.8622784 -1.212071 -0.5095873
000240 09 71 2a bf 45 a3 6d bf 61 22 90 bf b7 56 77 bf
       -0.6657873 -0.92827255 -1.1260492 -0.9661669
000250 af cf 8b bf 16 43 86 bf 84 34 2b bf 46 b9 81 bf
       -1.0922755 -1.0489223 -0.6687701 -1.0134666
000260 d1 de 3c bf b4 65 f5 be 05 cd bc 3e 4b 1b 6a 3e
       -0.7377749 -0.47929156 0.36875167 0.22861974
000270 0e c3 8d bf fe 8a 5e be 73 b7 15 bf 46 e4 8c bf
       -1.1075151 -0.21732709 -0.58483046 -1.1007164
000280 c2 05 1a bf 98 21 5f bf 8a fc 11 bf 10 6d 1c bf
       -0.60165036 -0.87160635 -0.5702597 -0.61103916
000290 3e 04 dd 3e 0b 4b 8f bf 91 fb 21 bf a8 c5 f2 bd
       0.431673 -1.1194776 -0.63274485 -0.11854106
0002a0 3b 14 61 bf 70 e6 78 bf 19 0a e2 be 16 03 d3 be
       -0.87921494 -0.9722662 -0.4414833 -0.41213292
0002b0 f1 f4 a5 be 70 35 39 bf 43 ae 60 bf 4c f2 87 bf
       -0.32413438 -0.72347164 -0.877659 -1.0620818
0002c0 77 7f 08 be d8 85 09 bf d2 ac f9 be 03 ee 52 bf
       -0.13329874 -0.53719854 -0.48764664 -0.8239443
0002d0 87 6f 89 bd 46 0f 2a bf 7c 2a 53 bf 2b f5 7e bf
       -0.06710725 -0.66429555 -0.824867 -0.99592847
0002e0 4a 8b 3a bf 19 de 3c bf 84 79 3a bf f5 a2 19 bf
       -0.7286879 -0.73776394 -0.7284167 -0.6001428
0002f0 2d 0d 32 3e 9f 24 80 bf a8 7d 99 3e 4c 65 4d bf
       0.17387839 -1.0011176 0.2997868 -0.8023269
000300 ee 0b 35 bf f6 f2 83 bf d4 eb 0a bf 76 15 fd be
       -0.7072133 -1.0308521 -0.54266095 -0.49430436
000310 88 36 16 bf 7e bc 1b bf 2d 4a dc be de b4 2f bf
       -0.5867696 -0.6083449 -0.43025342 -0.68635356
000320 a7 26 8a bf 95 ce 6f bf 66 ba 90 bf 56 03 61 bf
       -1.0793046 -0.93674594 -1.1306884 -0.87895715
000330 e0 10 64 bf f4 cc d0 be 0e de 09 bf a7 25 5c bf
       -0.8908825 -0.40781367 -0.53854454 -0.8599495
000340 1b 82 91 bf 3e 13 39 bf cd 0c 0f be 20 a4 58 bf
       -1.136783 -0.72294986 -0.13969727 -0.84625435
000350 cd e1 3d bf 0a be 7f be bd 1c d3 3e 22 61 28 bf
       -0.7417267 -0.24974838 0.41232863 -0.6577321
000360 54 dd 27 bf 24 85 97 bf 77 69 3e be 43 85 2a bf
       -0.65572095 -1.1837506 -0.18594919 -0.6660959
000370 9e bb 76 bf 41 31 81 bf 00 cc 2d bf fe af ac be
       -0.9638003 -1.0093156 -0.67889404 -0.3372802
000380 a8 77 18 be f9 1a 5c bf 23 0d 49 bf d1 b8 59 bf
       -0.14889395 -0.85978657 -0.7853567 -0.8504763
000390 54 76 e1 3e b3 48 05 bf e7 4c 12 bf dc 98 44 bf
       0.4403559 -0.52064055 -0.57148594 -0.76795745
0003a0 92 9e 29 bf 6e 25 57 bf 5a 61 60 bf 1a 50 62 bf
       -0.66257584 -0.8404149 -0.87648547 -0.88403475
0003b0 37 41 73 bf a8 cd 82 bf 5e b1 a6 be 12 98 e0 be
       -0.95021385 -1.0219011 -0.32557195 -0.4386602
0003c0 60 36 4f bf 38 71 81 3e ad 90 04 bf 17 0a 58 bf
       -0.80942345 0.25281692 -0.5178326 -0.84390396
0003d0 5d 30 5e bf fe f2 3b bf 84 7c 7e bf af 28 f8 be
       -0.86792547 -0.7341765 -0.99408746 -0.4846854
0003e0 f3 1d 33 bf b8 03 4d bf 76 40 20 be 55 41 dd bd
       -0.69967574 -0.800838 -0.1564959 -0.10803477
0003f0 4c ad 8d be 8f b2 3c bf 67 bf b3 be 05 0c a6 bd
       -0.27671278 -0.7370996 -0.35106966 -0.08107761

seq1.1.running_mean f4 [300]
000000 a0 0a 0d 3f 73 26 de bf d5 c0 32 40 13 98 e0 bf
       0.5509434 -1.7355484 2.7930195 -1.7546409
000010 65 61 f0 3f 82 e3 e4 bf 4b 37 02 bf ad d3 84 bf
       1.8779722 -1.788193 -0.5086562 -1.0377098
000020 0d 31 a6 bf 9c 10 1c c0 73 70 8e 3f 59 79 cb be
       -1.2983719 -2.4385138 1.1128067 -0.39741018
000030 a7 22 53 3f b5 ee 95 40 05 64 d9 3f d7 88 03 3e
       0.8247475 4.685389 1.6983649 0.12845169
000040 ab 4a 00 3e 40 29 37 bf be be 38 3f ed e9 51 3e
       0.12528484 -0.7154732 0.7216605 0.20499392
000050 a5 ae 6d 3f d6 20 29 40 e2 5a 28 40 31 6f d0 3f
       0.9284461 2.6426291 2.630547 1.6283933
000060 a2 a4 08 c0 11 34 88 bd 4c 7e 5f c0 46 72 80 3e
       -2.1350484 -0.06650556 -3.4920835 0.25087184
000070 54 ac 11 be f4 78 73 40 bd f7 d0 bf 49 f7 36 3f
       -0.14225894 3.8042574 -1.6325604 0.7147108
000080 54 e0 91 3e e3 72 b7 be b5 53 20 bf a1 41 59 3f
       0.2849146 -0.3582984 -0.62627727 0.84865767
000090 85 36 57 bf 35 c3 8f 3f f0 18 a4 40 b3 f1 9c be
       -0.84067565 1.1231447 5.128044 -0.30653152
0000a0 45 e8 52 3f 2a 0e 29 bf b8 b6 13 40 1c c7 f3 3e
       0.82385665 -0.6603724 2.3080273 0.47612846
0000b0 9d 44 37 c0 00 a7 d9 bf e9 0d 2b bd e8 38 fd bd
       -2.8635628 -1.7004089 -0.041761313 -0.1236437
0000c0 fb 4a 0e c0 70 34 da bf 99 ec 4d bf 59 c2 ba be
       -2.2233264 -1.7047253 -0.80439144 -0.364764
0000d0 73 74 af bd a6 ab a1 bf 68 24 70 c0 47 f0 18 c0
       -0.08567133 -1.2630508 -3.752222 -2.3896654
0000e0 e4 b7 09 bc 1a ea 49 3e 80 47 83 bf c7 d4 1f c0
       -0.008405659 0.19718209 -1.0256195 -2.497362
0000f0 6c 7a 4b bf a8 d0 d9 be 9e dd d0 3e 15 e5 9c c0
       -0.79483676 -0.42542005 0.4079408 -4.902964
000100 8a d4 a5 bd c6 04 48 be 02 ff 2e c0 74 3d 30 40
       -0.08097179 -0.19533071 -2.7343144 2.7537508
000110 79 4b 9b bf 0f 67 90 3f c0 7d 13 c0 16 aa 6f 3f
       -1.2132407 1.1281451 -2.3045502 0.93618906
000120 ce 18 cb 3d 4a 30 96 3f 55 30 84 c0 19 0a d5 bf
       0.099168405 1.1733487 -4.1309 -1.6643707
000130 59 09 b0 bf a6 74 6b 40 57 c0 da bf 62 60 cd bf
       -1.3752853 3.6789947 -1.7089947 -1.6045039
000140 ac 57 91 3f 53 ff 3b c0 91 d2 80 40 c5 46 e5 3f
       1.135488 -2.9374588 4.025704 1.7912222
000150 52 00 69 3c 6a 17 c3 3f f9 91 4a be 11 36 dc bf
       0.014221268 1.524152 -0.19782247 -1.7204
000160 52 c3 0d c0 42 a2 d4 bf 3e 8c 55 3f 7a 71 80 bf
       -2.2150464 -1.6612017 0.8341712 -1.003463
000170 d9 13 df 3d 06 75 31 c0 1c 78 f8 bd 43 0d fc bf
       0.108924575 -2.7727675 -0.12132284 -1.9691547
000180 d5 25 4c bf 10 9f b0 3f ca 18 5d bd 12 29 e6 bf
       -0.7974523 1.3798542 -0.05397872 -1.7981284
000190 68 cc c5 3f c0 aa 90 3f d8 5a d6 3f ce a1 d6 bf
       1.5453005 1.1302109 1.6746473 -1.6768129
0001a0 f6 9b 7d 3d 6d 6a 2c 3f 03 92 94 bf 19 9f e4 3f
       0.061916314 0.6734989 -1.1607059 1.7861053
0001b0 10 8a 11 3e 59 0a a8 3e e9 8e a1 40 5e 7b 16 3d
       0.14212823 0.32820395 5.048695 0.036738746
0001c0 30 f4 0f 3f d1 17 6e c0 c0 67 70 3e 3f a5 60 bf
       0.56231976 -3.7202036 0.23477077 -0.87752146
0001d0 55 a8 19 40 98 e7 c0 3f c4 43 4d c0 2f 74 21 c0
       2.4008992 1.5070677 -3.207261 -2.5227163
0001e0 d3 ea bf be e3 e9 2e bf ed da 41 be 7b 55 cc 3d
       -0.37483844 -0.6832563 -0.1893117 0.099772416
0001f0 9a ef 2b be 06 b0 3e be e9 f2 77 3f 4b 1d 06 40
       -0.1679062 -0.18621835 0.96855026 2.095538
000200 6e 41 3e 3f e0 08 fd 3f df 62 3e c0 6c 1f 03 40
       0.7431859 1.9768333 -2.9747846 2.0487928
000210 ba 73 3b bf de 07 1e bf 6a e9 d9 bf 5e 92 cc bd
       -0.7322346 -0.61730754 -1.7024357 -0.09988855
000220 ac be e7 3f 9d ae 3c 3f 8e 9c c7 bf 28 9a 4f 3f
       1.8105063 0.7370394 -1.5594652 0.810946
000230 b8 42 4f bf 17 e9 61 3f a0 3c 6a 3e a1 0e 06 c0
       -0.8096118 0.8824629 0.22874689 -2.0946429
000240 18 5d 1d 40 30 b4 83 3d 10 82 84 bf e8 f0 7d 3d
       2.458807 0.064308524 -1.0352192 0.061997324
000250 08 5d 8e be 77 82 b6 3e 71 b1 bc 3f 02 7e a2 bf
       -0.27805352 0.35646412 1.4741651 -1.2694705
000260 d9 79 9f bf 1f b1 d6 be 36 41 14 3f 30 3e c6 bf
       -1.245906 -0.41932008 0.57912004 -1.5487728
000270 09 1b 0c 40 7c a0 a2 be 35 8f bf bf 38 05 1b 3f
       2.18915 -0.31763065 -1.4965578 0.6055484
000280 40 70 44 3f b7 6f 21 40 8d 2a 99 3f 3c ba 00 40
       0.7673378 2.5224435 1.196611 2.0113668
000290 ea c1 4d 3f b3 9a 51 3e 61 be 4b bf 18 25 ba bf
       0.80374014 0.2046917 -0.7958737 -1.454257
0002a0 0b 2c 16 bf e2 03 d6 be ab 66 0d be 9e 3f 91 bf
       -0.58660954 -0.41799837 -0.13808696 -1.134754
0002b0 04 52 8c 3d ee 07 7c 3f 51 53 0b c0 4f 00 36 c0
       0.06851581 0.984496 -2.1769602 -2.8437688
0002c0 43 0c 79 3e 8f 7f aa 3c 0d 08 db 3f 35 1d c1 bf
       0.24321084 0.020812778 1.7111832 -1.5087038
0002d0 a2 68 53 bf b4 80 6c bf 18 7e 4d 3f 46 6f 26 40
       -0.8258153 -0.92383885 0.8027053 2.6005416
0002e0 ff e8 e0 3f fe 13 3b bf d4 7f f7 bf a5 fa 46 3e
       1.7571105 -0.7307738 -1.9335885 0.19431551
0002f0 ad 28 74 3f 6a 65 c4 bf 7a 25 75 bf 05 e3 07 3e
       0.95374566 -1.5343449 -0.9576031 0.13270195
000300 f6 dc 90 3f 29 85 85 3f a3 cd 6a bf e5 a8 a0 3e
       1.1317432 1.0431262 -0.91720027 0.31378856
000310 b3 d9 61 c0 a0 4b 44 3f 73 dd da bf 51 a0 95 bf
       -3.5289123 0.76677895 -1.7098831 -1.168955
000320 0f 11 e4 bf 6a 82 9a bf 1b e0 56 bf 6c 08 12 40
       -1.7817706 -1.2071049 -0.8393571 2.281764
000330 89 13 64 c0 b3 13 24 bf bd f1 c4 be cf 15 48 3e
       -3.5636923 -0.6409256 -0.38465682 0.1953957
000340 8d 87 3e bf ae 77 b4 3d 44 79 8e 3e 9e 06 0c c0
       -0.74425584 0.088118896 0.27826893 -2.187904
000350 e0 ea 14 bf 63 0f d0 3d a2 ca ec 3e 8e 31 53 be
       -0.5817089 0.10159185 0.46248347 -0.20624372
000360 a1 78 36 3f c4 3e 3a c0 71 6a 04 c0 4b af 37 c0
       0.71277815 -2.910081 -2.0689967 -2.870074
000370 3b b9 4b bf 6a 5f 3b c0 79 12 cd 3f 78 8a c7 bf
       -0.79579514 -2.9276986 1.6021262 -1.5589132
000380 5b da 83 be 95 70 97 bf 91 bb 06 bf dc c6 93 3e
       -0.2575253 -1.1831232 -0.52629954 0.28862655
000390 49 d9 83 bf 2b 14 9e be 69 d9 83 3d c3 ba e4 c0
       -1.0300685 -0.30874762 0.06437952 -7.147798
0003a0 f5 de 44 c0 42 51 07 40 43 a2 0c 3f ff 9e 35 bf
       -3.0761082 2.1143346 0.5493509 -0.70945734
0003b0 7c 67 24 bf 66 9e 14 be ca f1 3e 40 92 de b6 3f
       -0.64220405 -0.14513549 2.9835076 1.4286673
0003c0 68 da 23 c0 87 b6 bc bf c4 b7 d4 3e 44 a4 6f 3f
       -2.5602055 -1.4743203 0.41546452 0.93610024
0003d0 32 28 1d 40 57 6a 2f bf 55 6c 89 3f a4 7c 16 3e
       2.4555783 -0.68521637 1.0736185 0.14695984
0003e0 35 77 9c 3f f1 f8 3c c0 f3 04 f0 3e 06 14 fd bf
       1.2223879 -2.9526942 0.46878776 -1.9771736
0003f0 35 34 13 3f ed b7 32 bf 8a f4 74 40 50 d6 8f 3e
       0.57501537 -0.698119 3.8274255 0.28093195

seq1.1.running_var f4 [300]
000000 44 c5 ae 41 96 e0 45 41 2b 3e 21 42 c1 20 cc 41
       21.846321 12.367331 40.31071 25.515993
000010 1d e5 e5 40 0a 02 62 41 47 76 11 41 39 cb 99 40
       7.184218 14.125498 9.091376 4.8060575
000020 ac 25 8f 41 1c 6f ec 41 08 56 a6 40 88 fe ca 40
       17.893394 29.554253 5.198002 6.3435707
000030 ec af eb 41 ce 97 30 42 a2 d8 bd 41 4d 34 e5 40
       29.4609 44.148247 23.730778 7.1626344
000040 a9 6d 21 41 b6 d8 9e 41 6f 38 01 41 5d 6c c5 40
       10.0892725 19.855816 8.076278 6.169478
000050 b7 92 45 42 3c 3d 08 42 ec a9 f7 40 b3 19 65 40
       49.393276 34.0598 7.7394924 3.5796936
000060 bd c4 c8 40 64 54 08 41 e3 55 2b 41 df 4c d0 40
       6.274016 8.520603 10.708468 6.5093837
000070 1f d7 dc 40 14 ec ca 40 53 f3 14 42 bb ba 1f 41
       6.90126 6.341318 37.23762 9.9830885
000080 13 48 29 41 6b 13 45 41 56 58 50 41 8c 37 00 41
       10.580096 12.317241 13.021566 8.013561
000090 d7 9c 69 3f 14 da 08 42 51 70 73 40 9c 0b e8 40
       0.91254944 34.212967 3.8037302 7.251417
0000a0 12 47 b8 41 81 b3 ec 40 88 00 c4 40 d2 11 00 41
       23.034702 7.396912 6.125065 8.004351
0000b0 af f0 17 41 50 ad 16 42 12 35 3c 40 98 ae c2 41
       9.496261 37.66925 2.9407392 24.33525
0000c0 a8 66 4c 41 48 f3 bf 41 a5 58 b0 41 c3 b0 1c 41
       12.775063 23.99379 22.043283 9.793155
0000d0 ce 1d 75 41 bb da e7 41 fd 04 8f 41 f5 e4 28 41
       15.319777 28.981802 17.877436 10.555898
0000e0 0e d5 cf 40 e5 46 7b 41 38 f4 40 3f bf 46 f2 41
       6.4947577 15.704808 0.7537265 30.284544
0000f0 2a 6c b6 41 8e 7c eb 40 42 91 ec 40 86 e4 1d 41
       22.802814 7.3589544 7.3927317 9.868292
000100 a2 d9 50 40 1a 9e 31 41 53 ce 2a 41 5b bc 17 42
       3.2632833 11.101099 10.675372 37.93394
000110 14 f7 ee 41 be 72 94 41 d1 b5 e9 41 15 f0 83 41
       29.870644 18.556026 29.213778 16.492228
000120 be 7a 45 42 97 21 ee 41 cb 21 29 41 3d c7 31 41
       49.369865 29.766401 10.57075 11.111142
000130 c5 01 ae 41 f6 da c9 41 e1 26 26 42 a7 b6 79 42
       21.750864 25.231915 41.537968 62.42837
000140 23 02 1b 42 95 e8 94 41 27 3f 1b 42 a3 96 84 41
       38.752087 18.613565 38.811672 16.573553
000150 ed e0 3d 42 07 18 ff 3f 70 d2 37 42 5c 0d 2a 42
       47.469654 1.9929208 45.955505 42.513046
000160 aa 71 cf 40 1b f2 04 41 ae e7 4c 41 7a 59 14 41
       6.482625 8.309108 12.806562 9.271845
000170 47 89 2e 41 f6 78 dc 41 4e 59 c0 40 4a 9f 2c 41
       10.908515 27.559063 6.0109015 10.788889
000180 49 a8 c7 40 aa b2 81 41 82 92 c1 40 71 83 e6 40
       6.2392926 16.212238 6.0491343 7.203545
000190 91 a7 e7 41 92 f3 93 41 b2 63 81 42 f2 cf 78 41
       28.95682 18.49393 64.69472 15.550768
0001a0 da b8 1a 42 f8 b3 08 42 72 db 8f 41 e5 98 38 42
       38.68052 34.17575 17.982151 46.14931
0001b0 b7 d9 03 42 ea 88 0f 42 d2 61 7a 40 a4 12 86 40
       32.962612 35.883705 3.9122205 4.1897755
0001c0 22 76 f0 40 a4 97 46 41 1d ff 1c 41 98 d9 85 42
       7.5144205 12.412022 9.8122835 66.92499
0001d0 9c a7 a9 41 94 01 dc 40 7a bd b3 41 0e f5 66 40
       21.20684 6.8751926 22.467518 3.608707
0001e0 cf 1b 19 42 87 15 e4 41 84 9b 1d 42 b4 a1 b7 40
       38.277157 28.510511 39.40187 5.738489
0001f0 19 69 5f 41 4c 6f 88 40 0d 0f 2e 41 ed 71 96 41
       13.963159 4.263586 10.8786745 18.805628
000200 ce 80 00 41 23 8f 30 41 08 68 36 42 51 21 d4 41
       8.031446 11.0349455 45.601593 26.516268
000210 0f 32 9d 41 63 a0 60 41 ee c0 8b 41 51 95 07 41
       19.649443 14.039157 17.469204 8.473954
000220 72 f1 8c 41 91 55 5d 41 54 3f 79 41 23 8d 15 42
       17.617893 13.83339 15.577961 37.38783
000230 16 72 c6 40 ae b5 55 42 4f 97 4c 41 86 d3 bd 41
       6.2014265 53.42742 12.786941 23.728283
000240 7e 79 f9 40 4b c9 a3 41 52 0a 1e 41 7a 08 30 41
       7.7960806 20.473288 9.87752 11.002069
000250 3b c1 bb 40 cc ab a1 41 ef 1d a3 41 ae e0 83 40
       5.8673377 20.208885 20.389616 4.1211767
000260 97 ad 08 41 88 62 03 41 41 b8 4e 42 07 44 d3 41
       8.54238 8.2115555 51.679935 26.408216
000270 40 35 50 41 6f 08 45 41 3b bb 04 42 22 45 64 41
       13.0130005 12.314559 33.182842 14.266878
000280 6c ce fe 40 94 43 cb 40 bd b1 04 42 e9 46 dd 41
       7.962698 6.3519993 33.173573 27.659624
000290 db 00 51 42 d2 2c 20 41 e2 eb d9 3f cc 1d 1c 42
       52.250835 10.010942 1.7025111 39.0291
0002a0 f2 86 b6 41 e3 6f fe 41 ca 90 bb 40 2b 43 83 41
       22.815891 31.804632 5.8614244 16.407797
0002b0 91 25 81 40 a7 8b 89 41 57 b9 40 41 cf 05 53 41
       4.0358357 17.19319 12.045249 13.188918
0002c0 93 de c1 41 72 10 27 41 3e fb 1e 42 dd cc 70 41
       24.233679 10.441515 39.745354 15.050015
0002d0 56 f2 1f 41 7e ae 60 3f 96 48 0e 41 f3 47 5e 42
       9.996664 0.87766254 8.892721 55.570263
0002e0 98 ee ba 41 ff 07 a9 41 7f 8f 9c 41 10 eb b6 40
       23.3665 21.128904 19.570066 5.716194
0002f0 31 d4 f1 41 1d 67 3a 41 6f 81 37 42 9d da e6 40
       30.22861 11.650174 45.8764 7.214186
000300 d4 8a 85 42 ff 1d cc 40 62 fc 53 42 fe af 9f 40
       66.77115 6.3786616 52.996468 4.9902334
000310 ca 21 4b 41 05 5b 2a 41 d9 3e ce 40 55 5a f7 40
       12.695749 10.647222 6.445172 7.729777
000320 5f f4 81 41 10 dd ad 41 fc 9e 6a 41 8d 93 2d 41
       16.244322 21.73294 14.663815 10.848523
000330 45 20 1e 41 49 81 99 40 58 bf f8 41 05 64 dc 40
       9.882878 4.797032 31.09343 6.8872094
000340 68 8e 6c 41 03 33 53 41 c3 f7 0b 42 b1 b4 24 42
       14.784767 13.199954 34.991955 41.176456
000350 17 ec 07 42 5f 23 90 41 e9 09 06 42 55 ea 72 41
       33.980556 18.017271 33.509678 15.18221
000360 2f e5 fb 40 d5 2f 7b 41 4d 47 a1 41 ec e0 14 41
       7.8717265 15.699178 20.159815 9.304913
000370 aa 4c 5c 41 e2 44 ad 41 ae 2f 19 42 ad ac 2a 42
       13.768717 21.658634 38.296562 42.66863
000380 a2 53 e0 40 e8 47 6e 3f 8a 89 bb 40 98 67 d2 40
       7.010209 0.9307847 5.8605394 6.5751457
000390 93 a4 4d 42 3c 2b 06 41 12 7a cd 41 e7 1d c5 40
       51.410717 8.385555 25.684605 6.1599
0003a0 c3 14 9f 41 42 34 cc 41 e3 87 05 41 f9 45 51 41
       19.885138 25.525517 8.345675 13.079583
0003b0 e0 19 20 40 59 e4 d1 41 10 b6 86 41 d3 21 11 42
       2.5015793 26.236498 16.838898 36.28303
0003c0 25 16 e5 41 9e 39 2d 42 d3 f3 c2 40 da eb 81 40
       28.635813 43.306267 6.0922637 4.0600405
0003d0 a1 cc 97 41 57 e9 cc 41 22 04 ab 41 52 0d d6 40
       18.974916 25.613935 21.377018 6.689126
0003e0 5b c6 06 41 81 f9 02 41 02 72 22 41 97 f3 b1 40
       8.423427 8.185914 10.152834 5.560985
0003f0 f9 99 d8 40 4c bb da 41 94 2a b8 41 4b a4 cd 40
       6.7687955 27.341454 23.02079 6.4263053

seq2.0.weight f4 [400, 304]
000000 6a 50 a6 bc d2 b9 7f 3c 3e cc cf bb 65 e0 2b bd
       -0.020302016 0.015608268 -0.0063414862 -0.041962046
000010 e8 54 69 bd dd 52 ef bc c8 3e af bb c6 fc 6c bc
       -0.05696574 -0.029214317 -0.0053480603 -0.014464563
000020 ae 66 70 3c 7f ce ef 3b b3 0e fe 3c 44 20 55 bc
       0.014672918 0.0073183174 0.031012869 -0.013008181
000030 39 a6 53 3c 7f 27 d7 bc a3 bc 08 bd e4 da c3 3c
       0.012918049 -0.02626395 -0.033383023 0.023908086
000040 45 1f 45 bc fc 70 61 bd 30 c4 f9 3c 31 89 7d bc
       -0.012031381 -0.05503939 0.030489057 -0.0154746035
000050 52 24 62 bd 9c 91 22 3b b9 2f 5c bd 87 7b 5b bc
       -0.05521042 0.0024806028 -0.05375645 -0.01339615
000060 36 34 d8 ba f5 c8 e9 3c 36 2d e7 bc 9d 63 a1 3c
       -0.0016495052 0.028538207 -0.0282198 0.01970082
000070 00 6b ff 3b db 8b 5f bd 10 cc 9c bc d8 a2 12 bc
       0.007794738 -0.054576736 -0.019140273 -0.008949958
000080 23 11 a0 3c 11 e1 5c 3b f1 e1 43 bd 0d 3f 41 bd
       0.019539421 0.0033703486 -0.047822896 -0.04717927
000090 53 af 71 bd 32 eb 6a bd 7a 59 24 3c 01 90 64 3c
       -0.059005093 -0.057353206 0.0100310985 0.013950349
0000a0 8a 90 14 bd 5e 5f 5e bd f8 bb 4c bc 0b 23 1e 3d
       -0.036270656 -0.054290168 -0.012495987 0.03860764
0000b0 cc 4a cc 3c 00 3e 17 bd a9 7e d3 3b c6 de a8 bb
       0.02493801 -0.036924362 0.006454308 -0.00515351
0000c0 12 52 1a bd 47 f4 e9 bc 22 90 60 bd 6a fa 19 3c
       -0.037675925 -0.028558863 -0.054824956 0.009398082
0000d0 f8 8d 82 3c 3f 66 a7 ba bb ee d2 bc 6b 70 5b bc
       0.015936837 -0.001277156 -0.025748601 -0.013393502
0000e0 89 70 a8 bc 33 2d 5a 3c 39 b2 38 bd 5b e0 55 bc
       -0.020561473 0.01331644 -0.04509184 -0.013053979
0000f0 3a e5 5d 3c 9c cd e0 3c 10 87 78 bd f4 75 4d bd
       0.013543421 0.027441792 -0.06067568 -0.050161317
000100 54 d0 9f 3a d4 43 82 bd ec cc e4 3c 79 ad be bc
       0.0012192824 -0.063605934 0.027929746 -0.023276078
000110 78 54 21 bc 5f 5a 09 bd 48 9c c1 bc ef f9 55 bd
       -0.009846799 -0.03353345 -0.023634091 -0.05224031
000120 d4 83 fb bc 9f 48 08 3d d8 a4 4a bc d9 a0 9b 3c
       -0.030702509 0.033272382 -0.012368403 0.018997597
000130 97 54 41 bd d3 45 91 bb e7 4d 6f bc f6 d6 6d bd
       -0.04719981 -0.0044333725 -0.014605976 -0.05806633
000140 0b 45 84 bd 97 5b cd bc 03 02 60 bd 79 a3 0e bc
       -0.064584814 -0.025068088 -0.05468942 -0.008705967
000150 b5 d7 cc bc 0e 9e 14 3d 63 ac 8f bd 0d a7 a3 3c
       -0.0250052 0.036283545 -0.07015302 0.019977117
000160 6c 4c c1 3c 14 cb ce 3b 53 c8 85 bc 54 b3 ce bc
       0.023596011 0.00631083 -0.016330874 -0.025231995
000170 d2 ac 87 bd ec 33 6e 3a e1 c5 06 3d dd 8b 85 3c
       -0.0662476 0.00090867165 0.032903556 0.016302044
000180 2f 8f f9 3c 9d d2 9d 3b 3f e2 88 bd be 1a 7c ba
       0.030463783 0.004816367 -0.06683778 -0.0009617022
000190 14 e5 12 bc e3 55 09 bd c8 ab dc bc 04 58 db bc
       -0.008965749 -0.033529174 -0.02693738 -0.026775368
0001a0 e4 0e 37 bc 65 e7 ad bc 70 23 1d bc d7 0c 18 bd
       -0.011172984 -0.021228502 -0.0095909685 -0.03712162
0001b0 dd cc 2e bd bb ef aa 3c 85 83 93 3b 97 a4 90 bc
       -0.04267584 0.020866266 0.0045017623 -0.017656608
0001c0 5f 6c 21 3b b1 1d da 3a c3 5a 57 bd 98 c5 4f 3c
       0.0024631245 0.0016640929 -0.05257679 0.012681387
0001d0 3f 89 1a bd a1 6b 3e bd bf ac a4 bc b3 58 ff bc
       -0.037728544 -0.04648936 -0.020101903 -0.031170225
0001e0 b5 76 da bc d0 5e f3 bb 6e 22 4f bd fd a7 c0 3c
       -0.026667932 -0.007427074 -0.050569944 0.023517603
0001f0 53 b5 f5 bc 16 85 07 bd 0c ed 80 3b 29 e5 9b bc
       -0.029993689 -0.033085905 0.003934508 -0.01903017
000200 43 aa 14 bd 2a a5 c5 3c c6 4a 9e bb 48 05 c5 3c
       -0.036295187 0.024126608 -0.004830691 0.02405037
000210 a8 ce 63 bc 20 d1 b8 3c 6c 97 0f bb 20 0a 6c bd
       -0.013904251 0.022560656 -0.0021910323 -0.057626843
000220 5f 9b 2e 3b b5 17 a7 3b 21 64 50 bd d2 48 f0 bc
       0.0026642901 0.0050992616 -0.05087674 -0.029331598
000230 0b 3b b3 3c ac 5c 0d 39 cd 66 ca bc 29 4b a5 3b
       0.02187874 0.00013481331 -0.024707222 0.00504436
000240 7c 8f 82 bc f5 15 4b bb fd 28 3f 3b 3a 0f da 3c
       -0.01593756 -0.003098843 0.0029168718 0.026618589
000250 b9 7f 35 bc f2 16 4d bc 64 48 76 bd 9c a3 bc 3c
       -0.011077815 -0.012517678 -0.06012763 0.023027234
000260 43 db 67 bd 0b 7c cc bc 79 c0 81 bd 62 d4 26 bd
       -0.05660559 -0.024961492 -0.06335539 -0.040729888
000270 66 2f 16 3d 76 d5 bf 3c 2c 55 83 bb d3 ba 26 bd
       0.036666296 0.023417216 -0.004007956 -0.040705513
000280 18 2a 94 3c a9 59 59 bd 84 89 35 bd 39 da 95 3c
       0.018086478 -0.053064022 -0.0443206 0.018292533
000290 06 95 7a bd 92 7a 56 bc eb ca be 3c ee 4b 05 3d
       -0.061177276 -0.0130907465 0.023290118 0.032543115
0002a0 32 28 57 bd 36 aa fd 3c 47 be 33 bb 65 73 8d bc
       -0.052528568 0.030964952 -0.0027426647 -0.017266938
0002b0 42 bc 5a 3c b9 1e 33 bc 9d 7e 3f bd db 7a 55 bd
       0.013350548 -0.010932618 -0.046751607 -0.052119117
0002c0 a0 e7 3c 3c 39 30 9b bb 64 f6 6f bd dd 77 a0 3b
       0.011529833 -0.004735973 -0.058584586 0.0048971013
0002d0 da 69 1a bd 84 63 82 3c 4e bf 18 3b ae 1a 7c bb
       -0.037698604 0.015916593 0.0023307386 -0.003846805
0002e0 7d 86 91 3c b1 0c 31 bd 5f ab f3 ba 97 f8 65 bd
       0.017764324 -0.043224994 -0.0018590501 -0.056145277
0002f0 50 c8 5a bd 9e 89 5a bc 90 ff 30 3c 77 ba 8b bc
       -0.05341369 -0.013338475 0.010803118 -0.017056687
000300 b9 58 b5 ba 60 a1 94 3a 08 6e e8 bc 87 e8 d3 3c
       -0.0013835646 0.0011339597 -0.02837278 0.025867714
000310 6a e1 30 3c 38 7c 8b 3c 9d 8a 98 bb ea 54 f2 3c
       0.01079593 0.017027006 -0.004655196 0.029581506
000320 9c 36 85 bc 9b f6 34 bc 72 f9 a4 3c 6c d6 90 3c
       -0.016261391 -0.011045123 0.020138476 0.01768037
000330 f9 17 a3 3a 5d 7b 6e bc 9f bd 04 3d 25 ae ad bb
       0.0012443057 -0.014555779 0.0324074 -0.0053003007
000340 1c cb 7e ba 03 3d 3c bd 93 db 94 3c 2d 1d eb 3c
       -0.0009719597 -0.045956623 0.018171107 0.028700436
000350 a4 d9 96 3b c0 d4 8a 3c 52 25 37 bd 44 ff ad 3c
       0.0046035815 0.01694715 -0.044713326 0.021239884
000360 88 06 84 bc f4 ae d6 bc 2c 4d 7b bd e3 74 42 bd
       -0.016116396 -0.026206471 -0.061352894 -0.047474753
000370 1c d1 1a bd af e7 a0 bc d8 5b c2 3b dd 6a 9f 3b
       -0.03779708 -0.019641725 0.005931359 0.004865034
000380 58 9c 61 3b 35 46 c0 bc db 14 11 3d 0f 46 69 bd
       0.0034425464 -0.023470977 0.03542028 -0.05695158
000390 ca af b3 bc ae 48 6f bb 00 02 9b 3b 42 a7 2f bd
       -0.021934409 -0.0036511826 0.004730463 -0.04288412
0003a0 72 80 14 bd 26 a8 ab 3c a9 e9 0e bc c8 d0 02 3d
       -0.036255307 0.020954203 -0.008722701 0.03193739
0003b0 c9 d7 44 bd e1 dd da bb 0a 79 34 bd 77 8e 2e bd
       -0.04805735 -0.006679282 -0.044060744 -0.042616334
0003c0 78 a9 07 bd 89 19 54 3c d3 44 f2 bb 48 80 14 bb
       -0.033120602 0.012945541 -0.0073934584 -0.002265947
0003d0 58 72 ba bb 3b 37 a3 3c 2c 30 51 3c be a5 9d bc
       -0.0056899004 0.019923797 0.012767833 -0.019244071
0003e0 06 89 18 bd 7e 3f 48 3b 6e 7f 63 bd 76 00 15 bd
       -0.03724005 0.0030555422 -0.05554145 -0.036377393
0003f0 a0 07 5b bd 21 ff 11 bd e6 8c 62 bc 30 95 1b 3d
       -0.05347407 -0.0356437 -0.013827538 0.037984073
