checkpoint_critic_ou.pth (torch, 538372 bytes, 9 tensors)

seq1.0.weight f4 [300, 33]
00000000: 9a94 f2be e843 0cbf f713 afbd 9cf7 afbe
00000010: 1de3 d3be 2265 e93d 6b57 8fbd 34b5 9bbe
00000020: 183d 48be ccf0 b7be ca73 2bbb 1bc1 193e
00000030: b797 85be c176 893e 8116 3d3f f6da 9dbe
00000040: d603 09bf 2149 d73c ebde d4bc b0c1 49be
00000050: 6772 c5bd 182b 84bd 9c96 0f3e f64e ec3e
00000060: a0db df3d 1f27 b23d 4ea9 e33e 2ab7 cabc
00000070: 4956 9d3d 90d2 d5bc eb6e 53bc 0059 443d
00000080: 4689 d63f e009 d73e 888b 133f 51db 13be
00000090: 027c 65be 2a42 b23e 7444 01bf a46d 073e
000000a0: 70b2 b0be fcf5 a9bd 8665 abbe bf2c c2bd
000000b0: d05c 1f3e 2969 1cbe 85e9 963f cc24 b13e
000000c0: ff8f a2bc a183 313e 86cd 01be 8f77 95be
000000d0: bc35 8e3e ac72 9abe 71b6 b13e a74c e7bd
000000e0: 1692 463e a0ab c83e 4ee7 893e 5924 7dbd
000000f0: 7c94 eb3c eb40 983e 5865 9a3c 15b3 273d
00000100: 70cc 32bb c013 3ebf b1b7 8a3f b566 2a3f
00000110: ae42 d9be 2e88 393d c65b 693f 2e67 d5be
00000120: fafe b6be e061 40bd b241 e53e 50ca 31bf
00000130: db5a 86bc 0444 a13e 5430 323e b6c3 8b3e
00000140: 7033 323f 96d3 9d3e fd4b adbe 7d50 833e
00000150: bff8 a83e 68d4 683e a34d 50be e794 67bd
00000160: 3082 5d3e 4952 a5be 3b28 fcbc b09a 9dbd
00000170: 4c97 0dba 1b27 9e3b 1253 183f d81b 373c
00000180: 0a2d 8f3c e0a5 afba f25e db3e d326 e83d
00000190: 5b7f 5ebc 2445 e23e a092 63be f125 2a3f
000001a0: 69fb 1abe dfed 103e 923d 5d3d 6468 943d
000001b0: 6c8c ab3e de9e a1bd 1945 f43d 139b 8b3e
000001c0: f6bb c43d f3ea 673f 331d 1f3f c001 723e
000001d0: 707a bcbd c75c fbbd a308 58bd 9348 9e3d
000001e0: 0b8f 85be 8b82 10be d5d0 983e 1a86 e03e
000001f0: 2476 873d a206 0d3e 99f3 db3b 61b6 18bf
00000200: 4002 343b 2780 063d 64bd 57bd 54cc 2e3f
00000210: 86f1 d8be f476 1bbf 12c6 67bd 1452 bcbc
00000220: 9d96 18bf a277 76bf a01f 923e 1167 493f
00000230: 33a5 223e 3e45 be3d 8560 e7be 0f72 42bd
00000240: f5ef bc3e 3db3 e63e 0af2 3d3f b869 29bd
00000250: 2ae0 f13c 6899 723e eb45 1bbe 7fc1 9abd
00000260: 00ba b73c ac0d 97be ab53 bb3e db99 0b3f
00000270: 8bd2 983e d4f8 8a3e 460c 9b3e 658b c33c
00000280: 6b4a 063e 8521 48bd 23a6 303d 61ff 1fbd
00000290: 034a 983d 2091 333e 1a6c a33d cabb 90be
000002a0: 60a2 8abe d549 16bc f3c8 64bb 1b3e 583e
000002b0: 681c 4cbe 56b8 3d3d 4394 383e ecab 743c
000002c0: df1e be3d fe7f 0abc 52ea 6ebe 71d4 b1bd
000002d0: fc24 b53e cb55 fdbd 03aa 3e3d 2112 9abe
000002e0: 90de a2bc 359c 53bd 3098 11bd 8182 a7bd
000002f0: 5315 54bd 999e fbbc c3af 723e 71c5 bb3e
00000300: 250e 513d 5be8 ab3d f681 183d a4f0 d73c
00000310: e49a 0fbd 4049 5740 8187 b43d 8477 823e
00000320: 41e3 9fbd eb24 b8bd a30e 91be 11d5 12bf
00000330: 3415 f33d 4e1e dd3b d544 2b3d 371e 1fbe
00000340: 055e 2fbc a420 d83d 8643 1bbd 2890 93be
00000350: 8dad 0cbc 3773 22be 0b16 1e3d 20be f1bd
00000360: 4fa8 26bd eef6 e63c af50 643b aa68 7ebd
00000370: f94f a63c 4ae1 893e cae1 9fbc 3a4d 933d
00000380: 0ffd d03e 8ed8 a93b 4fa7 5c3e 399d 64bd
00000390: 5cd0 cabc 769b 6abd f4c5 65c0 d9d4 97bc
000003a0: d5b8 b53d d161 6ebd 25b4 043e 06ad dc3e
000003b0: a991 c4bd 42e7 e23d c69a 873c 6fb2 06bd
000003c0: 33ed efbd 7992 6e3d dac5 603b c6de 7f3b
000003d0: af61 5a3c 7e0b 7fbd 79de 443d 39aa c1bd
000003e0: 5c15 df3d ca31 b7bd a114 87bd 4276 71bb
000003f0: 7a98 413b 46a8 07bd f6a3 e43c 3273 9cba
-0.47379 -0.54791117 -0.0854873 -0.34368598 -0.4138421 0.11396243 -0.069990955 -0.30411685
-0.19554555 -0.359259 -0.0026161545 0.1501507 -0.26092312 0.26848415 0.73862463 -0.30831116
-0.5352148 0.026279988 -0.025985202 -0.19702792 -0.09640961 -0.06453532 0.14022297 0.46153992
0.10930562 0.08698868 0.44465107 -0.024745543 0.07682473 -0.02610138 -0.012904863 0.04793644
1.6760643 0.41999722 0.5763478 -0.14439131 -0.22410586 0.34816104 -0.50495076 0.13225418
-0.34511137 -0.08298871 -0.33475894 -0.09481191 0.15562749 -0.1527449 1.1790015 0.34598386
-0.019844053 0.17335369 -0.12676057 -0.29192778 0.2777537 -0.30165613 0.34709504 -0.11293917
0.19391665 0.3919344 0.26934284 -0.061802242 0.028757326 0.29737028 0.018847153 0.04094227
-0.0027282499 -0.74248886 1.0837308 0.6656297 -0.42433685 0.045295887 0.9115566 -0.41680282
-0.35741407 -0.04696834 0.44776684 -0.6944933 -0.016400745 0.31497204 0.17401248 0.27297753
0.6960974 0.3082549 -0.33847037 0.25647345 0.33002278 0.22737277 -0.20342116 -0.05653849
0.21631694 -0.3228934 -0.030780902 -0.0769552 -0.0005401268 0.004826439 0.59501755 0.011176072
0.017477531 -0.0013400875 0.42845875 0.1133553 -0.013580169 0.44193375 -0.22223902 0.66464144
-0.15134968 0.1415324 0.054013796 0.072464734 0.3350557 -0.0789163 0.11927242 0.2726675
0.09606163 0.9059288 0.6215393 0.2363348 -0.092030406 -0.12273555 -0.05274261 0.07728686
-0.26085696 -0.14112298 0.29846826 0.4385231 0.066143304 0.13772061 0.0067123887 -0.5965329
0.0027467161 0.03283706 -0.05267085 0.6828053 -0.42371768 -0.60728383 -0.05658538 -0.022988357
-0.5960482 -0.96276295 0.28539753 0.7867289 0.15883331 0.09290551 -0.45190826 -0.047472056
0.36901823 0.45058623 0.7419745 -0.041360587 0.029525835 0.23691332 -0.1516339 -0.07556438
0.022427559 -0.29502618 0.3658727 0.5453164 0.29848132 0.27142966 0.302828 0.02387018
0.13114326 -0.04886009 0.04312719 -0.039061908 0.074359916 0.1753583 0.07979603 -0.28268272
-0.27077007 -0.009172876 -0.0034909814 0.21117441 -0.19932711 0.046318375 0.18025307 0.0149335675
0.09283232 -0.008453367 -0.23331574 -0.08683098 0.3537978 -0.12369879 0.046548855 -0.30091956
-0.019881517 -0.051662643 -0.035545528 -0.081791885 -0.05177815 -0.030715274 0.2369986 0.36674073
0.05103888 0.08393928 0.037233315 0.026359864 -0.035059825 3.3638458 0.08814908 0.25481808
-0.07807017 -0.089914165 -0.2833148 -0.57356364 0.118692786 0.0067479974 0.04181369 -0.1553887
-0.010703568 0.10553101 -0.037906192 -0.2882092 -0.0085863 -0.15864263 0.03859524 -0.118038416
-0.040687855 0.028193917 0.003483813 -0.062111534 0.020301806 0.26929694 -0.019516844 0.07192464
0.40818068 0.005183286 0.21548198 -0.055814 -0.024757557 -0.057277165 -3.590207 -0.01853411
0.088731445 -0.058198754 0.12959345 0.43100756 -0.09598095 0.11079265 0.016553294 -0.03288501
-0.11715164 0.058245156 0.0034297616 0.0039042695 0.013328954 -0.06226682 0.04806373 -0.094562955
0.10892746 -0.089450434 -0.065957315 -0.0036844169 0.0029540346 -0.033119462 0.027910214 -0.0011936186

seq1.0.bias f4 [300]
00000000: a260 0cbe b4b6 0dbd 3484 05be 78b2 77bd
00000010: da86 05bd ebb7 d43d 8d63 9abc 8c29 923d
00000020: 6311 013e b79a 433d e92d c13d 60d7 c43c
00000030: 32df 193e c7fd 7fbd 36f3 46bd 6fde a63d
00000040: 7a9a cf3c 8bca b93a 55d8 db3c 0267 f63c
00000050: b623 ccbd 73f1 a63d da44 273e e31b 8a3c
00000060: 1c67 cd3d e9db e33d c37e 01be 9bf7 52bc
00000070: b7b9 99bd dd4f b93d 8dfa e8bd e252 bfbd
00000080: b39b cfbd f835 b83c 44c7 a2bd 2af2 0c3e
00000090: 6366 e73d 5592 29be 1480 013e 2b75 113e
000000a0: b0f7 67bd 1fd9 08be f5ee 16be adf9 113d
000000b0: 5f2a 04be dd56 32be 86af febd fbbb fc3d
000000c0: 096b 103e 1260 b03c 93cc 26bc 814a c6bd
000000d0: ea36 78bb 1237 12be e64e 12be a892 d83d
000000e0: 5107 043e f77d 163e 7a41 cdba bb9f f93c
000000f0: 4bb8 1b3e 2676 a53d 2a27 1ebe 36d4 11be
00000100: 149f 15be e7eb 0f3e 9a9a b43d f64c 00be
00000110: 96ca 2abc 9316 25be cefa e8bd c41e 573d
00000120: cd49 b83d 7c73 f43d 7b92 9d3d 1173 eb3d
00000130: 4f72 9fbd 3dc0 d7bd ab33 c3bd 1f1d 29bd
00000140: 3009 1fbe 9067 053e 3e24 973d 2972 d3bd
00000150: 48a8 18be 8a0f 683b e151 cd3c e85b 0ebd
00000160: e9c9 07be 63de 02be 53f2 0fbe 27c3 03ba
00000170: 12db 273e fa6f 143e ebea 903d d6b1 2e3d
00000180: 1638 ca3b b50b 543d a0ff 8a3c efae 053d
00000190: 4593 073e 5361 4fbd 0699 78bd 1ab9 d33d
000001a0: 98c4 b7bd 21e2 f83d b5c8 0ebd fdf3 c93c
000001b0: c981 fb3d 4ca0 f6bd 354f a33d 0306 b13d
000001c0: 3a56 d13d 5aab fabc a6ef 0dbe b830 073e
000001d0: c693 c53d 7792 b2bd e776 143e 6656 a0bd
000001e0: 4372 15be 0343 26bd b822 d43d e639 1cbe
000001f0: 90f1 c3bd 47e4 e0bd 50aa 63bd 507a 563d
00000200: fa64 0a3e 7f14 2a3e 804b 2abe 246e 173e
00000210: 9680 30be 7b7d d5bd 5525 2fbe a29d 9dbd
00000220: fe29 c43d 5658 0d3e 7e06 bfbd fd56 c13d
00000230: a822 833d e290 13be 7f17 dd3d e950 8f3d
00000240: dcba 1dbe 514e c83d 043d 233e df6f 023e
00000250: 7af2 9c3d 08c0 67bd eb8a 07be 6501 b53d
00000260: cf69 193e c4d7 253c 74dc 5bbd 62eb 7c3b
00000270: a76b 28be 32c6 883d 92a2 a8bd bd71 aeba
00000280: f234 193e 857d 1d3e fff1 d83c c339 52bc
00000290: e7d6 31bc abf7 2ebe 3705 ae3c b8af 31be
000002a0: c489 8dbd beff e0bc a386 2cbe 2404 b63d
000002b0: 6e73 27be 14c9 7ebd 7b13 c03d aa27 25be
000002c0: 9d1b c53d bb48 1f3d b0a9 b03d 3a54 d93c
000002d0: c8e1 a5bd b52b b5bd 5e07 753d baa4 9a3d
000002e0: 9cab e4bc 0883 ba3d 9ced 83bd 4c81 18be
000002f0: 5064 b3bd 4093 fd3d 82a9 93bd 7d7f 5d3d
00000300: ba8b 06be f261 dfbc 0290 2ebe fb02 a8bd
00000310: cac8 19be bc19 ae3c 5e9c 9ebc cfbf 0c3e
00000320: de0f 29be a7c1 9dbc 4bd6 fd3d 54ca b9bd
00000330: d9ed 1ebe 6605 e13c 597f 233e d0b6 a03d
00000340: 7e40 f3bd 057e 7d3d 758c d2bc b338 de3d
00000350: ccb1 f53d b17d 98bd 0ec5 fd3c b716 163e
00000360: c2bd 17be e609 133e 947c cbbc 203e 633d
00000370: 716f e53d 507f 153d a450 a33d 72b5 d8bb
00000380: 6825 893d 7f3b 71bc b1fe 473d 660e 1bbd
00000390: 1d2f f4bd d0e0 02bb e522 11be 9baa 82bd
000003a0: 2097 ae3d 3b27 d53d 6229 a23d 3e79 183e
000003b0: 08d2 9b3d 4272 633d 2c86 29bd b578 153e
000003c0: 300d 9f3d 1cb6 28be d5d2 293e 9005 0dbc
000003d0: 9857 42bb c109 1ebe 1147 f33c fd2d ee3d
000003e0: c2b8 e23d c9dd 523d fa04 e3bd 47c1 113e
000003f0: 2cab d0bd c703 00be a3b2 233e 64d9 ca3d
-0.13708737 -0.034598067 -0.13038713 -0.060472935 -0.032599308 0.10386642 -0.018846298 0.07136831
0.12604289 0.04775497 0.09432585 0.02402848 0.15026549 -0.06249788 -0.048571788 0.081478946
0.025342215 0.0014174742 0.026836554 0.030078415 -0.09967749 0.081515215 0.16334859 0.016859
0.10029432 0.11125929 -0.12646012 -0.012876417 -0.075061254 0.09048436 -0.11375914 -0.093419805
-0.10137119 0.022486672 -0.07948163 0.13764253 0.112988256 -0.16559727 0.12646514 0.14204852
-0.056632698 -0.13364075 -0.14739592 0.0356385 -0.12906788 -0.17415948 -0.12435822 0.12340542
0.1410333 0.021530185 -0.01018061 -0.09682179 -0.0037874528 -0.1427882 -0.1428791 0.105748475
0.12893416 0.1469649 -0.0015659772 0.030471673 0.15207021 0.08079176 -0.15444627 -0.14241108
-0.14611465 0.14054833 0.088185504 -0.12529358 -0.010424277 -0.16121893 -0.11375962 0.052519575
0.089984514 0.119360894 0.076939546 0.114965566 -0.077854745 -0.105347134 -0.09531339 -0.041287538
-0.15530849 0.13027787 0.073799595 -0.10324509 -0.14907944 0.0035409653 0.025063457 -0.034755617
-0.13260616 -0.12780146 -0.14057283 -0.00050263334 0.16392162 0.1449584 0.07076057 0.042650066
0.0061712367 0.051768977 0.016967595 0.032637533 0.13239773 -0.050629925 -0.06069281 0.1033804
-0.08973044 0.12152506 -0.034859378 0.024652475 0.12280614 -0.12042293 0.07974092 0.08643725
0.102215245 -0.030599285 -0.1386095 0.13202178 0.09647326 -0.08719342 0.14498483 -0.07828979
-0.14594369 -0.04059125 0.103581846 -0.15256462 -0.09567559 -0.109810404 -0.055582345 0.05236274
0.13515082 0.16609381 -0.16630363 0.14788109 -0.17236552 -0.10424324 -0.17104085 -0.07696082
0.09578322 0.13803229 -0.0932741 0.0944042 0.064030945 -0.14410737 0.10795497 0.06997854
-0.15403312 0.09780563 0.15941244 0.12737988 0.07663436 -0.05657962 -0.13236587 0.088381566
0.14981769 0.010122243 -0.053677037 0.0038592448 -0.16447316 0.06678428 -0.08234133 -0.0013309043
0.14961603 0.15379913 0.02648258 -0.012831154 -0.010854459 -0.17086665 0.021242721 -0.17352188
-0.06911042 -0.027465697 -0.16848235 0.088875085 -0.16352627 -0.06220348 0.093787156 -0.16128412
0.096244074 0.03888772 0.08626115 0.02652942 -0.08099705 -0.08846227 0.05982148 0.0755095
-0.027913861 0.091070235 -0.06441805 -0.14893073 -0.087593675 0.12381601 -0.072100654 0.05407666
-0.13139239 -0.027268384 -0.17047122 -0.082036935 -0.15018001 0.021252505 -0.019361671 0.13745044
-0.16509959 -0.01925738 0.12394389 -0.09071794 -0.15520419 0.027468394 0.15966548 0.07847369
-0.11877535 0.06188776 -0.02570174 0.10850658 0.11996803 -0.07445849 0.030977752 0.14657103
-0.1481848 0.14359245 -0.024839677 0.05547917 0.112028964 0.036498368 0.07974365 -0.006613427
0.06696588 -0.014723658 0.048826877 -0.03785553 -0.11923049 -0.0019970424 -0.14173467 -0.06380197
0.085249186 0.10407873 0.079180494 0.1489 0.0760842 0.055528887 -0.041387722 0.14596827
0.07766187 -0.16475719 0.16584332 -0.008607283 -0.002965426 -0.15433408 0.029696973 0.11629865
0.11070396 0.051481042 -0.110849336 0.14233886 -0.101888984 -0.12501441 0.15986113 0.09904745

seq1.1.weight f4 [300]
00000000: bb5b cb3e 3bf5 1d3f b7fa f03e 84f3 943e
00000010: a0eb 783e 4c23 4c3f db2c 5b3f 8afe 793f
00000020: 6e9b 5d3e 1437 933e 7172 0e3f 9138 903e
00000030: 7e61 393e e53a 413f 12e2 083f dd2c 303f
00000040: 9d2c 753f 6214 5f3f 9a58 ae3e fa0e e63e
00000050: 80f8 eb3e 0945 7c3e e795 ff3e 3a55 5c3e
00000060: ce91 b83e 0799 803e 4cb1 e33e 9179 a23e
00000070: fbe4 e13e 297b cf3e 9a84 873e 1a63 f83e
00000080: c009 d43e f4f2 b53e cf4f 293f f979 203f
00000090: b943 083f 61df 0e3f d3df 223f fd79 f53e
000000a0: 5a4b f83e 62fd 043f 7ef1 c03e 3fcb f03e
000000b0: 7042 f63e ec62 ac3e 033b 4e3f 3af3 f93e
000000c0: 3c10 123f 791b fd3e 8214 933e 10ae 523e
000000d0: 62ca a63e 2385 883e fc0a 073f 06a7 e73e
000000e0: d335 ae3e 4f79 e33e e355 d33e 5902 fc3e
000000f0: 53a6 d63e 0282 073e 7df6 e83e 71ce 583f
00000100: 4551 283f 030d d63e ec6f 2d3f d2c0 813e
00000110: 1dae 123f 6f0c bc3e 9e55 853f 2639 c13e
00000120: 8298 da3e aacf ab3e 3a02 c23e 7bb8 c63e
00000130: 7b83 813f 505d 203f d153 a83f 17d6 bd3e
00000140: 71d8 063f 4add 183f 1dc6 e43e b82b 0a3f
00000150: 54c4 053f d164 873e d4fc 383f f829 0c3f
00000160: 36e7 903f ef87 543f 6138 c43e 55fe 553f
00000170: 5f9e 2d3f fbf7 993e d714 113f fe40 f13e
00000180: ec5f 7e3f 2101 6d3f f7a9 333f aafa 403e
00000190: d16f db3e a860 a53e 558a c13f f0f0 9d3e
000001a0: e799 db3e 1959 0f3f 9ee1 e43e 8ead 043f
000001b0: a526 d63e 93e6 bd3e 4cf6 a43d 5a1d 0d3f
000001c0: 3fe8 913e 4909 9a3e e385 b43e df6e 223f
000001d0: 1cd6 ce3e 3a6e 893e 01e9 353f fc02 143f
000001e0: 16e9 0a3f 196a e93e b70c b33e 2a25 ef3e
000001f0: 50f2 c03f cab4 153f 705d 9a3e 997d 973f
00000200: 44dd 9b3f ce9f 6a3f 8d11 de3e bca4 263f
00000210: 2b99 bb3e e06c 1f3f 5328 003f 0f1c 093f
00000220: f37c 923e 2ccd aa3e 68a1 883e f5a1 ca3e
00000230: 94cf 3d3f 9715 cb3e cc03 6e3f a6e0 bb3e
00000240: 9753 003f cccc 213f bfc9 0d3f dfd6 023f
00000250: 51ca 663f 820a e23e 454f 053f 283e cc3e
00000260: 826f 063f f4bf 013f 6b04 fe3e 4c13 f23e
00000270: 74b9 0b3f c257 9b3e 4bb0 9b3e 74b6 003f
00000280: 3906 0e3f b325 cf3e ea45 f93e dda0 c33e
00000290: cc56 aa3e c05d 1a3f 27e4 013f f1ff fa3e
000002a0: 2a77 f83e 1df3 ab3e 17ba 863e bf17 b93e
000002b0: e85e b13e fb6c 0a3f 2547 6c3e 785e 7d3e
000002c0: 335f 143e 27da a23e 1647 c73e 9f7d 1e3f
000002d0: 3aee 433f 066c fb3e f684 153f 0899 073f
000002e0: 6264 2c3f d81f 223f a443 1c3f a4d7 4c3f
000002f0: a4cc 213e 6cf9 b83e 662c b63e 1f29 0f3f
00000300: 6f5d ac3e 26d1 ad3e e051 c93e 5b77 ae3e
00000310: f9fa 0a3f 211a e93e a162 c63e 506e d93e
00000320: 29d0 c33e 6e7d d03e 0263 4c3f eb16 b63e
00000330: 310e 123f dda8 403f 597e 8b3e 4eab 173f
00000340: 0a50 bc3e 862b 183f 6dd7 fb3e fa91 963e
00000350: fcaa ea3e a045 103f 3e45 2d3f 00f3 903f
00000360: 587a b43e a124 5b3f a6f4 653e de62 073f
00000370: 02d4 df3e 92b6 013f f105 ae3e a4b8 bc3e
00000380: dceb eb3e e60e b03f fc4a 043f 95ea 1e3f
00000390: c828 a23e 6cc8 ce3e dfc2 e53e a1b6 033f
000003a0: a336 163f e590 0d3f 8502 053f 4f65 ee3e
000003b0: 0d14 193f d9ea 013f 76cc 103f 4e5e f93e
000003c0: 95f7 9f3e baa8 c33e 6aa7 253f 49a0 533f
000003d0: d43a 9f3e 339b 9f3e 11e0 aa3e bc3f b63f
000003e0: 3eb7 0f3f 242e 003f bf5f ea3e 280d d83e
000003f0: 9e85 833f cf8e 553e 2631 063f 7873 683f
0.39718422 0.61702317 0.4706628 0.29092038 0.24308634 0.7974136 0.8561532 0.9765402
0.21641323 0.2875296 0.55643374 0.28168157 0.18103597 0.7548049 0.53469956 0.68818456
0.957712 0.87140477 0.34051973 0.449333 0.46088028 0.2463571 0.49919054 0.21516886
0.3604874 0.2511675 0.44471204 0.31733373 0.4412001 0.4052365 0.26468354 0.48513108
0.4141369 0.3553692 0.66137403 0.62686116 0.53228337 0.558096 0.6362278 0.47944632
0.4849499 0.5194913 0.37684244 0.47030064 0.48097563 0.3366922 0.80558795 0.4881838
0.5705602 0.49435022 0.28726584 0.20574212 0.3257628 0.26664075 0.52751136 0.45244616
0.3402544 0.4442849 0.41276464 0.4922054 0.4192377 0.13233188 0.45500556 0.84690005
0.6574901 0.41806802 0.67748904 0.25342423 0.57296926 0.36728236 1.0416753 0.37738913
0.4269448 0.33556873 0.37892324 0.38812622 1.011825 0.62642384 1.3150579 0.370774
0.52674013 0.5971266 0.44682398 0.5397296 0.522527 0.26444104 0.72260785 0.5475154
1.132056 0.8301992 0.38324264 0.83591205 0.6781978 0.30072007 0.56672424 0.47119898
0.99365115 0.9257985 0.7018122 0.18845621 0.42858747 0.32300305 1.512034 0.30847883
0.42890856 0.5599533 0.44703382 0.51827323 0.41826358 0.37089977 0.0805479 0.5512291
0.28497502 0.3008521 0.35258397 0.63450426 0.40397727 0.2684191 0.7105866 0.57817054
0.5426191 0.4558876 0.34970638 0.4670804 1.5073948 0.5847899 0.30149412 1.1835204
1.21769 0.9165009 0.43372765 0.65095115 0.36640295 0.62275505 0.5006153 0.5355844
0.28610954 0.3335966 0.26685643 0.39576688 0.74144864 0.3966491 0.92974544 0.3669483
0.5012755 0.6320312 0.55385965 0.5110912 0.9015246 0.44148642 0.5207408 0.3989117
0.525139 0.5068352 0.49612746 0.47280347 0.54579854 0.3034039 0.30407938 0.502784
0.55478245 0.4045845 0.48686153 0.38208666 0.33269346 0.602993 0.5073876 0.49023393
0.48528415 0.33583918 0.2631385 0.3615093 0.3464272 0.5407254 0.23074014 0.24743068
0.1448944 0.31807062 0.38921422 0.6191043 0.7653538 0.49105853 0.5840601 0.5296788
0.6734067 0.6332984 0.6104071 0.8001654 0.1580072 0.36127794 0.35580748 0.5592212
0.33665034 0.3394863 0.39320278 0.34075436 0.54289204 0.45527747 0.38747123 0.42466974
0.3824475 0.40720695 0.79838574 0.3556436 0.57052904 0.75257665 0.27244833 0.59245765
0.36779815 0.5944141 0.49187794 0.29408246 0.45833576 0.5635624 0.6768378 1.1324158
0.3524959 0.85602766 0.22456607 0.52885234 0.43716437 0.50669205 0.33988908 0.3685962
0.46078384 1.3754547 0.5167692 0.62076694 0.3167174 0.40387285 0.44875237 0.51450545
0.5867712 0.55299217 0.5195697 0.46561667 0.5979622 0.50748974 0.5656198 0.4870476
0.31243578 0.38214666 0.6470858 0.8266645 0.3109957 0.31173095 0.33374074 1.42382
0.5613898 0.50070405 0.45776173 0.42197537 1.0275152 0.20855258 0.52418745 0.9080119

seq1.1.bias f4 [300]
00000000: c0f0 08bd 882d 57bf 376d 83bf 018c 1bbf
00000010: 8554 59be 1884 6fbf d092 e1be 03cd 18be
00000020: 8058 213f c195 dfbe b3be d2be d489 f1be
00000030: d5bb 9dbe deae 19bf dee2 2cbf d7b9 75bf
00000040: 604a 4ebf e49b 6cbf a1ec 1dbf f489 26bf
00000050: d856 31bf ac1a 97bd 2016 53bf d7bb 89be
00000060: c22c 39bf 5995 63be a3c3 d9be 54ff 4fbf
00000070: 9bb1 45bd 0f52 2ebf aa9e 84bf 721f b7be
00000080: 8790 3ebf 659d 22bf f6bf 4ebf 773b 8abf
00000090: efa3 10bf 4aeb 4dbf 0e49 74bf 033b 46bf
000000a0: cb08 58bf 7bce a1bf ca9c 11bf 9e55 67bf
000000b0: 76d2 24bf 8bdd 2bbf 64a6 31bf f405 4bbf
000000c0: 2dbc 86bf 91cb 2bbf 59da 0ebf ae40 b0be
000000d0: b6fe b7be 57e1 0ebf a764 12bf 6e51 16bf
000000e0: 9a35 51bf 855b 7abf 7bf7 e03d ca7f 7cbf
000000f0: aca3 1fbf 3db6 87bf 7539 38bf ac92 3dbf
00000100: 47fe f6be 6ebe 2ebe b022 83bf 735e 2bbf
00000110: 741e 58bf 65f2 58bf 2c5b 41be 0c85 1bbf
00000120: 3860 5bbf 4b17 e6be 976d ffbe 1137 553e
00000130: 98e0 61bf 43ff 35be 5543 1fbf 1d94 cfbe
00000140: 83a1 48bf 4f87 4dbf 917c dabe 6b8a 84bf
00000150: 5a8e 5bbf e0a4 12be b3d6 21bf 229d 29bf
00000160: cf24 88be 8773 5bbf bd8b b8bd 9172 22bf
00000170: 7440 a2be 044a bebe da1e da3e fdca 65be
00000180: 76d3 66bd 7814 2bbf b0ec 33bf 01a5 78be
00000190: e659 0abf 5ea9 9bbe 2064 f1bc 28bb 14bd
000001a0: b161 33bf 1544 3bbf d4cb 5fbf fca2 69bf
000001b0: db5d 503f c4af 80bf a49e 55bd e4c7 5cbf
000001c0: 1e7e aebe 3765 633c 3c5c 72bf eddc 8bbf
000001d0: 6e79 8fbf be22 09bf 8878 60bf 3945 42bf
000001e0: 2adb 3abf eff5 35bf 38de 6dbf e363 18bf
000001f0: b0b0 77bf e217 60bf d5f2 59bf c576 35bf
00000200: bb25 a1bf d095 4cbf 10f6 283e 4cf9 ddbc
00000210: 3d71 8cbe ef1c 31bf 89f5 28bf 303e 07bf
00000220: 4216 11bf ec47 43bf 1b61 6f3e c764 efbe
00000230: 0285 3cbf fe1f 50bf ec44 ccbe cee8 38be
00000240: 39e3 65bd 33b5 4dbf 89b5 9dbf 8a02 00bf
00000250: 4006 12bf 7f3c 42bf c8e8 2bbf be2e 11bf
00000260: d8e5 87bf c0b1 83bf cef3 07bf 22f6 edbe
00000270: b506 2bbf 21d6 e3be b7bf 48be 6af8 73bf
00000280: 0cbf 2abf 2e2c 2dbf 2534 05bf ec5d 46bf
00000290: 4806 93be d24a 17bf 441b 3cbf d552 85be
000002a0: 0ad1 40bf 15bb 69bf f823 98bf ddbc 4c3e
000002b0: 869a f5be bab0 89bf 0fae 64bf 70f8 5dbe
000002c0: 7457 56bd 3ae8 c2be 6843 efbe 14f3 55bf
000002d0: e773 2dbf 4c11 18bf 08f9 18bf cc61 24bf
000002e0: 061f 22bf fdde 14bf 339b 74bf 907a 49bf
000002f0: 5298 1fbe b6e3 0abf 9bc5 ecbe cda3 5ebf
00000300: 0fe1 1abf cb13 31bf 251c 30bf da15 4dbf
00000310: 7bc6 25bf edf1 09bf dda1 e2be 6792 3abf
00000320: 969a 15bf 6e59 b2be 9df9 29bf 610c 4fbf
00000330: 3a05 17bf a16f 62bf cf7c c8be 3917 6cbf
00000340: 9023 44bf 0d8f 1abf ff4d 4fbf 464f f8be
00000350: 0886 8abe 386d 4ebf dc0a 36bf 5fac ddbe
00000360: 1ede 29bf 4f0f d4be 3812 8dbe 1519 87bf
00000370: 4351 a8bf 305d 40bf b295 c1be 6e71 18bf
00000380: 56b5 9ebe fb29 763d f16e 3abf ff6f 29be
00000390: 97a1 123e 36f6 47bf 2a5d 3dbf f2f6 71bf
000003a0: 8591 83be 86da 28bf 73f6 69bf ef64 43bf
000003b0: 9d23 fcbe b4d0 8cbe 2f36 59bf a46e 33bf
000003c0: 9427 1cbf 3bf9 6fbf 6a80 47bf 4ad8 83bf
000003d0: 8db7 39bf a9e3 12bf 02eb f3be 1704 30be
000003e0: 41ce 39bf f1c2 bfbd 0503 75bf 57ae e5be
000003f0: 0e9a 1cbf fabf a8be 4010 30bf 09e3 37bf
-0.033432722 -0.8405385 -1.0267705 -0.60760504 -0.21223648 -0.93560934 -0.44057322 -0.14921956
0.63025665 -0.4366894 -0.41161117 -0.47175467 -0.30807367 -0.6003245 -0.6753367 -0.95986694
-0.8058224 -0.9242537 -0.6168919 -0.6505425 -0.6927314 -0.07378134 -0.82455635 -0.26901123
-0.7233392 -0.2222494 -0.4253207 -0.81248975 -0.04826508 -0.6809396 -1.036092 -0.35766178
-0.7443928 -0.63521415 -0.8076166 -1.0799397 -0.5650014 -0.8043715 -0.9542397 -0.77433795
-0.84388417 -1.2641138 -0.56879866 -0.90365016 -0.6438364 -0.6713492 -0.69394517 -0.7930596
-1.0526177 -0.6710749 -0.5580192 -0.34424347 -0.35936517 -0.5581259 -0.57184833 -0.58718
-0.81722414 -0.977959 0.10984703 -0.9863249 -0.6235912 -1.060249 -0.7196267 -0.7405193
-0.48240873 -0.1706483 -1.0244961 -0.66940993 -0.8442147 -0.84744865 -0.18882436 -0.6074989
-0.85693693 -0.44939646 -0.49888298 0.20821787 -0.8823333 -0.17773156 -0.62212116 -0.4054269
-0.7837145 -0.8028459 -0.42673162 -1.0354742 -0.85764086 -0.14320707 -0.6321823 -0.6625539
-0.26590583 -0.85723156 -0.09011028 -0.63456064 -0.316898 -0.37165844 0.42601663 -0.22440715
-0.05635401 -0.6682811 -0.7028303 -0.24281694 -0.54043424 -0.30402654 -0.029466689 -0.0363113
-0.7007094 -0.7315076 -0.8742039 -0.9126432 0.8139321 -1.005364 -0.052153245 -0.8624251
-0.34080595 0.013879112 -0.9467199 -1.0926796 -1.1208932 -0.5356864 -0.87683916 -0.75886875
-0.7299067 -0.7107839 -0.92917204 -0.59527415 -0.9675398 -0.8753644 -0.8513616 -0.7088435
-1.258964 -0.79916096 0.16500115 -0.027096413 -0.27430144 -0.69184774 -0.65999657 -0.52829266
-0.5667459 -0.7628162 0.23376887 -0.46756575 -0.73640454 -0.81298816 -0.39896333 -0.18057558
-0.0561249 -0.80354613 -1.2321025 -0.50003874 -0.57040787 -0.7587356 -0.6715207 -0.5671195
-1.0617018 -1.028862 -0.5310639 -0.46476847 -0.6680711 -0.44499305 -0.19604383 -0.95300925
-0.66697764 -0.6764554 -0.5203269 -0.77487063 -0.2871573 -0.5909854 -0.73479104 -0.26039758
-0.7531897 -0.9130109 -1.1885977 0.1999392 -0.47969455 -1.0757058 -0.8932809 -0.21676803
-0.052329496 -0.380678 -0.46731114 -0.8357403 -0.6775498 -0.5940139 -0.5975499 -0.64211726
-0.6332859 -0.58152753 -0.95549315 -0.7870264 -0.1558545 -0.5425371 -0.4624451 -0.8696869
-0.6049966 -0.69170827 -0.68792945 -0.8011147 -0.6475598 -0.53884774 -0.44264117 -0.7287964
-0.58439004 -0.34833854 -0.66396505 -0.80878264 -0.5899235 -0.8845158 -0.3915772 -0.92222935
-0.76616764 -0.6037453 -0.8097839 -0.4849798 -0.27055383 -0.80635405 -0.7111032 -0.4329557
-0.6635455 -0.4141793 -0.27552962 -1.055453 -1.3149799 -0.7514219 -0.3780952 -0.5954808
-0.30997723 0.06009863 -0.72825533 -0.1654663 0.14319454 -0.78110063 -0.7397028 -0.94517434
-0.2569696 -0.6595844 -0.91391677 -0.7632589 -0.4924592 -0.27502978 -0.848483 -0.700907
-0.6099789 -0.9373967 -0.7793032 -1.0300381 -0.725457 -0.5737863 -0.47640234 -0.1718906
-0.72580343 -0.09363354 -0.9570773 -0.44859573 -0.6117257 -0.32958966 -0.68774796 -0.71830803

seq1.1.running_mean f4 [300]
00000000: 92dc 8dbf b256 fbbf 7d84 55c0 18a9 08c0
00000010: 75fe 8dbe 2fb2 a1bd 50e1 71bf 25da 333e
00000020: 14c6 323f 21f2 c2bf ff87 943f 5cb6 6940
00000030: 42a2 3cbe a76a 01bd 8873 eebf 9a95 9dbf
00000040: 55a5 12bd 5eaf b33d 1e53 8b40 f525 993f
00000050: e84f e53e 92ec 38be 4393 a7bf 1729 7440
00000060: 448a 1dc0 0480 4140 d6e2 3b40 5404 7ac0
00000070: 4b9e ad3f 2cbf 28bf 5de4 fdbf 681d 1d40
00000080: 8f6f 5dbf 5517 f7c0 5f94 e1bd 1c58 5f3d
00000090: 222c 0f40 d075 c23f 6120 96bf 4eb0 8c3a
000000a0: 4d88 80c0 0d2e 32c0 a9eb 9f3d 1554 0dc0
000000b0: 3a0e 02bf b4e1 a1c0 46b5 93bf b40f 8e40
000000c0: cf38 953f 4e19 edbf 8024 06c0 f849 30bc
000000d0: 4a3c 6abf 3827 8abf 445e d73f 463f 88bf
000000e0: fa27 6fc0 04cb 89bf 3600 bebf 4c97 7ebf
000000f0: 739e 99bf bd0c a6be e68a 65c0 0eef 23bf
00000100: 837e 233d 5835 533f e63f f7be 3f35 c1bf
00000110: 28a5 4dbe f454 cabe 3899 783e b15b 9f40
00000120: 385b 97bf 9e0c f13d 9b8c 833f acb7 d93f
00000130: 6c26 113f f1af 2f40 6316 02bf 78b0 3f3f
00000140: 19d5 73bf 9a38 813f f67f 2240 8908 1f3f
00000150: 8cba 10c0 a072 6b3f f199 bebf dadb 7bbe
00000160: 196d 84bd 0379 223f 35a3 763f f154 46be
00000170: c164 f1bd 656e 8bbf c8e7 773f 241e 113e
00000180: 85d7 d03e 7462 6a3f f8b9 f63e 18c9 e6be
00000190: a6de 4940 8110 5fbf 11e2 833d b7d4 ec3d
000001a0: b2b0 16bf 2492 27bf 9655 ae3f 87bf a1bc
000001b0: 8715 9bbf 34ee 083d 3ae4 f6be 604c 133f
000001c0: 2549 20c0 8661 c93f 8519 5ec0 bd5c 4ebf
000001d0: 518c 24c0 413b e5be 52d0 9c3e 7b39 dabd
000001e0: 6d81 a5bb e198 efbf f099 823f c433 9fbf
000001f0: 7871 1bbd 522a b53e d10e 0cbe 80da 313e
00000200: 88ef 583e ada5 4b3d 1f19 06bf de1e d63e
00000210: df19 12c0 ad77 5fbf 97af 1cc0 e1ad 18c0
00000220: 49ee 2f40 480b 9fbf 830e 113f b7dd 2d40
00000230: eb8b f53e 18c8 653f 8c52 96bd bc1c a1bf
00000240: 62b4 9ebf ff66 89bf 49ea 9440 571e dcbf
00000250: 18e2 ca3d 2d95 a63f 9283 ed3f c542 1f3f
00000260: 59b3 1340 ac3f 61c0 b6f4 18bf 909e a4bf
00000270: 1edd 4c3f 4f29 e4bf dd47 ee3f 1453 973f
00000280: b16a ecbf a45b 683f f726 0a40 c4cf babe
00000290: 1a2a 25c0 782b d9bf 8c79 4bbe 74b1 133f
000002a0: fd00 8bc0 9bf0 cdc0 2495 48bf f8d7 b4bf
000002b0: c03d 94bf 7caf c5bf 923a b53e 8676 fcbf
000002c0: a638 8cbf f1d7 e53f 6a9b d0bf 1906 16bf
000002d0: eeb5 243e 568d c83f 40f9 8dbf ba85 b03f
000002e0: b672 bd3d 4681 15bf 59fa 20c0 365b 29be
000002f0: 840c 8240 f2df 3f3f 02df 4bc0 cc22 37bc
00000300: 3776 b2be c1e3 4ebe 1e81 5fc0 78a2 243f
00000310: 26de 79bf 9181 39bf fa7c 19c0 80fc 3d40
00000320: cca3 2e40 9a4d f8bf 34e1 f13e e5cc 82be
00000330: 1623 763f 4772 e6bd 6a30 11c0 9caa b6bf
00000340: e53c 033d 9b66 80bf b496 11bf 05c2 debf
00000350: a01d 0b40 3ef6 88bf b8ee b1bf a097 a0bd
00000360: 5644 c53f 87a5 c03e 4769 713f 6462 bbbf
00000370: c8b5 bcbe bafe 0ec0 6491 02c0 c034 913e
00000380: 0bd3 0240 61c7 8d3e aeff bcbf ffeb 35bf
00000390: 16ca e8bf 96b8 cabf 9739 e83f 20b7 06c0
000003a0: 4801 37bf 401d 383f 6085 45bf 43f4 813e
000003b0: 6628 49bf c106 b43e 62e4 3c3f 8172 cd3f
000003c0: f6ed f3be efd2 123f 1114 babd d095 b2bd
000003d0: 360b cabf 2f62 61bf e501 1840 e2ec b2bb
000003e0: 706f 833f 4e20 593f 7b89 7ebf acee 0bc0
000003f0: 0b3e 8cbb bbc9 2dbe ec8e 3c3f 7b6e 7a3e
-1.1082938 -1.9635832 -3.3362114 -2.1353207 -0.27733198 -0.07895314 -0.94484425 0.17563684
0.69833493 -1.5230142 1.1604003 3.6517553 -0.18421271 -0.031595852 -1.8629007 -1.231128
-0.035802204 0.08773683 4.353896 1.1964709 0.44787526 -0.18058994 -1.3091816 3.815008
-2.461564 3.0234385 2.93572 -3.9065142 1.3563932 -0.65916705 -1.9835316 2.4549198
-0.8649835 -7.721598 -0.11014628 0.054527387 2.2370687 1.5192204 -1.1728631 0.0010733695
-4.0166383 -2.7840607 0.078086205 -2.208257 -0.5080296 -5.0588017 -1.1539695 4.439417
1.1657962 -1.8523347 -2.0959778 -0.010759823 -0.91498244 -1.0793219 1.6825643 -1.064431
-3.736815 -1.076508 -1.4843814 -0.9944961 -1.200148 -0.32431594 -3.5866027 -0.64036644
0.039915573 0.8250327 -0.48290938 -1.5094374 -0.20082533 -0.3951794 0.24277198 4.979943
-1.1824713 0.11769985 1.0277284 1.7009177 0.5669925 2.7451136 -0.5081541 0.74878645
-0.95247036 1.0095398 2.53906 0.621224 -2.261386 0.9197178 -1.4890729 -0.24595585
-0.06466121 0.634659 0.96342784 -0.1936834 -0.117867954 -1.0893065 0.96838045 0.14171654
0.40789428 0.9155648 0.48188758 -0.45075297 3.1542144 -0.8713456 0.06439603 0.1156401
-0.58863366 -0.6545737 1.3619869 -0.019744648 -1.2115945 0.033430293 -0.48220998 0.57538414
-2.5044644 1.5732887 -3.4703076 -0.8061026 -2.5710642 -0.4477177 0.30627686 -0.10655495
-0.005050829 -1.871853 1.0203228 -1.2437673 -0.03795001 0.3538385 -0.13677527 0.17368507
0.21185124 0.049718548 -0.5238208 0.41820425 -2.282829 -0.87291986 -2.4482172 -2.3856127
2.7489188 -1.2425318 0.5666277 2.7166574 0.4795831 0.89758444 -0.07339963 -1.2586894
-1.2398798 -1.0734557 4.6535993 -1.7196759 0.09906405 1.3014275 1.8555777 0.6221126
2.3078215 -3.5195112 -0.597484 -1.286089 0.800249 -1.7825106 1.8615681 1.1822228
-1.847006 0.9076483 2.1586282 -0.36486638 -2.5806947 -1.6966391 -0.19870585 0.57692647
-4.3438706 -6.435621 -0.7835257 -1.4128408 -1.1581345 -1.5444179 0.35396248 -1.972367
-1.0954788 1.7956525 -1.6297429 -0.58603054 0.16085026 1.5668132 -1.109169 1.379081
0.09250395 -0.5840038 -2.51528 -0.165387 4.064028 0.7495109 -3.1854863 -0.01117773
-0.34855816 -0.20204069 -3.4922557 0.6431041 -0.97604597 -0.7246333 -2.398253 2.9685364
2.7287474 -1.9398682 0.4724213 -0.25546947 0.96147287 -0.112522654 -2.26858 -1.4270816
0.032040495 -1.0031313 -0.5687058 -1.740296 2.1736832 -1.0700147 -1.3900976 -0.0784142
1.541148 0.37626287 0.94301265 -1.4639401 -0.36857438 -2.2342973 -2.040124 0.28360558
2.044131 0.27691177 -1.4765527 -0.71063226 -1.8186672 -1.5837581 1.8142575 -2.104927
-0.7148633 0.7191963 -0.7715664 0.2538167 -0.7857727 0.35161403 0.73785985 1.6050569
-0.47642487 0.5735311 -0.090858586 -0.08719981 -1.5784671 -0.8804044 2.3751156 -0.0054603675
1.0268383 0.8481492 -0.9942853 -2.1864424 -0.004279857 -0.16971485 0.7365558 0.24456207

seq1.1.running_var f4 [300]
00000000: 6b56 3741 d8cb 0f42 ab97 ec41 6776 bc40
00000010: 2dea 2741 7501 1141 4ec9 db40 c2d9 d540
00000020: 7a13 2540 9234 9241 56da 0842 de20 2741
00000030: 8491 c940 2695 f340 d1b6 2342 3be1 8d41
00000040: 0dce 1c41 2f5c 1a41 3f47 1141 a5c2 9642
00000050: 841e fa40 0207 fa40 362f cd40 7601 ef40
00000060: 6940 a941 1f34 8741 e3b1 0642 9de9 1341
00000070: 3b1e 8d40 8045 0840 e3cb f441 7ad2 5c41
00000080: bafd 0941 6afb 9140 e62b 3542 3f0f fe40
00000090: 3c87 4842 82b7 7441 fa3c 4641 b0c9 b341
000000a0: 44f5 4142 6a30 d541 5783 8f40 f8bc d541
000000b0: b2e6 083f d9e3 7f41 5200 d640 f598 a441
000000c0: db62 b840 d9d9 0940 11fd 5641 8eb4 9940
000000d0: 9a3b 763f 5e87 dd40 e96d 0c42 e4d4 bb40
000000e0: 5062 f140 0734 8b41 51e0 3241 00d0 2841
000000f0: c697 e741 d010 ee40 abc7 b341 da6a 1b41
00000100: 18eb 6241 b086 2042 99ed f83f 6557 5841
00000110: 19ae aa40 0a16 aa41 4fb3 e040 25a7 9141
00000120: 254e af41 7736 2242 82e6 2542 8471 4e42
00000130: 3ea5 0041 90a2 6642 fde7 c340 75a6 ec41
00000140: 4606 b441 c9be 8440 6d3e 1f42 797d 6541
00000150: dc3b c041 0bc2 9040 5c1e f540 17c1 2141
00000160: 07a5 cd40 4dd0 c241 70c6 9b41 8f8d 0b41
00000170: 77e3 d340 96a7 d240 ed34 d740 a31e 7642
00000180: 938a 9a40 c3b6 d640 d7fc 9f40 4d14 8641
00000190: 30ed bd41 039f da41 d854 bf40 805a 8240
000001a0: dc86 5840 86b1 3341 732a 5741 f695 5540
000001b0: 26b5 9842 6d85 3741 f2eb 3a41 2379 2a42
000001c0: bf85 8641 80e6 a141 d94b 9641 bf33 df40
000001d0: 6bb8 ac41 42ca d641 e64c 6040 b419 2d41
000001e0: 14c3 9941 28af f641 cdfb 6840 7651 2141
000001f0: 7bfc d640 27e0 9a41 bc82 e640 32f8 d240
00000200: dcc3 1441 ddf3 d440 81e9 9e40 257c 2941
00000210: 3bb1 1542 9033 1341 2319 3d41 d9db 2342
00000220: 3f66 5641 635a 1e41 6acf 7040 b2c0 6641
00000230: dde4 f740 5e0f 5641 d940 f040 11f1 6741
00000240: dabf 8d41 3b92 c240 c6e5 d740 f16d f641
00000250: 7b05 ec40 687c 9341 865e aa41 83e8 b040
00000260: 9f8e 0541 6259 8e41 269a 0242 5087 ea40
00000270: 38bd 8641 1bf6 1e41 fea9 a941 7820 0141
00000280: ce51 1d42 cc11 8c41 82f7 cc41 fe15 2f42
00000290: 6f5e c541 76be 1c41 07c6 5541 c4a9 7940
000002a0: dc55 2e42 7b16 0a41 0479 6a41 9bef f841
000002b0: 36d1 ee41 7855 a441 649d e841 c904 2041
000002c0: faca dc41 4365 ca40 1ea1 6141 982a ce40
000002d0: 6a31 0741 1004 2942 5f06 4a41 ab71 c541
000002e0: 393a 0441 9260 0741 310d 4341 1e4d da40
000002f0: 185f 2341 b20c 4742 8629 c041 d8ba 3340
00000300: 4b01 0240 3935 3e41 b32b cf40 018a ab40
00000310: 1581 3c42 fc05 ab41 a89d 3f42 5b8d 7941
00000320: 534a 8541 e592 ff40 63fa 1441 359c 0c41
00000330: d463 ff41 215a 1441 1c67 8641 313f 2342
00000340: c03a e641 a8cc 2241 da32 b141 4a03 b340
00000350: d152 9441 d299 3e41 7b3f c540 85dc d940
00000360: 6624 2741 5b77 d340 55aa 6941 7ead dd41
00000370: 83a6 1742 4001 a641 deb0 4342 9853 0b41
00000380: 8905 8041 5412 b240 a1f2 2941 8162 973f
00000390: 5a05 b541 57cc 9341 f5ee 6740 aab7 b441
000003a0: 28b9 2a41 8bb1 a540 fbf9 5641 f0df 3642
000003b0: 90a9 483f 5485 b640 7024 cd40 9436 0a41
000003c0: 3d73 a841 8652 8741 cc30 0540 7b6e e340
000003d0: 9cab d641 ceda 5441 da30 7141 c7cc c640
000003e0: a7c0 2a41 cb0a 8e40 dd51 9e41 2989 d641
000003f0: 72f5 f440 b76f e140 6017 b840 c0a4 a540
11.458598 35.949066 29.574057 5.8894534 10.494672 9.062856 6.8683233 6.682832
2.5793138 18.27567 34.21322 10.445524 6.299013 7.6119566 40.92853 17.734976
9.800305 9.647506 9.079894 75.380165 7.816225 7.8133554 6.412013 7.4689283
21.15645 16.90045 33.673717 9.2445345 4.4099402 2.129242 30.599554 13.801386
8.624445 4.56194 45.29287 7.939361 50.132065 15.294802 12.389887 22.47348
48.489517 26.64864 4.4847827 26.71727 0.53477013 15.993127 6.687539 20.574686
5.7620673 2.1539214 13.436784 4.8032904 0.96184695 6.9227743 35.107334 5.8697376
7.543251 17.400404 11.179765 10.550781 28.949108 7.4395523 22.472494 9.713587
14.182396 40.13153 1.9447509 13.521337 5.333752 21.260761 7.0218883 18.206614
21.913157 40.55319 41.475105 51.610855 8.040342 57.658752 6.122069 29.581278
22.503063 4.148289 39.810963 14.343133 24.029228 4.523687 7.659956 10.109641
6.426395 24.35171 19.471893 8.72206 6.6215167 6.5829573 6.7252107 61.52992
4.829416 6.70981 4.9996142 16.759912 23.740814 27.327642 5.979107 4.0735474
3.3832312 11.230841 13.447864 3.337278 76.353806 11.470075 11.682604 42.618298
16.815306 20.237549 18.787035 6.9750667 21.590048 26.848759 3.5046935 10.818775
19.220253 30.835526 3.6403687 10.082388 6.7183204 19.35945 7.203459 6.5927973
9.297817 6.6547685 4.966004 10.592809 37.423077 9.2000885 11.818637 40.964695
13.399962 9.897067 3.7626595 14.422045 7.7466874 13.378752 7.507916 14.496354
17.718678 6.0803504 6.7467985 30.803682 7.375669 18.435745 21.296154 5.528383
8.34732 17.793644 32.650536 7.3290176 16.842392 9.935084 21.208004 8.070427
39.329887 17.50869 25.620853 43.771477 24.67111 9.796499 13.3608465 3.9009867
43.583847 8.630488 14.654545 31.116995 29.852154 20.541733 29.07685 10.001168
27.59911 6.324861 14.101835 6.4426994 8.449564 42.253967 12.626555 24.680502
8.2642145 8.461077 12.190721 6.8219137 10.210716 49.762398 24.020275 2.808279
2.031329 11.887994 6.4740844 5.360596 47.126057 21.377922 47.90396 15.597011
16.661291 7.9866815 9.31113 8.7881365 31.923744 9.272004 16.800346 40.81171
28.778687 10.174965 22.14983 5.5941515 18.540438 11.912554 6.163999 6.808169
10.446386 6.6083198 14.604085 27.709713 37.91261 20.75061 48.92272 8.707909
16.002703 5.5647373 10.621736 1.1826936 22.627613 18.474775 3.6239598 22.58968
10.670204 5.1779227 13.43603 45.71869 0.7838373 5.7037754 6.410698 8.638325
21.056269 16.915295 2.0811033 7.1072364 26.833794 13.303419 15.074427 6.212497
10.672034 4.4388175 19.789972 26.816973 7.6549616 7.044887 5.7528534 5.176361

seq2.0.weight f4 [400, 304]
00000000: 15dc a0bc d822 8a3c 0d81 f2bb 3023 2fbd
00000010: 8131 75bd 7e93 2fbd 5d19 47ba 857f 37bd
00000020: c41d a9bc b70b a3bb 2a12 773c 3daa 04bd
00000030: c7c3 c63b 1d8c 3dbd 50c3 a2bc 43dd 053d
00000040: 1b9a 4cbc 032c 64bd a817 e93c d2df aebb
00000050: eea0 2ebd c579 ebbb 2e9e 5bbd b5f5 9fbc
00000060: 999d 92bc 53e0 fb3c 7b4f fcbc ab3a 183d
00000070: 2335 733b ced9 4cbd c560 a6bc f7db 1ebc
00000080: 4ad6 69ba a595 9abc 242a 4abd a340 40bd
00000090: 4b68 81bd c333 79bd 8f7f c53c 3ef4 423c
000000a0: a69b d6bc ed7c 4fbd acb7 a2bc 5bb8 de3c
000000b0: cefb 683c 5ff4 13bd 0410 e03c 8b92 863b
000000c0: 8183 21bd 18b7 e6bc d3b1 86bd 80cf fd3b
000000d0: d061 a3bc 1c5b acbc faaf c3bc 9351 60bc
000000e0: d8e1 97bc a4fa 4a3c a7d3 53bd 2da9 6abc
000000f0: 5f3c 213a e3b9 de3c 0ebf 61bd 3105 52bd
00000100: 5160 9ebb 57dd 9fbd 49b8 013d 4130 dcbc
00000110: 8a4d e0bc a259 1bbd 5ce3 a7bc 9f91 18bd
00000120: 5d90 14bd 2561 033d b77b 3ebc d2f6 5abc
00000130: b502 49bd 9dc5 e9bc a228 b2bc 045e 82bd
00000140: 8723 50bd af86 d1bc b995 58bd e911 56bc
00000150: 3784 1dbb e38c 043d 90aa 6abd 60f6 583b
00000160: 332d 883c 8ebf 79bc e210 e7bc 6ca8 dfbc
00000170: 397c a8bd 9fcd 9cba 77b4 a43b 7ced b43c
00000180: 21ce ee3a b6a2 32bc 405c 70bd 0c50 9dba
00000190: cb5e c3bc 0d5a 1fbd 24eb 37bd 2bf7 b2bc
000001a0: 2b01 77bc 76b6 16bd 40c1 e0bb d2ef 1fbd
000001b0: 6e1c 96bd 3d3d a53c e0ee 2fbc 45ce 89bc
000001c0: 70a0 19bc b109 aabc 25b7 41bd 0bda 453c
000001d0: 1f2a 21bd cc49 8bbd d5fe dcbc 48c6 64bd
000001e0: bd81 f4bc aeec 02bc f45f 4abd 2d78 033c
000001f0: c9f8 5cbd 89d9 14bd e2e4 58bb 4f45 2ebc
00000200: 73df 61bd dc7e 783c 9d1f 1bbc f5d9 f8bb
00000210: b90f 223a ad3f e23c 9707 8abc a086 23bd
00000220: 6082 823c 7649 6bbc 9d66 14bd 0fbd 00bd
00000230: e47b b03c 94f3 95ba 871e 0dbd c6d8 173b
00000240: ca8b 1cbd 6a81 07bc 8f6a 263a 7bfe 423c
00000250: d940 2d3b 3d8d e2bc dbc9 73bd 6d1b 9a3c
00000260: 6b9c 6ebd 09d0 b4bc 5ce7 67bd 9a2a 2ebd
00000270: e66b de3c 25c1 b13c 3a8d a5bc d4fc eabc
00000280: 70b4 b63c 7068 8cbd 8c6b 30bd 8cb5 4a3c
00000290: d10b 83bd 0fe1 f2bc 8c09 7f3c 5696 5a3c
000002a0: bcdd 52bd dbab e73c b824 693b f011 56bd
000002b0: 8397 933b 41a3 52bc 995a 38bd 57ee 52bd
000002c0: 6ee5 dc3a 1bfe 0dbc 734f 1abd ca60 aeba
000002d0: 6f71 d0bc 9cb3 913c 8cb4 34bb 6652 9fbb
000002e0: 262a 923c 7851 f0bc 1322 f53b 6394 78bd
000002f0: 7c08 8abd ee3a 91bc df36 b53c a3d8 a0bc
00000300: c8c3 cf3b 6df2 853b 15d2 05bd cf96 763c
00000310: a8ee 75bc 960f 863c 450a 79bc d996 ea3c
00000320: 2c97 91bc 2c57 79bc ad31 d13c aec5 873c
00000330: 1091 3cbc 9b90 0ebd b70d 083d f04b bfbb
00000340: 15b4 e4ba 5249 5bbd 6fe4 8d3c 0682 1b3d
00000350: 2f89 0f3b 75a4 8b3c f957 4dbd 9da4 b03c
00000360: 796f c3bc 5b34 cfbc c811 4bbd 8a25 59bd
00000370: 56c9 1fbd aa57 b0bc 93f8 06bc a8d8 a93b
00000380: ee34 32b7 5306 6dbd 094a d53c 9881 56bd
00000390: 91a3 29bd 32b0 9bbb 180d 663b 6c59 7fbd
000003a0: 8453 b2bc 1121 9b3c 80b6 ebb8 ef92 f63c
000003b0: c9df 82bd e6bf 3cbc 1378 32bd 8bed 47bd
000003c0: 8083 07bd 3a5a 653c 6872 90bc b784 6abc
000003d0: 7beb e13a fe1d 973c f1c5 473b 84fb dfbc
000003e0: a540 18bd 46ea 61bb 7793 66bd c0b4 15bd
000003f0: 3715 40bd 2d55 d2bc 90c9 f93a e10f fb3c
-0.019636193 0.016862318 -0.007400638 -0.042758167 -0.059861664 -0.04286527 -0.0007595027 -0.044799346
-0.020644076 -0.0049757618 0.015080014 -0.032388914 0.006065819 -0.0462762 -0.019868523 0.032681715
-0.0124879135 -0.055706035 0.028453663 -0.00533674 -0.042633943 -0.007186147 -0.05361765 -0.019526342
-0.017897414 0.030746615 -0.030799618 0.037165325 0.003711053 -0.050012402 -0.020309815 -0.009695998
-0.0008920176 -0.018870184 -0.049356595 -0.046936642 -0.063187204 -0.06084038 0.024108676 0.011899052
-0.026197266 -0.050656248 -0.019862972 0.027187517 0.014220191 -0.036121722 0.027351387 0.0041068248
-0.039432053 -0.028163478 -0.06576886 0.007745683 -0.019944102 -0.021039538 -0.023887623 -0.013691324
-0.018540308 0.012388859 -0.05171552 -0.014322561 0.00061506586 0.027188247 -0.055113845 -0.051274482
-0.004833259 -0.07805889 0.03166989 -0.026878478 -0.027380724 -0.037927277 -0.020494156 -0.03724825
-0.036270488 0.032075066 -0.011626176 -0.013364511 -0.049074847 -0.028536612 -0.02174789 -0.06365588
-0.05081513 -0.025576917 -0.05287716 -0.013065794 -0.0024035105 0.032360923 -0.057291567 0.0033105835
0.016623115 -0.015243424 -0.028206293 -0.02730199 -0.082268186 -0.0011963135 0.005026396 0.022085898
0.001821939 -0.010903051 -0.058681726 -0.0012002005 -0.023848912 -0.03890424 -0.044901982 -0.021846374
-0.015075962 -0.036795102 -0.0068589747 -0.03904707 -0.07329641 0.020170802 -0.010738105 -0.01682199
-0.00937663 -0.020756574 -0.0472938 0.012075911 -0.03934681 -0.06801185 -0.026976982 -0.05585316
-0.02984702 -0.007990999 -0.049407914 0.008024258 -0.053948198 -0.03634027 -0.003309541 -0.010636642
-0.05514474 0.015166964 -0.009467986 -0.007594342 0.00061821524 0.027618254 -0.016849322 -0.03992331
0.015931308 -0.014360776 -0.036230672 -0.0314303 0.02154345 -0.001144039 -0.03445294 0.0023169979
-0.03821925 -0.008270601 0.0006348276 0.011901493 0.0026436357 -0.027655238 -0.059518676 0.018811906
-0.05825464 -0.022071855 -0.056617126 -0.042521097 0.02715106 0.021698544 -0.020208944 -0.028685011
0.022302836 -0.06855857 -0.043071315 0.012372386 -0.06398738 -0.029648332 0.015566241 0.013341507
-0.051480994 0.02828019 0.0035574865 -0.0522632 0.0045041456 -0.012856306 -0.045008276 -0.05149683
0.0016853043 -0.0086665405 -0.037673425 -0.0013303992 -0.025444714 0.01778584 -0.0027573435 -0.0048621176
0.017842364 -0.029335722 0.0074808686 -0.060688388 -0.067398995 -0.017728295 0.022120891 -0.01963455
0.0063404776 0.0040877373 -0.032671053 0.015050604 -0.015010513 0.016364854 -0.015200202 0.028636383
-0.01777228 -0.015218537 0.025536383 0.016573753 -0.011509195 -0.034805875 0.033216204 -0.00583791
-0.0017448688 -0.05353672 0.01732084 0.037965797 0.0021901836 0.017046193 -0.050132725 0.021562869
-0.023856865 -0.02529352 -0.049577504 -0.053014316 -0.03901037 -0.021526176 -0.008237976 0.005183298
-1.062195e-05 -0.05786736 0.02603628 -0.052369684 -0.041415755 -0.0047512287 0.003510302 -0.06234114
-0.021768339 0.018936666 -0.000112396665 0.03009936 -0.0639034 -0.0115203615 -0.043571543 -0.048810523
-0.033084393 0.0139985625 -0.017632678 -0.014313868 0.0017236316 0.018446919 0.0030482973 -0.027341612
-0.037171025 -0.0034471913 -0.056292977 -0.03654933 -0.046895232 -0.02567538 0.0019057263 0.03064722

seq2.0.bias f4 [400]
00000000: 583a 17bd a24e c0bc 46c5 bfbd a279 b5bd
00000010: 2eb9 4cbd b03c e8bd 08c8 54bd 1547 84bc
00000020: c4b3 00bd 3ad9 6abd 9879 d5bd c2b9 3bbd
00000030: d72a d43b 4bc7 fbbd 28a1 59bd 5484 2bbd
00000040: e793 96bd c74f 69bd 058e 77bd becb 9abd
00000050: cb4b a9bc a177 b2bb 6624 dbbd 8f21 2dbd
00000060: d0cf 433f cbc6 89bd 9e1d 03bd b4cb 87bd
00000070: 4c1a 2bbd 5687 4fbd 12d3 d5be 7ac7 22bc
00000080: 6fef cd3e b5b6 dfbd a5ca 7bbd 7e15 c5bd
00000090: 6563 29bd 9568 24bc 4961 acbc 8533 7e3e
000000a0: 21ed 44be 72d4 8fbd fa62 87bd 391f 3dbd
000000b0: bab3 69bd 8b6b 6a3c dde9 89bd b138 b1bd
000000c0: e62e b6bd b37f 3fbb ec0f 79bd c084 b83e
000000d0: c647 213f e6d2 e5bd 3e95 c7bc eec3 1dbd
000000e0: da12 c1bd db9b 4abd 0511 afbc b4f0 89bd
000000f0: e316 a73a 5bd7 e5bc f1c0 c2bd 768b 78bd
00000100: ff5a 9cbd 7da6 90bd 77d0 683c d85e 253b
00000110: 21e1 27bd b748 8fbd ac84 a8bd 271c acbd
00000120: 8d42 b9bd 53ca 77bd 3900 033c 3bd6 08bd
00000130: 4f4b 9ebd db98 f7bd 1dea 283f 664b cbbd
00000140: 5092 d9bd 9a9b 95bd 9854 b9bd 593a 2cbd
00000150: 99c0 48bd e2d1 43bc 0f40 8fbc 77a9 d9bc
00000160: ea90 1fbd c682 b5bd 670d 9abd d9ff b9be
00000170: 0630 debd 109d cbbd d007 2bbc b484 be3e
00000180: ede2 97bd 48af 85bd 0d70 13bd 488c 4abe
00000190: 5cb2 e1bc 4588 c2bd 470b 04bc 4e90 30b9
000001a0: d642 09be d8e4 90b9 6325 96bd 6eac 243f
000001b0: 2c95 cabd b512 b2bd 0470 9ebd 996f e0bd
000001c0: 193d f3bc 8e49 5fbd 90cc a0bd bb45 6fbd
000001d0: 9876 cabd 5748 e8bd 98a2 67bb 63a5 9cbc
000001e0: 5df7 c7bd be4b c6bb 9faf 733f d119 10be
000001f0: 5f21 9a3e 9c4d 83be da11 9dbd 0bdb fc3e
00000200: b90b deba a406 9fbd 47e1 a0bd 2381 1fbd
00000210: 4de4 babd d208 50bc 85a8 a2bd 0af9 c9bd
00000220: 1508 2cbc 160f cabd 3d6b c9bd e029 b6bd
00000230: 2810 b9bd e8e6 14bd 2986 e0bd 63fb 4fbe
00000240: b077 81bd 5d8d 85bd 1d6b 04bd dc92 93bd
00000250: 07c4 03bc 80a9 52bd 5c2f 58bd 1e77 a0bd
00000260: 16c7 bbbe 69ca 19bd bd16 2bbd f89c 723c
00000270: 434d 7ebd 9f8c 92bd d76d efbd 4484 9a3e
00000280: 8550 66bc b75b 54bd 2af4 5f3e b089 e6bd
00000290: 6e20 a2bd e6d6 a4be 9dde 69bd 2428 02bd
000002a0: 8d93 9fbd de0e 59bd 9ed1 673f beb8 aebd
000002b0: 8a58 bf3b 987e 25bc 3b2e a9bc 90b6 a8bd
000002c0: 803b 22bd 363c 413f 792f bdbd 9912 a7bd
000002d0: d2ec f23d f00e 9fbd bf5b 53bd 4146 adbd
000002e0: f378 24bf 6fd8 5abc b790 4dbc caef f8bd
000002f0: a7c7 933d 7642 a9bd fb1e 6dbd b01c 88bd
00000300: 6614 37bd 8227 60bd 2572 a7bd 294b acbc
00000310: df2c 533f daa5 463f 63a4 9fbd 17fd 44bd
00000320: ccac 10bd f610 07bd 0e5d 91bd e4d3 3b3f
00000330: d7b3 08bd 2b5e f63e ea51 fdbc d7e0 99bd
00000340: dcf2 bbbd c5bb 7bbd f871 56bd 568c 19bd
00000350: b3c6 d4bc ce36 cc3e af8b 42bc b728 8dbd
00000360: 1746 71bd 4cfd a6bd 80b6 77bd 4dcf 10bd
00000370: d50a 77bd c234 f9be 22e3 2c3f 1bb8 46bd
00000380: ba39 3abc 4cfe 9e3c 54ac 273c b134 673f
00000390: 3a7f 7dbd 112a f4bc 9a20 b13e f82c 9abd
000003a0: 1691 09bd c514 89bd 2c4a 3cbb e9c6 b4bb
000003b0: 80b5 fabd 6e7c edbd 71cc 6bbc c2e7 c4bd
000003c0: 850b 0bbc e704 11bc 0766 5fbd 74bf d4bd
000003d0: 8ea3 4ebd 3225 95bd 307b a7bd e247 bbbc
000003e0: 0237 98bd 42f6 363f dc17 21be 4c60 14bd
000003f0: dfe4 b4bd 00ce da3e 1064 14bc d1a3 9bbd
-0.036920875 -0.023474995 -0.09363799 -0.0886109 -0.04998129 -0.113397 -0.051948577 -0.016147176
-0.031421438 -0.05733607 -0.10423583 -0.04583145 0.0064748335 -0.122938715 -0.053132206 -0.041874245
-0.07352429 -0.056960847 -0.060438175 -0.07558392 -0.020666024 -0.00544639 -0.10700302 -0.042268332
0.7648897 -0.0672737 -0.032010667 -0.0663065 -0.041773126 -0.050666176 -0.41762596 -0.009935254
0.40221736 -0.109235205 -0.061472554 -0.0962324 -0.041354556 -0.0100347 -0.021042483 0.2482434
-0.19231082 -0.070229426 -0.06610675 -0.046172354 -0.057056166 0.014307867 -0.06734059 -0.08653391
-0.08895664 -0.0029220402 -0.0608062 0.3603878 0.6300014 -0.11221866 -0.024363156 -0.03851693
-0.09427424 -0.04946504 -0.02137042 -0.067353636 0.001274791 -0.028056791 -0.09509457 -0.060679875
-0.07634544 -0.07063005 0.014209858 0.0025233533 -0.040986184 -0.06996291 -0.0822843 -0.08403807
-0.09045897 -0.060495686 0.007995659 -0.03340743 -0.07729208 -0.12089702 0.6598223 -0.099264905
-0.1062361 -0.07305069 -0.09049338 -0.042047832 -0.0490118 -0.011951895 -0.0174866 -0.026570065
-0.03895656 -0.08862834 -0.075220875 -0.3632801 -0.108490035 -0.09942067 -0.010438874 0.3721062
-0.074163295 -0.06527573 -0.03599553 -0.19780076 -0.027550869 -0.094986476 -0.008059329 -0.00016838426
-0.13404402 -0.00027636322 -0.0733135 0.64325607 -0.098917335 -0.08694974 -0.07736209 -0.109587856
-0.02969222 -0.054513507 -0.07851517 -0.05841611 -0.09885901 -0.11341923 -0.0035344716 -0.019121831
-0.09763978 -0.0060515096 0.9518985 -0.14072348 0.30103585 -0.2564515 -0.076694205 0.49385867
-0.001694075 -0.077649385 -0.07855468 -0.038941514 -0.09125576 -0.012697415 -0.07942299 -0.098619536
-0.010499974 -0.09866159 -0.09834907 -0.08894706 -0.09036285 -0.03635302 -0.10963089 -0.2031074
-0.06321657 -0.065211035 -0.032328714 -0.072057456 -0.008042342 -0.05143118 -0.05277954 -0.0783522
-0.36675328 -0.03754655 -0.04176973 0.014807932 -0.0620854 -0.071557276 -0.11690872 0.30179036
-0.014057283 -0.05184528 0.21870485 -0.112567306 -0.07916342 -0.32195204 -0.057097066 -0.031776562
-0.07791815 -0.052992694 0.90554225 -0.085313305 0.005839412 -0.010100983 -0.020651927 -0.08237946
-0.039607525 0.754825 -0.0923757 -0.08157844 0.11861576 -0.07766521 -0.051601168 -0.084606655
-0.64247054 -0.013357266 -0.01254671 -0.12155111 0.07215815 -0.082646295 -0.057890873 -0.06646097
-0.044697188 -0.054725178 -0.08176068 -0.021031933 0.8249034 0.7759682 -0.07795026 -0.048092928
-0.035321042 -0.03297516 -0.07097827 0.73370194 -0.033374634 0.4811872 -0.030922849 -0.07513588
-0.09177181 -0.061458368 -0.052354783 -0.03748735 -0.025973653 0.39885563 -0.0118741235 -0.06892531
-0.058904734 -0.08153781 -0.06047678 -0.035353947 -0.060313065 -0.48673064 0.6753408 -0.04851542
-0.011366302 0.019408368 0.010233957 0.90314776 -0.06188891 -0.029805215 0.34595186 -0.07528108
-0.03358563 -0.066934146 -0.0028730733 -0.005516876 -0.1224165 -0.11595999 -0.014392004 -0.09614517
-0.008486633 -0.0088512665 -0.05454066 -0.10388079 -0.050448947 -0.07282485 -0.08177793 -0.022861425
-0.07432367 0.7146951 -0.15731758 -0.03622465 -0.08832716 0.4273529 -0.00905706 -0.07599605
