checkpoint_actor_ou.pth (torch, 536772 bytes, 10 tensors)

seq.0.weight f4 [300, 33]
0.15388048 -1.0843235 -0.2868412 -0.5236825 1.0997769 0.1756361 0.44996613 -0.22648582
0.0071850857 -0.37262258 0.32464215 -0.3129004 -0.2264199 0.96854585 0.59267294 0.007879704
0.21048619 -0.13069892 0.19162546 -0.0367974 -0.37936634 -0.21532595 -0.3568831 0.10220899
0.37885734 -0.04158684 -0.16911678 0.046094745 -0.5224282 0.03266085 -0.0022289085 0.028748706
1.4915514 0.9867318 0.15463968 -0.5626813 -0.49112546 0.7840949 -0.081031516 -0.28565517
-0.080924146 -0.5010084 0.4721499 0.0076530427 -0.024042763 0.23791526 -0.061935138 1.0250856
-0.17128506 -0.31418636 0.19451785 -0.50391364 -0.1692986 0.4322166 -0.47030845 0.5711456
0.07329132 0.085581794 0.80361676 0.2753121 0.05423318 -0.12875593 -0.025524266 -0.02818121
-0.026105043 0.31140235 -0.54554343 -0.7238633 -0.22683893 -1.0440671 0.23065 0.33364156
-0.55049455 0.46461484 0.32210344 0.47034895 0.31440896 -0.14567663 -0.13037622 0.23042786
1.4167145 0.027375411 0.26219705 -0.016827503 -0.6571689 0.17328644 0.3654198 -0.1279079
-0.27440417 0.89429986 0.9393775 0.051444143 -0.040466644 -0.018104518 0.07209603 0.019275717
-0.057623763 0.039834112 -0.65615636 0.5815386 -0.025383046 0.029977273 0.0233733 0.66619277
0.43842724 0.0650203 0.28281474 0.22634801 0.82236135 -0.09845532 0.021029634 -0.6107715
-0.50749964 0.2926184 -0.21340263 0.35226017 -0.20080937 -0.026730735 -0.08744735 -0.59309876
0.6872258 0.48258188 -0.4942874 -0.18101013 -0.308593 0.5446729 0.0042962176 -0.20584603
-0.003763482 0.022808736 -0.046830036 1.4198585 -0.29320845 -0.61592513 0.2859711 0.54758763
-0.21716051 0.0656577 0.8484389 -0.07644859 0.21785653 -0.4850602 -0.12793986 -0.5979802
0.32854307 -0.040008307 -0.108469896 0.36314762 -0.40486667 0.19198994 -0.46763197 -0.104232945
-0.008338188 0.02601168 -0.13041638 0.28654876 0.7807663 0.9680752 -0.12561418 0.04852811
0.1604 0.016390093 0.04761183 -0.018222138 0.16951631 1.0155859 0.7696796 -0.36641967
0.034693033 0.6660847 0.87800366 0.5011355 0.071403734 -0.3585577 0.12153802 0.0238717
-0.16863126 -0.339261 -0.5574987 0.41112188 -0.05469239 -0.045020502 -0.21203843 0.8135913
0.015764562 0.28614834 -0.28566107 0.469695 -0.58470416 -0.38444692 -0.20898764 0.4785297
0.01904029 0.044156738 -0.052648306 0.03458131 -0.012750581 0.28062576 0.18352523 1.4510905
1.2834314 -0.27191424 0.35895905 -0.22262448 0.69815034 0.058103617 0.47007 0.26932338
0.030370977 0.2416502 0.21153836 0.2260867 -0.37778574 0.09852019 -0.1876864 0.08114579
-0.5398281 0.1771307 0.107131176 -0.3159928 -0.19088379 0.10524819 0.116058595 0.29765207
0.16341321 -0.0140282605 -0.43193567 -0.021354184 0.05002382 0.056055874 1.97741 -0.45041814
-0.5992666 -1.2103574 0.24713993 -0.4504149 0.43486047 -0.0953319 -0.13933021 -0.29176247
-0.5789657 -0.09220491 0.24910413 -0.09954459 0.2842474 0.32734433 0.8439694 -0.26834938
-0.08686668 0.16756086 -0.08195586 0.070497856 0.14949559 -0.041224424 0.026791928 -0.23752165
00000000: d892 1d3e 1dcb 8abf dadc 92be 0e10 06bf
00000010: 7dc5 8c3f f3d9 333e f661 e63e e6eb 67be
00000020: de70 eb3b 63c8 bebe 7f37 a63e 7b34 a0be
00000030: 9eda 67be 9ff2 773f 6ab9 173f e019 013c
00000040: b189 573e f0d5 05be 7739 443e dfb8 16bd
00000050: 4e3c c2be 687e 5cbe 62b9 b6be f252 d13d
00000060: 97f9 c13e f656 2abd f32c 2dbe d8cd 3c3d
00000070: dbbd 05bf 62c7 053d e112 12bb 6882 eb3c
00000080: 28eb be3f 759a 7c3f dd59 1e3e e20b 10bf
00000090: cc74 fbbe 72ba 483f daf3 a5bd 6541 92be
000000a0: 8fbb a5bd 1642 00bf a2bd f13e 60c6 fa3b
000000b0: 54f5 c4bc 0fa0 733e b3af 7dbd 0136 833f
000000c0: 5a65 2fbe 09dd a0be b02f 473e 7c00 01bf
000000d0: 9d5c 2dbe 7f4b dd3e 45cc f0be 9936 123f
000000e0: c219 963d 8245 af3d d4b9 4d3f b5f5 8c3e
000000f0: 9c23 5e3d 98d8 03be 4418 d1bc 48dc e6bc
00000100: 3eda d5bc 2170 9f3e bca8 0bbf 1b4f 39bf
00000110: 7748 68be fea3 85bf 832f 6c3e 11d3 aa3e
00000120: 36ed 0cbf ffe1 ed3e beea a43e 94d1 f03e
00000130: 36fa a03e 412c 15be 5881 05be 48f5 6b3e
00000140: e756 b53f 6642 e03c b13e 863e d5d9 89bc
00000150: 393c 28bf 0072 313e 4e18 bb3e 4afa 02be
00000160: b47e 8cbe d6f0 643f 0b7b 703f 18b7 523d
00000170: 5ac0 25bd ed4f 94bc 15a7 933d 1ce8 9d3c
00000180: e506 6cbd 1829 233d ddf9 27bf b7df 143f
00000190: 1bf0 cfbc e692 f53c 5d79 bf3c 9c8b 2a3f
000001a0: 8979 e03e 5d29 853d 18cd 903e c6c7 673e
000001b0: 4686 523f f1a2 c9bd 5746 ac3c 855b 1cbf
000001c0: 7feb 01bf 14d2 953e 3886 5abe 725b b43e
000001d0: f9a0 4dbe 6afa dabc 9917 b3bd 52d5 17bf
000001e0: 08ee 2f3f f914 f73e 3d13 fdbe b85a 39be
000001f0: e7ff 9dbe af6f 0b3f 49c7 8c3b 4dc9 52be
00000200: c0a4 76bb 63d9 ba3c dad0 3fbd ecbd b53f
00000210: 6b1f 96be 45ad 1dbf ce6a 923e b42e 0c3f
00000220: 535f 5ebe 8b77 863d 4b33 593f 1491 9cbd
00000230: c815 5f3e cf59 f8be ab02 03be 3b15 19bf
00000240: cc36 a83e c0df 23bd 7725 debd 7cee b93e
00000250: af4a cfbe 0399 443e 756d efbe 1578 d5bd
00000260: e59c 08bc 7216 d53c df8b 05be 85b6 923e
00000270: 4de0 473f c7d3 773f 01a1 00be 69c5 463d
00000280: e63f 243e 8444 863c 9f04 433d 9846 95bc
00000290: af95 2d3e b8fe 813f b909 453f 5c9b bbbe
000002a0: 481a 0e3d 8784 2a3f d9c4 603f 6b4a 003f
000002b0: 1f3c 923d e094 b7be ede8 f83d 958e c33c
000002c0: acad 2cbe 9eb3 adbe 3cb8 0ebf 917e d23e
000002d0: 2105 60bd 6b67 38bd 9a20 59be 8547 503f
000002e0: af24 813c 0982 923e 2b42 92be dd7b f03e
000002f0: 2caf 15bf 3ad6 c4be db00 56be d801 f53e
00000300: 62fa 9b3c b2dd 343d c0a5 57bd 22a5 0d3d
00000310: d0e7 50bc 2eae 8f3e 0aee 3b3e 55bd b93f
00000320: 7b47 a43f 5838 8bbe 7bc9 b73e acf7 63be
00000330: fbb9 323f 0ffe 6d3d 04ad f03e c1e4 893e
00000340: 8ecc f83c 2673 773e 839d 583e 4683 673e
00000350: 226d c1be f4c4 c93d dd30 40be c42f a63d
00000360: 2d32 0abf c061 353e 9767 db3d cfc9 a1be
00000370: 0a77 43be 5d8c d73d 21b0 ed3d da65 983e
00000380: cb55 273e cad6 65bc ac26 ddbe f8ee aebc
00000390: c7e5 4c3d d89a 653d c51b fd3f 359d e6be
000003a0: 8969 19bf feec 9abf 4012 7d3e c89c e6be
000003b0: 08a6 de3e 5f3d c3bd 94ac 0ebe e461 95be
000003c0: 1937 14bf eed5 bcbd 2715 7f3e 09de cbbd
000003d0: e088 913e ad99 a73e 610e 583f 1765 89be
000003e0: 28e7 b1bd 1395 2b3e 79d8 a7bd 2e61 903d
000003f0: 5f15 193e f1da 28bd bf7a db3c e038 73be

seq.0.bias f4 [300]
-0.078680836 -0.14633249 -0.030164342 -0.07677378 -0.041909266 0.105341636 0.10122671 0.11352146
0.17347665 0.012071589 -0.09274794 -0.018257175 0.02801529 -0.062246613 0.13894796 0.0913634
-0.12528025 0.016349426 0.016356982 0.05408679 -0.11614924 0.17126876 -0.060147446 0.0658896
-0.08652338 0.058888063 -0.06028577 -0.0921243 -0.15580659 0.061130084 0.024153527 0.053721745
-0.095690764 0.03689894 -0.07111723 0.0484664 0.16278748 -0.14582363 0.066805355 -0.11226957
0.05332744 -0.037999716 0.070890605 -0.12980157 0.12256643 0.09838608 -0.11982687 -0.12293272
0.095939055 -0.13701154 0.06802843 -0.08603888 -0.15606844 0.05425169 -0.07316688 -0.114613935
0.05209859 0.08035096 0.1399379 0.17019717 0.060249865 -0.05036386 -0.030144637 0.13140671
-0.13526286 0.12528516 0.08033558 0.067013316 0.053794835 -0.14430217 0.06942485 -0.010368016
0.0023043198 -0.080706984 0.1260018 -0.028822826 0.0024467942 -0.1487801 0.13352355 -0.1607357
0.10758728 0.07628201 0.026348468 -0.16849759 -0.080101356 -0.011552819 -0.12878701 -0.056310054
-0.039365727 -0.054526284 0.12115504 0.15907383 -0.08256087 0.08994448 0.011134852 0.12551981
-0.15199049 -0.08639945 -0.034934904 0.16706762 0.13783403 -0.04703691 -0.10747146 -0.08704398
0.021199506 0.03971603 -0.088051885 0.049202558 -0.020062715 0.13055862 -0.06623402 -0.0978489
0.026718942 0.009122651 0.0983774 0.16988376 -0.06969598 0.16189559 0.08181995 0.14856982
0.053665802 -0.026078686 0.023944741 0.004454191 -0.12808226 -0.057843633 0.13173023 0.03357604
0.046237748 0.016971875 0.037592847 -0.12152196 -0.033148825 -0.03791256 -0.05955342 -0.109880395
-0.018049365 -0.004150644 -0.05703143 -0.04250521 -0.053222243 -0.027413601 -0.1386909 0.14200851
-0.09299053 0.09070638 -0.15313305 -0.007880983 -0.01626816 -0.14806323 0.009086231 -0.13005699
0.061565142 0.109075256 -0.026888823 0.028880944 -0.087124415 0.06301953 -0.16436581 0.17332846
-0.01019719 0.036179055 0.14741205 -0.14423971 -0.09060747 0.0313215 -0.17381161 0.03871621
-0.014891149 -0.16323994 -0.043539044 -0.12739827 0.016782872 0.12822454 0.1657059 -0.16280806
0.062181078 -0.13391514 0.061824344 0.09561346 -0.16601393 -0.12572604 -0.15617128 -0.016782025
0.063818686 -0.12768573 -0.011261637 -0.060693596 0.15817526 -0.15962207 -0.09657926 -0.0016444578
-0.13573526 0.13393286 -0.15987886 -0.05592245 -0.07362558 -0.0016169128 -0.08276719 0.12489282
-0.14991035 -0.09172769 -0.07981378 -0.16625781 -0.17261231 0.061623484 0.1638868 -0.026622122
-0.06742862 0.07617171 0.10263999 -0.1561734 -0.08305504 0.14707558 0.07730264 -0.1616006
0.0032594888 -0.13183025 -0.13473938 -0.08638893 0.17284358 -0.1003111 0.11891739 -0.15821517
-0.012030622 0.15757555 -0.038913347 -0.060084186 -0.07663033 -0.12583454 0.055854466 -0.12688923
-0.11060577 0.15144247 0.12958114 -0.091106124 0.003881777 -0.046327762 0.13262284 -0.15642981
-0.15642789 0.08518863 0.008746189 -0.050816003 0.08917124 0.071791716 -0.11848425 0.09948478
0.10098035 -0.024645055 -0.15063213 0.07289575 0.10384472 -0.17304191 -0.1609695 -0.021091368
00000000: 6b23 a1bd 2fd8 15be 361b f7bc 923b 9dbd
00000010: 0da9 2bbd 5bbd d73d f34f cf3d f07d e83d
00000020: dda3 313e eac7 453c a2f2 bdbd 1290 95bc
00000030: 5280 e53c 4ef6 7ebd 6048 0e3e bc1c bb3d
00000040: 7749 00be 3bef 853c 14ff 853c 1c8a 5d3d
00000050: a7df edbd 1461 2f3e 2b5d 76bd 20f1 863d
00000060: 2b33 b1bd 9c34 713d 36ee 76bd aaab bcbd
00000070: c38b 1fbe 8a63 7a3d 9edd c53c 550b 5c3d
00000080: 85f9 c3bd 5823 173d e9a5 91bd b484 463d
00000090: c3b1 263e ca52 15be 3fd1 883d 97ed e5bd
000000a0: e06d 5a3d 97a5 1bbd 182f 913d b4ea 04be
000000b0: 1c04 fb3d a47e c93d ca67 f5bd 26c4 fbbd
000000c0: b27b c43d c14c 0cbe 7d52 8b3d 2735 b0bd
000000d0: 68d0 1fbe 0537 5e3d 84d8 95bd b6ba eabd
000000e0: 5565 553d 0b8f a43d e14b 0f3e 2b48 2e3e
000000f0: 90c8 763d 564a 4ebd e3f1 f6bc 7b8f 063e
00000100: 5982 0abe c14a 003e fb86 a43d 473e 893d
00000110: f957 5c3d f3c3 13be 9e2e 8e3d 9cde 29bc
00000120: 1204 173b b449 a5bd 9e06 013e d91d ecbc
00000130: 655a 203b cf59 18be 66ba 083e e697 24be
00000140: b856 dc3d be39 9c3d bed8 d73c a28a 2cbe
00000150: 2e0c a4bd 0948 3dbc bee0 03be 5fa5 66bd
00000160: f53d 21bd f456 5fbd 2220 f83d 40e4 223e
00000170: ac15 a9bd d034 b83d f46e 363c 4488 003e
00000180: 65a3 1bbe 32f2 b0bd e717 0fbd c613 2b3e
00000190: 5d24 0d3e c6a9 40bd ff19 dcbd 1d44 b2bd
000001a0: 96aa ad3c 47ad 223d 8c54 b4bd 9f88 493d
000001b0: 905a a4bc 29b1 053e b4a5 87bd 0165 c8bd
000001c0: afe1 da3c 2c77 153c 177a c93d 02f6 2d3e
000001d0: c4bc 8ebd f5c7 253e 3891 a73d b022 183e
000001e0: acd0 5b3d f8a2 d5bc c327 c43c 76f4 913b
000001f0: ff27 03be 72ed 6cbd 4ae4 063e 0887 093d
00000200: cb63 3d3d 9a08 8b3c f5fa 193d 81e0 f8bd
00000210: 10c7 07bd 334a 1bbd 49ee 73bd f908 e1bd
00000220: 43dc 93bc 2002 88bb ca99 69bd f119 2ebd
00000230: 91ff 59bd 7d92 e0bc fd04 0ebe ae6a 113e
00000240: d271 bebd 44c4 b93d e9ce 1cbe 3d1f 01bc
00000250: ce44 85bc e39d 17be 6ade 143c a92d 05be
00000260: bb2b 7c3d d962 df3d f345 dcbc bb97 ec3c
00000270: 496e b2bd 6210 813d 834f 28be 047d 313e
00000280: 1d12 27bc 7d30 143d 2ff3 163e 93b3 13be
00000290: 6990 b9bd f94a 003d acfb 31be e394 1e3d
000002a0: 01fa 73bc 5f28 27be ff55 32bd b174 02be
000002b0: 3c7c 893c 4b4d 033e cfae 293e 28b7 26be
000002c0: 96b1 7e3d 0d21 09be 863b 7d3d fdd0 c33d
000002d0: 8eff 29be 54be 00be 5deb 1fbe 757a 89bc
000002e0: 5fb3 823d 0cc0 02be bb82 38bc d999 78bd
000002f0: b2f8 213e f873 23be 59cb c5bd d98a d7ba
00000300: 2ffe 0abe b225 093e 49b7 23be f00e 65bd
00000310: 02c9 96bd 97ee d3ba d881 a9bd cfc7 ff3d
00000320: 1982 19be badb bbbd 6875 a3bd 7d3f 2abe
00000330: 48c1 30be e868 7c3d f1d1 273e a316 dabc
00000340: 0418 8abd eaff 9b3d ea34 d23d ebeb 1fbe
00000350: c318 aabd fb9a 163e d950 9e3d a17a 25be
00000360: 269d 553b 82fe 06be 1ff9 09be aeec b0bd
00000370: e8fd 303e e86f cdbd f68a f33d 2803 22be
00000380: 161c 45bc 7c5b 213e 9a63 1fbd d61a 76bd
00000390: 5df0 9cbd c5da 00be a7c7 643d 40ef 01be
000003a0: 4785 e2bd bc13 1b3e ebb0 043e d995 babd
000003b0: 6965 7e3b 2ec2 3dbd 48ce 073e 232f 20be
000003c0: a22e 20be 6077 ae3d 2d4c 0f3c 7124 50bd
000003d0: 699f b63d 8907 933d dfa7 f2bd adbe cb3d
000003e0: c9ce ce3d 6de4 c9bc 4f3f 1abe 5e4a 953d
000003f0: 8aac d43d e631 31be 30d5 24be cec7 acbc

seq.1.weight f4 [300]
0.9379951 1.0120623 0.79147726 0.78110814 0.57546026 0.7400521 0.81623566 0.77869725
1.6635302 0.6712974 1.4297782 0.8961094 0.78213453 0.93917674 0.78833103 0.7128935
1.3293878 0.6977562 0.69977283 0.94686896 0.45293927 0.7538329 0.9159082 1.2759097
0.99928856 0.748498 0.7340179 0.8692108 0.72979397 1.1871241 0.7798654 0.78507286
0.99729717 1.3607354 0.728798 0.81917185 0.3030814 1.2537434 0.9639612 0.5918742
1.1388958 0.77727634 1.010852 1.0876209 0.51727766 0.74386305 0.8311658 0.79663724
1.7262776 1.7238744 0.76125586 0.8529137 0.7822117 1.3045453 0.78321105 0.8635842
1.0368476 0.89044476 1.268651 0.8699333 1.0098584 0.8039045 1.1911095 0.82985926
0.7626323 0.78199816 0.8257378 0.7849548 0.8514451 1.0091978 1.3662417 1.549091
0.6252202 0.8258972 1.0797381 0.65381193 1.2236633 0.86642325 0.844225 0.8328253
0.7871378 0.8609042 0.87564737 0.5682262 0.76035005 0.6221777 0.78642505 0.9689711
0.7535717 0.7529107 0.8977364 0.8905718 0.6366058 0.97383386 1.1021436 1.8196248
0.7372657 0.77203524 0.76512736 0.6684962 0.7878089 0.9523669 0.8135113 0.9259202
1.4862425 0.9425065 0.85849476 0.79624295 0.8624187 0.8895388 1.6202825 0.7954774
0.67882836 0.44780955 0.74188894 0.74450153 1.0991272 0.8002046 0.5863114 1.2342955
0.52638394 0.9925933 0.8014468 0.60490763 0.16631053 0.8129007 1.0733894 0.41520208
0.78832173 0.7751124 0.9492902 1.0058302 1.5483972 1.0216475 0.9211274 0.9989489
0.84952 1.1091979 0.758376 1.104188 0.89957315 0.5965509 0.76481926 0.7918493
0.903797 0.6394482 0.5743834 0.6866498 1.3261766 1.0036328 0.86363345 0.8965835
0.89975697 0.8235135 0.8689668 0.83615905 0.6829995 1.3660715 0.7672094 0.6405944
1.1364558 1.19106 0.63969743 0.9800372 0.61053246 0.75777775 0.64955074 1.0600665
0.76359034 0.81240106 0.887217 0.8098236 0.40155137 0.6066494 0.4858014 0.7624523
0.8992411 0.83168346 0.8740478 1.008499 0.8439285 0.81598216 0.62166786 1.142195
0.7627632 0.9363022 0.732157 0.5038301 0.9564372 0.9140128 0.47444406 0.9639009
1.0112484 0.83830893 0.7366876 0.94184196 0.65912503 0.7255663 0.71134746 0.76953065
1.0679976 0.73847085 0.8998932 0.79260796 0.7511842 1.091008 0.6905652 1.2337494
0.7723141 1.0189189 0.7728127 0.4324287 0.8425361 1.4709504 0.8417863 0.5350113
1.4697909 0.807767 0.9454016 0.4507823 0.9497134 0.7671276 1.4289517 0.921413
0.97820854 0.95471525 0.5130886 0.9648388 1.2954115 0.5440201 0.79542035 0.8056214
1.443775 1.0955253 0.92969143 0.8103505 0.8245635 0.30413625 0.9163993 0.9292777
0.88222694 0.8863885 1.2808256 1.2051516 0.7046459 0.8917149 0.90233165 0.63726044
0.7969133 0.6784736 1.0066624 0.8980639 0.83227795 0.81380284 1.0424678 0.8879461
00000000: 7220 703f 428b 813f 419e 4a3f b4f6 473f
00000010: 5d51 133f 0e74 3d3f d2f4 503f b458 473f
00000020: 8fee d43f 25da 2b3f f902 b73f 6d67 653f
00000030: f839 483f e36d 703f 10d0 493f 3080 363f
00000040: 6129 aa3f 26a0 323f 5024 333f 0166 723f
00000050: a8e7 e73e 31fb 403f f678 6a3f 0251 a33f
00000060: 60d1 7f3f 919d 3f3f 99e8 3b3f 9984 5e3f
00000070: c7d3 3a3f aff3 973f 42a5 473f 89fa 483f
00000080: de4e 7f3f 942c ae3f 8192 3a3f 3fb5 513f
00000090: 7c2d 9b3e aa7a a03f 29c6 763f 1185 173f
000000a0: 56c7 913f 95fb 463f 9963 813f 2937 8b3f
000000b0: 4f6c 043f cf6d 3e3f 48c7 543f 6bf0 4b3f
000000c0: aaf6 dc3f eba7 dc3f aae1 423f 8d58 5a3f
000000d0: 073f 483f 57fb a63f 8580 483f db13 5d3f
000000e0: 6cb7 843f 30f4 633f 2863 a23f f3b3 5e3f
000000f0: 0a43 813f afcc 4d3f 4776 983f a871 543f
00000100: df3b 433f 0831 483f 8d63 533f ccf2 483f
00000110: 4ef8 593f 652d 813f 02e1 ae3f 9d48 c63f
00000120: 6e0e 203f 006e 533f dc34 8a3f 3860 273f
00000130: 00a1 9c3f eacd 5d3f 211f 583f 0a34 553f
00000140: dd81 493f 3864 5c3f 6d2a 603f 4677 113f
00000150: 4da6 423f 0a47 1f3f 2753 493f 7d0e 783f
00000160: 13ea 403f c1be 403f 0dd2 653f 83fc 633f
00000170: 99f8 223f 2d4d 793f 0b13 8d3f 77e9 e83f
00000180: 72bd 3c3f 1aa4 453f 63df 433f 9122 2b3f
00000190: d8ad 493f 51ce 733f 4742 503f 1b09 6d3f
000001a0: 323d be3f 1b48 713f 50c6 5b3f 94d6 4b3f
000001b0: 79c7 5c3f d1b8 633f 6b65 cf3f 68a4 4b3f
000001c0: b2c7 2d3f 4b47 e53e 6fec 3d3f a797 3e3f
000001d0: 33b0 8c3f 35da 4c3f 8118 163f 65fd 9d3f
000001e0: 19c1 063f 981a 7e3f 9e2b 4d3f 3adb 1a3f
000001f0: 4f4d 2a3e 431a 503f d364 893f 5e95 d43e
00000200: 74cf 493f c46d 463f af04 733f 0bbf 803f
00000210: e131 c63f 58c5 823f 01cf 6b3f 1dbb 7f3f
00000220: 257a 593f 32fa 8d3f ee24 423f 0856 8d3f
00000230: 6d4a 663f 8fb7 183f 32cb 433f a3b6 4a3f
00000240: 3d5f 673f e1b2 233f ca0a 133f 48c8 2f3f
00000250: 28c0 a93f 0a77 803f 1517 5d3f 7f86 653f
00000260: 7956 663f c8d1 523f 9c74 5e3f 850e 563f
00000270: 0ed9 2e3f 6edb ae3f d667 443f fffd 233f
00000280: 6277 913f a774 983f 36c3 233f b8e3 7a3f
00000290: db4b 1c3f b9fd 413f f548 263f 42b0 873f
000002a0: a87a 433f 84f9 4f3f a720 633f 9950 4f3f
000002b0: 2498 cd3e 604d 1b3f f6ba f83e 1330 433f
000002c0: aa34 663f 35e9 543f 99c1 5f3f 7f16 813f
000002d0: b30b 583f 35e4 503f a025 1f3f 7233 923f
000002e0: 7344 433f 80b1 6f3f a46e 3b3f 02fb 003f
000002f0: 11d9 743f befc 693f 55ea f23e 36c2 763f
00000300: 9670 813f 6a9b 563f 8f97 3c3f 8e1c 713f
00000310: 6bbc 283f b7be 393f de1a 363f f6ff 443f
00000320: 25b4 883f 6d0c 3d3f 675f 663f 5be8 4a3f
00000330: 9c4d 403f 26a6 8b3f e2c8 303f 80eb 9d3f
00000340: 60b6 453f ef6b 823f 0ed7 453f 4b67 dd3e
00000350: 72b0 573f 1a48 bc3f 4f7f 573f 80f6 083f
00000360: 1c22 bc3f d1c9 4e3f d705 723f f0cc e63e
00000370: 6b20 733f 7962 443f e4e7 b63f b9e1 6b3f
00000380: e06b 7a3f 3868 743f c659 033f adff 763f
00000390: 0bd0 a53f e744 0b3f aba0 4b3f 343d 4e3f
000003a0: 9fcd b83f 2c3a 8c3f 4200 6e3f 2173 4f3f
000003b0: 9816 533f bfb7 9b3e 2599 6a3f 25e5 6d3f
000003c0: a0d9 613f 5bea 623f 18f2 a33f 6842 9a3f
000003d0: ac63 343f 6d47 643f 35ff 663f 8023 233f
000003e0: 8302 4c3f 72b0 2d3f 50da 803f 84e7 653f
000003f0: 2b10 553f 6255 503f 966f 853f 7050 633f

seq.1.bias f4 [300]
-1.1154851 -0.8868842 -0.90757996 -1.4932865 -0.935289 -1.2137064 -0.5527193 -0.8732015
-1.0796607 -0.9350563 -0.5964387 -1.1944846 0.036087323 -0.95775676 -0.2931381 -1.1934371
-0.31199208 -0.9406545 -1.1914897 -1.1704854 -0.6080644 -0.97139657 -0.99189734 -1.2511964
-0.020685647 -0.65266615 -1.0548009 -1.2700193 -0.31353873 -0.90065897 -0.61934936 -1.1821163
-0.80198836 -0.6409401 -1.0263976 -0.9763274 -0.08341835 -1.30078 -0.64700645 -1.068353
-0.6541431 -0.767707 -1.0948017 -1.1458402 -0.4839409 -0.96197075 -1.156746 -0.8837287
-1.0103134 -0.77252924 -0.90569943 -1.3206841 -0.93303436 -0.4405505 -1.1626633 -1.0663444
0.20649308 -0.9103502 -0.867906 -0.8193653 -1.4097494 -0.81934816 -1.1103983 -0.61238694
-1.0833862 -0.83602434 -0.88561225 0.041172143 -0.6993458 -0.29842052 -1.144853 -1.0473456
-0.9078292 -1.1393166 -1.0864159 -0.23353273 -1.25301 -0.95406497 -1.1307864 -0.9912303
-1.1390785 -1.0075783 -1.1003814 -0.76041013 -1.6134851 -0.9727507 -0.3087917 -0.9829842
-0.85987186 -0.7613336 -1.2791321 -1.0501436 0.91703695 -0.973284 -1.2638721 -0.5600117
-0.6393831 -0.41152143 -0.83507013 -0.32275274 -1.196501 -0.816593 -1.3502374 -1.1053838
-1.2078234 -0.7783215 -1.1435874 -0.9308733 -1.1141199 -0.62402797 -1.2338525 -1.0566556
-0.5523085 -0.60996675 -1.0754321 -1.0649531 -1.3770896 -1.2042025 -0.65849274 -0.037532255
-0.5601833 -1.1937333 -0.7496533 -0.19797266 -0.1456436 -1.0477521 -0.22677049 -0.10992213
-1.1335566 -1.2831634 -1.2526467 -0.5566921 -1.2312247 -1.0106117 -0.73824 -1.0671413
-0.71771705 -1.3178344 -1.3162382 -0.8858057 -0.7658916 -0.8979772 0.46221706 -0.33603582
-0.89471084 -1.0142592 -0.67075604 -1.1989866 -1.3110361 -1.1593002 -1.0834347 -0.971067
-0.38458404 -1.0292469 -1.2147756 -0.8444942 -1.2378256 -1.1447045 -0.91683966 -0.7473084
-0.9014043 -0.8753999 -0.8286356 -0.9616479 -1.002493 -1.0661328 -0.74890035 -0.7391799
-1.1411386 -0.88666123 -0.9288107 -0.7368301 -1.5266551 -0.8729212 -0.95700777 -1.0054661
-1.1580158 -0.74000686 -0.54684025 -1.2542593 -0.7599551 -1.0839443 -1.1717266 -0.8611826
-0.9379794 -0.9268212 -1.3557391 -0.7097526 -0.9609444 -0.7593368 -0.68318474 -0.8939345
-1.1706233 -1.4253265 -0.60199916 -1.0242976 -0.34351042 -0.77512604 -0.68854797 0.15514149
-0.992539 -0.88002586 -0.90781885 -1.0230833 -0.9055364 -1.1883993 -1.2729825 -1.1964875
-1.1005344 -0.9362872 -0.9800286 -0.39999753 -0.77178216 -1.0344435 -0.68643254 -0.38524222
-0.68161666 -0.7615064 -0.97600585 -0.50086766 -1.1282389 -1.202583 -1.383386 -0.9714507
-1.1710782 -1.2197477 -0.7473833 -0.85583127 -1.0290908 -0.41058394 -0.97139347 -0.9648044
-1.1992579 -1.0207961 -0.9778459 -0.8334324 -0.8862154 0.28777784 -0.7792096 -0.945006
-1.1044136 -1.0998387 -0.8282449 -1.6097745 -0.69369125 -0.7889613 -0.60078585 -0.48368096
-0.8449582 -1.0130349 -1.0615185 -1.4217633 -1.0645735 -1.2000737 -1.0083971 -1.1778163
00000000: 37c8 8ebf d80a 63bf 2957 68bf 0324 bfbf
00000010: 1a6f 6fbf bb5a 9bbf 037f 0dbf 228a 5fbf
00000020: 5232 8abf da5f 6fbf 35b0 18bf dfe4 98bf
00000030: 4dd0 133d 8c2f 75bf 3216 96be 8cc2 98bf
00000040: 6dbd 9fbe bcce 70bf bc82 98bf 77d2 95bf
00000050: 1caa 1bbf 72ad 78bf fcec 7dbf 3427 a0bf
00000060: f274 a9bc 2115 27bf b703 87bf fe8f a2bf
00000070: 2688 a0be 9691 66bf ae8d 1ebf 964f 97bf
00000080: 1c4f 4dbf a714 24bf ff60 83bf 98f0 79bf
00000090: 3dd7 aabd f67f a6bf 37a2 25bf cbbf 88bf
000000a0: ec75 27bf 7288 44bf 7622 8cbf e4aa 92bf
000000b0: 1ac7 f7be b743 76bf 4110 94bf 0b3c 62bf
000000c0: f351 81bf 7ac4 45bf ebdb 67bf 2d0c a9bf
000000d0: 57db 6ebf d68f e1be 27d2 94bf f97d 88bf
000000e0: ec72 533e b60c 69bf 162f 5ebf edc1 51bf
000000f0: ab72 b4bf cdc0 51bf 8821 8ebf 64c5 1cbf
00000100: 66ac 8abf b105 56bf 7cb7 62bf 1fa4 283d
00000110: 5408 33bf 93ca 98be 8b8a 92bf 6c0f 86bf
00000120: 7f67 68bf 20d5 91bf ad0f 8bbf 3423 6fbe
00000130: a262 a0bf 9a3d 74bf 9cbd 90bf 45c1 7dbf
00000140: 53cd 91bf 53f8 80bf 4cd9 8cbf 3daa 42bf
00000150: ae86 cebf 3106 79bf f219 9ebe daa4 7bbf
00000160: 9020 5cbf c2e6 42bf 9aba a3bf 1b6b 86bf
00000170: efc2 6a3f 2429 79bf 90c6 a1bf ed5c 0fbf
00000180: 9cae 23bf f0b2 d2be 28c7 55bf d93f a5be
00000190: f226 99bf 3d0c 51bf 94d4 acbf 377d 8dbf
000001a0: f599 9abf 1440 47bf 1261 92bf b64d 6ebf
000001b0: 7b9b 8ebf 4cc0 1fbf e1ee 9dbf 7e40 87bf
000001c0: 1764 0dbf c826 1cbf c2a7 89bf 6250 88bf
000001d0: 7944 b0bf 4f23 9abf fb92 28bf 6cbb 19bd
000001e0: 2c68 0fbf 41cc 98bf 47e9 3fbf 58b9 4abe
000001f0: 9923 15be be1c 86bf 8636 68be db1e e1bd
00000200: 6218 91bf b33e a4bf ba56 a0bf 6083 0ebf
00000210: c598 9dbf b95b 81bf 4cfd 3cbf 1698 88bf
00000220: 4ebc 37bf ccae a8bf 7e7a a8bf 2ac4 62bf
00000230: 7911 44bf d5e1 65bf b7a7 ec3e e30c acbe
00000240: c50b 65bf 3fd3 81bf abb6 2bbf 6578 99bf
00000250: 08d0 a7bf f363 94bf fdad 8abf d997 78bf
00000260: 33e8 c4be 5dbe 83bf c47d 9bbf c630 58bf
00000270: 1271 9ebf ad85 92bf 01b6 6abf 9a4f 3fbf
00000280: 6fc2 66bf 351a 60bf 7621 54bf 8f2e 76bf
00000290: b151 80bf 0a77 88bf efb7 3fbf e53a 3dbf
000002a0: d410 92bf 3bfc 62bf 8ac6 6dbf e6a0 3cbf
000002b0: 6f69 c3bf c477 5fbf 76fe 74bf 1db3 80bf
000002c0: dd39 94bf 1771 3dbf b9fd 0bbf 928b a0bf
000002d0: 6b8c 42bf b0be 8abf 23fb 95bf 7676 5cbf
000002e0: 6b1f 70bf 2744 6dbf dc88 adbf 59b2 35bf
000002f0: 7400 76bf e663 42bf 32e5 2ebf e4d8 64bf
00000300: fcd6 95bf 1971 b6bf 9e1c 1abf 2f1c 83bf
00000310: 99e0 afbe a96e 46bf ae44 30bf 69dd 1e3e
00000320: 0917 7ebf 6049 61bf d166 68bf 65f4 82bf
00000330: 3cd1 67bf 781d 98bf 17f1 a2bf 8126 99bf
00000340: 50de 8cbf 85b0 6fbf 28e3 7abf 7acc ccbe
00000350: 8493 45bf a568 84bf 0bba 2fbf 783e c5be
00000360: 6e7e 2ebf 15f2 42bf 85db 79bf dd38 00bf
00000370: 226a 90bf 3dee 99bf cb12 b1bf feb0 78bf
00000380: e4e5 95bf b120 9cbf 8354 3fbf c217 5bbf
00000390: 3fb9 83bf 0f38 d2be 3ead 78bf 6cfd 76bf
000003a0: 4881 99bf 72a9 82bf 1c54 7abf d35b 55bf
000003b0: 03df 62bf 9e57 933e 487a 47bf eaeb 71bf
000003c0: 6d5d 8dbf 84c7 8cbf dc07 54bf 170d cebf
000003d0: c095 31bf 5ef9 49bf 1acd 19bf 08a5 f7be
000003e0: 2e4f 58bf 21ab 81bf d7df 87bf 57fc b5bf
000003f0: f243 88bf 049c 99bf 2813 81bf afc2 96bf

seq.1.running_mean f4 [300]
1.3200424 -3.7246845 -2.9478834 -0.8953272 2.8007202 -3.1814823 -2.4186192 0.96924317
0.25654617 -5.7448297 -1.516336 -5.651882 -0.55053306 1.8827523 0.13286752 -2.0234625
-1.0133433 1.209341 -0.95050746 -3.374939 -0.23980735 -2.9943726 -3.9519348 -0.60371035
2.4826813 -0.69062054 -2.2034016 2.3086476 3.0713375 0.114059016 2.131923 -2.5162418
-1.6997048 -0.7124871 1.9673758 -2.271747 2.3700855 -2.5137875 2.2819936 -3.3163338
0.5640807 -1.2502 -0.17162272 0.73731184 -3.3200352 -0.2209016 -3.8053088 0.0038087533
-0.4928202 -0.8192063 -2.0615258 1.051946 1.943617 1.4465297 1.731281 0.034423873
0.96191704 1.6896119 -0.09861739 0.7468509 -3.67602 -0.6997039 -1.4113456 3.1723168
-6.566855 1.340237 0.13706216 2.3788328 -0.6684531 -0.3265268 0.61707604 0.4039414
-0.3295029 -2.9281056 -2.019658 0.44989002 0.98010916 2.669049 -1.5658001 -0.8561654
-2.0189261 0.3372898 -0.97692084 -1.2858936 -1.2599937 0.76618105 -1.3062919 0.5387869
0.44372648 1.3117816 -1.0500603 -2.9903932 0.024714204 2.098687 -2.4352012 -0.4724937
4.843769 0.6551886 -3.6937704 -3.813481 2.947698 -0.3453334 3.574783 2.4957442
-2.2917352 -0.039275773 1.665018 -5.796588 -0.727766 -0.4246665 0.14584157 1.9122697
-0.7467388 1.7074867 -1.2630266 -0.81101507 -3.0645351 -1.567643 2.0969343 0.38294357
1.6834575 -1.1395313 0.33422408 -2.9365149 -0.4382296 -1.6755048 -0.30769628 -1.6334795
0.832564 -7.1428943 -2.2128997 -0.71348715 0.07284047 1.4123049 -3.960558 -1.3501776
-2.7254035 -2.0672355 -4.0542517 -2.3716586 0.48970056 -1.2425408 0.46732137 1.1468139
0.94565874 1.8907208 -1.7274956 -5.116613 -1.2651651 1.9825164 0.98427194 -0.9100872
1.6545491 -5.684012 -3.822858 0.5693071 1.2522179 -0.45102265 0.3472747 1.8905411
0.07082888 2.1041927 -1.2113518 -0.6057383 -2.459377 0.46089378 -0.32523167 0.9659941
0.0054876185 -0.74986076 0.21181642 0.22296862 -2.5055423 2.6225564 4.271238 -1.271061
-1.0087148 -0.36450106 -1.1355116 -4.8593817 1.3459418 -2.9938655 -1.2888951 -0.04703637
2.2197754 0.49601305 -2.5531802 3.3065374 -3.2386034 2.8270369 -2.0380673 -0.88230115
-0.23071797 -0.87500083 2.525178 -7.5542264 3.3990145 5.515594 2.149476 2.056546
-0.96363497 -0.24050763 -0.82694536 -1.9384371 0.9859112 -2.8012354 -3.8882093 -0.41684067
0.80478555 -0.3233924 4.355247 3.8817027 -1.9594146 -0.009063631 0.7565119 1.4877946
1.2473719 -2.3395085 0.11212467 1.8316516 -3.161418 1.1819634 -0.35794124 0.3166631
-5.425871 -1.0441003 0.19457649 -3.1100526 -1.1898417 0.9369707 1.3939717 -0.016282195
-0.6764582 0.97694194 -0.5352404 -2.2313702 3.5049658 1.335059 -1.030601 -0.8228328
2.4099965 -2.8464525 0.32845348 -4.2958803 -0.49075556 -2.6867876 1.0056221 -3.607302
-0.47982585 -3.875897 -4.6177773 -4.486756 2.2218804 -3.0634413 2.7886274 -1.5152729
00000000: 26f7 a83f 3b61 6ec0 1faa 3cc0 2a34 65bf
00000010: 003f 3340 689d 4bc0 a8ca 1ac0 5220 783f
00000020: 055a 833e a5d5 b7c0 4c17 c2bf 38dc b4c0
00000030: bcef 0cbf 07fe f03f 6c0e 083e 6980 01c0
00000040: 3cb5 81bf b0cb 9a3f 7554 73bf 00ff 57c0
00000050: 0f90 75be cda3 3fc0 80ec 7cc0 c38c 1abf
00000060: 40e4 1e40 82cc 30bf 8804 0dc0 e2c0 1340
00000070: cb90 4440 c697 e93d 6d71 0840 1b0a 21c0
00000080: ed8f d9bf 8e65 36bf f8d2 fb3f 4e64 11c0
00000090: 7baf 1740 e5e1 20c0 2f0c 1240 d03e 54c0
000000a0: 9867 103f 8e06 a0bf debd 2fbe 78c0 3c3f
000000b0: 757b 54c0 0734 62be 2e8a 73c0 479c 793b
000000c0: ee52 fcbe 81b7 51bf 0af0 03c0 2ba6 863f
000000d0: 71c8 f83f e327 b93f 9e9a dd3f 0c00 0d3d
000000e0: 3240 763f 3445 d83f eaf7 c9bd 9f31 3f3f
000000f0: e943 6bc0 cb1f 33bf f9a6 b4bf 3d07 4b40
00000100: ad23 d2c0 e38c ab3f 065a 0c3e cc3e 1840
00000110: be1f 2bbf 852e a7be b2f8 1d3f 68d1 ce3e
00000120: 9bb4 a8be 1566 3bc0 1442 01c0 fc57 e63e
00000130: 6fe8 7a3f b3d1 2a40 236c c8bf a82d 5bbf
00000140: 1636 01c0 40b1 ac3e 7c17 7abf 2998 a4bf
00000150: 7947 a1bf 7124 443f 9334 a7bf f0ed 093f
00000160: 1e30 e33e 76e8 a73f 6068 86bf 9a62 3fc0
00000170: 7175 ca3c e350 0640 56da 1bc0 b2ea f1be
00000180: 2800 9b40 71ba 273f bc66 6cc0 1310 74c0
00000190: 16a7 3c40 8acf b0be 3fc9 6440 46ba 1f40
000001a0: caab 12c0 a2df 20bd 4f1f d53f a67d b9c0
000001b0: df4e 3abf e36d d9be 7e57 153e 41c5 f43f
000001c0: 462a 3fbf ed8e da3f dbaa a1bf af9e 4fbf
000001d0: 5821 44c0 87a8 c8bf 2c34 0640 2e11 c43e
000001e0: 897b d73f 29dc 91bf 6b1f ab3e dcef 3bc0
000001f0: a15f e0be f176 d6bf 5e8a 9dbe db15 d1bf
00000200: ea22 553f 9792 e4c0 26a0 0dc0 18a7 36bf
00000210: 622d 953d 68c6 b43f c879 7dc0 9fd2 acbf
00000220: 036d 2ec0 964d 04c0 6ebc 81c0 41c9 17c0
00000230: 08ba fa3e 940b 9fbf bf44 ef3e ccca 923f
00000240: b116 723f 2403 f23f 931e ddbf 4bbb a3c0
00000250: eef0 a1bf 19c3 fd3f 3ff9 7b3f 7afb 68bf
00000260: 44c8 d33f 6de3 b5c0 b5a9 74c0 1cbe 113f
00000270: ad48 a03f 71ec e6be fdcd b13e 40fd f13f
00000280: bb0e 913d 18ab 0640 930d 9bbf aa11 1bbf
00000290: 6f66 1dc0 45fa eb3e c484 a6be 644b 773f
000002a0: 7bd1 b33b e0f6 3fbf 67e6 583e e351 643e
000002b0: ce5a 20c0 f7d7 2740 fbad 8840 20b2 a2bf
000002c0: 911d 81bf e29f babe 7258 91bf 0e80 9bc0
000002d0: d247 ac3f 7e9b 3fc0 84fa a4bf 35a9 40bd
000002e0: cd10 0e40 6cf5 fd3e 4e67 23c0 4f9e 5340
000002f0: 4745 4fc0 2cee 3440 b26f 02c0 7dde 61bf
00000300: 5541 6cbe 0e00 60bf 849c 2140 39bc f1c0
00000310: 7489 5940 bf7f b040 0491 0940 739e 0340
00000320: c8b0 76bf a247 76be b1b2 53bf b51e f8bf
00000330: ad64 7c3f 7147 33c0 6cd8 78c0 246c d5be
00000340: 6d06 4e3f b093 a5be 2f5e 8b40 d16d 7840
00000350: 19ce fabf a07f 14bc c4aa 413f 0e70 be3f
00000360: e2a9 9f3f 82ba 15c0 9ea1 e53d 8f73 ea3f
00000370: ac54 4ac0 944a 973f 1344 b7be aa21 a23e
00000380: bca0 adc0 14a5 85bf 0f3f 473e 1a0b 47c0
00000390: bc4c 98bf 50dd 6f3f aa6d b23f 3d62 85bc
000003a0: 5d2c 2dbf de18 7a3f 8405 09bf c5ce 0ec0
000003b0: 5c51 6040 37e3 aa3f bcea 83bf 2ca5 52bf
000003c0: 623d 1a40 472c 36c0 0e2b a83e da77 89c0
000003d0: 5044 fbbe 54f4 2bc0 3ab8 803f 09de 66c0
000003e0: bcab f5be b20e 78c0 d5c4 93c0 8193 8fc0
000003f0: 4a33 0e40 6c0f 44c0 df78 3240 76f4 c1bf

seq.1.running_var f4 [300]
27.909489 27.194178 12.72741 15.572586 26.09344 11.351279 10.472499 5.6296287
10.460785 38.44195 13.410814 17.596846 15.665416 8.0312805 9.546145 19.785316
4.714547 13.853243 10.899757 26.747126 29.927229 35.992386 15.237152 19.531631
5.830968 10.3663025 23.000551 8.867667 34.083035 11.160671 25.307941 32.27202
9.95521 10.240399 16.60243 7.192538 23.944056 8.688407 12.084058 15.943434
12.00583 11.373585 8.339836 61.88424 12.342112 17.983473 22.850239 9.67862
8.336365 11.302546 11.362121 32.656487 42.99388 5.5319614 7.793166 6.9866343
1.823985 78.16805 8.273021 23.364481 15.508734 22.553837 5.3910646 18.80683
14.338113 26.983833 23.887619 6.79464 13.289727 8.761242 5.35162 5.4044995
10.325455 18.525116 61.24341 27.202707 4.5309567 42.811836 10.439278 9.003844
11.370872 35.406727 8.479762 27.925539 4.704228 10.059159 10.932698 31.969975
12.925026 26.787605 69.14016 20.102097 1.7876973 35.36223 9.959798 2.2267914
24.728882 20.257973 20.267437 9.287419 5.856626 26.073582 13.577943 23.72284
8.02678 5.906062 16.417685 19.534086 10.101646 3.1394079 7.2732205 22.69317
72.7215 16.853903 16.757648 16.484962 9.80226 10.81537 19.769766 17.098595
41.86335 13.343036 16.968342 28.329834 7.364988 28.385761 11.225449 5.7113905
64.63449 9.429721 24.280039 7.5084023 21.966997 6.619516 18.800852 26.450766
6.7165484 11.408958 7.9838724 12.46773 13.586184 17.560202 1.9353156 13.034278
65.59943 7.1899424 10.781673 18.252924 2.4321287 18.063686 47.754833 14.229806
4.309944 30.620893 47.658783 10.169297 19.82502 10.344827 22.39316 33.49778
11.800887 17.41513 4.01447 50.672077 17.200155 14.106676 25.55949 4.8080306
22.467417 44.639004 17.366196 39.983856 24.618809 12.161872 6.967649 23.629305
27.314154 58.199436 15.422111 43.951775 30.102034 26.307228 35.66357 3.3940158
52.449486 22.116829 13.000003 5.6288333 26.879295 20.917356 13.850667 9.457964
7.45485 18.865795 21.29465 7.4009914 5.834244 29.11844 26.828255 26.600096
5.731563 24.22168 44.638454 17.467701 7.9772334 16.019245 8.639661 25.011662
27.41579 3.4081516 8.416012 22.038637 13.802078 4.752668 11.346074 7.4980426
6.347973 18.15397 7.3127775 26.316578 16.540956 19.20196 0.6570511 11.362349
55.063732 10.805679 13.968275 24.718801 1.0309765 16.994743 29.332994 10.894988
10.239262 5.574084 50.898567 31.274319 24.0997 9.8598175 28.91463 22.977903
55.434715 31.139215 3.0917265 16.126328 26.169601 4.174735 11.683911 48.990208
15.4483 32.46632 40.721558 10.29706 15.847849 21.938797 28.220118 6.266722
00000000: a246 df41 ad8d d941 79a3 4b41 5029 7941
00000010: 5dbf d041 d79e 3541 5b8f 2741 eb25 b440
00000020: 605f 2741 8fc4 1942 b292 5641 57c6 8c41
00000030: 8ba5 7a41 2080 0041 03bd 1841 5448 9e41
00000040: 92dd 9640 e2a6 5d41 6865 2e41 1dfa d541
00000050: f76a ef41 34f8 0f42 60cb 7341 c840 9c41
00000060: 4a97 ba40 60dc 2541 2101 b841 f7e1 0d41
00000070: 0755 0842 1c92 3241 aa76 ca41 8c16 0142
00000080: 8a48 1f41 add8 2341 c7d1 8441 4529 e640
00000090: 6d8d bf41 b703 0b41 4d58 4141 4e18 7f41
000000a0: e117 4041 34fa 3541 f86f 0541 7689 7742
000000b0: 4a79 4541 27de 8f41 4acd b641 a1db 1a41
000000c0: c061 0541 3ad7 3441 3fcb 3541 3ea0 0242
000000d0: bcf9 2b42 d405 b140 9e61 f940 8292 df40
000000e0: 5778 e93f 0b56 9c42 4b5e 0441 75ea ba41
000000f0: c623 7841 426e b441 9a83 ac40 6374 9641
00000100: e968 6541 e4de d741 d819 bf41 b16d d940
00000110: b9a2 5441 0c2e 0c41 7940 ab40 a9f1 ac40
00000120: 1035 2541 7033 9441 40f9 7442 259f d941
00000130: 99fd 9040 523f 2b42 4807 2741 bf0f 1041
00000140: 17ef 3541 7da0 0d42 1bad 0741 8167 df41
00000150: 0989 9640 51f2 2041 55ec 2e41 82c2 ff41
00000160: e8cc 4e41 044d d641 c347 8a42 18d1 a041
00000170: 44d3 e43f ec72 0d42 555b 1f41 c083 0e40
00000180: c0d4 c541 5410 a241 b623 a241 4599 1441
00000190: 7b69 bb40 b296 d041 413f 5941 60c8 bd41
000001a0: b16d 0041 76fe bc40 6b57 8341 cf45 9c41
000001b0: 58a0 2141 0fec 4840 39be e840 9d8b b541
000001c0: 6871 9142 cbd4 8641 aa0f 8641 34e1 8341
000001d0: 0fd6 1c41 c10b 2d41 7b28 9e41 ecc9 8841
000001e0: 1274 2742 137d 5541 2abf 8741 80a3 e241
000001f0: fbad eb40 0a16 e341 709b 3341 b6c3 b640
00000200: dc44 8142 23e0 1641 853d c241 d544 f040
00000210: 69bc af41 13d3 d340 2568 9641 2b9b d341
00000220: f7ed d640 188b 3641 e27b ff40 d27b 4741
00000230: 0261 5941 4b7b 8c41 6cb8 f73f 678c 5041
00000240: e832 8342 0214 e640 bc81 2c41 fd05 9241
00000250: ffa7 1b40 6e82 9041 f304 3f42 49ad 6341
00000260: 10eb 8940 97f7 f441 98a2 3e42 71b5 2241
00000270: a499 9e41 6984 2541 3125 b341 bafd 0542
00000280: 6fd0 3c41 3052 8b41 8a76 8040 35b0 4a42
00000290: eb99 8941 f2b4 6141 d679 cc41 63db 9940
000002a0: 45bd b341 578e 3242 f8ed 8a41 78ef 1f42
000002b0: 52f3 c441 0797 4241 fbf6 de40 d108 bd41
000002c0: 6383 da41 39cc 6842 f7c0 7641 9ece 2f42
000002d0: f7d0 f041 3475 d241 7fa7 0e42 8e37 5940
000002e0: 46cc 5142 44ef b041 0300 5041 671f b440
000002f0: cc08 d741 bf56 a741 559c 5d41 d253 1741
00000300: 228e ee40 26ed 9641 715b aa41 ecd4 ec40
00000310: 20b2 ba40 91f2 e841 44a0 d641 ffcc d441
00000320: f768 b740 00c6 c141 c78d 3242 dabd 8b41
00000330: 7f45 ff40 6a27 8041 0d3c 0a41 e217 c841
00000340: 8a53 db41 281f 5a40 fca7 0641 214f b041
00000350: 50d5 5c41 db15 9840 8589 3541 f7ef ef40
00000360: 9822 cb40 553b 9141 4602 ea40 5a88 d241
00000370: e153 8441 9d9d 9941 8034 283f 2ecc 3541
00000380: 4341 5c42 10e4 2c41 0e7e 5f41 1bc0 c541
00000390: 0af7 833f 3cf5 8741 f9a9 ea41 df51 2e41
000003a0: 04d4 2341 e55e b240 2298 4b42 ce31 fa41
000003b0: 30cc c041 d0c1 1d41 2a51 e741 bfd2 b741
000003c0: 26bd 5d42 1d1d f941 d9de 4540 b802 8141
000003d0: 585b d141 6e97 8540 4df1 3a41 f9f5 4342
000003e0: 3d2c 7741 83dd 0142 e0e2 2242 c2c0 2441
000003f0: ca90 7d41 a882 af41 cdc2 e141 fd88 c840

seq.3.weight f4 [400, 300]
-0.5650934 -0.7744875 -0.8003963 -0.7743313 -0.68003106 -0.09738322 0.119550854 -0.031536877
-1.6266671 0.4958558 -0.08500615 -0.08759232 -0.41502243 -0.52597654 -0.09144736 0.13143305
-0.85754144 -0.10595447 -0.053096216 -0.21969274 -0.18222143 0.1836284 0.27037516 0.19113342
-0.260823 -0.5105725 -0.6541751 -0.32460836 -0.25040182 0.7682433 -0.10849171 -0.7392445
0.028137079 -0.5527836 0.08527213 -0.1881019 0.3029501 0.0015420166 -0.659077 -0.30765897
0.011650191 -0.45491564 -0.08936484 0.2647544 -0.59133786 -0.43196225 0.033711884 -0.485555
-0.5463936 0.084922716 -0.60718244 0.2458912 -0.3075808 -0.2759141 -0.25993398 -0.54593724
-0.15492159 -0.15524754 -1.0703678 0.50225824 -0.16950348 -0.2762487 -0.45250317 -0.014888405
0.30498883 0.11029998 0.44079986 -0.19162951 -0.4106335 -1.3258685 -0.9795701 -1.6836745
0.48513016 -0.2965713 0.421281 -0.23396628 0.24959081 -0.22599824 -0.29328838 -0.21244463
-0.27139294 0.22185948 -0.12652841 -0.76564115 -0.3035385 0.3431028 -0.26728567 -0.03042475
0.048615217 -0.43154547 -0.518637 -0.21551703 0.3984178 -0.017443798 -0.060433168 -1.3386782
-0.018458394 -0.636178 0.07838751 0.38122943 0.21991564 -0.7071562 -0.31311712 0.30271208
-0.20083447 0.4719286 -0.2197723 -0.18603046 0.42326096 0.25250453 0.08616675 -0.06554578
-0.7565507 -0.36142135 0.31360233 -0.13360168 -0.3794732 -0.2285033 -0.16143514 0.2242782
-0.85183436 0.12645689 0.24203184 -0.28783485 -0.70873094 0.606304 -0.24603572 -0.60151005
0.25254625 0.17216983 -0.056120083 0.5479587 0.5969981 0.5679294 -0.17263559 -0.8114494
-0.34701595 0.576837 -0.4178427 -0.022960935 0.2045957 -0.57878786 0.16922149 -0.5852167
0.3435726 -0.41382894 0.13573483 -0.72609895 -0.42946392 -0.50750625 -0.04131081 -0.24319082
0.06422902 -0.5761708 -0.39098582 -0.5812735 0.2816024 0.065022424 -0.031346153 -0.7744466
0.32859263 0.18017346 0.38804838 0.45648935 0.12412815 0.6679912 0.1608072 0.101127334
-0.47453997 1.1080548 0.06308207 -0.53063685 -0.5263126 -0.19762716 0.6654617 -0.51984406
0.2291794 0.4498746 -0.089772694 -0.46387666 0.43763506 0.24777701 0.40817708 0.3971614
-0.3336863 -0.22115178 -0.737879 -0.22149183 -0.025251733 -0.42073652 -0.5503888 0.580247
-0.66424245 -0.6637066 -0.5795469 -0.40296355 0.3850607 0.004294857 -0.16492358 -0.6392333
-0.06932687 -0.45664817 0.14265314 -0.7155457 0.5200787 -0.18640809 -0.35976282 -1.1807524
-0.42047188 -0.8709354 0.08227208 0.14946361 -0.03475177 0.120900966 -0.5433134 -0.75916564
-0.68972343 -0.012535768 0.57609516 0.31630284 -0.6743643 -0.9002399 -0.12980446 -0.50917834
-0.15113287 -0.34423554 -0.53753567 -0.4210571 -0.22892652 -0.40130112 0.04325065 0.4428212
-0.21116017 -0.058931313 -0.042142615 -0.085912354 0.548957 0.19289772 -0.228834 -0.39004758
-0.48169816 0.19807671 0.41129845 0.22990473 -0.036896575 0.04706976 -0.17900252 -0.11904159
-0.05347648 -0.6025019 -0.064599216 -0.2332389 0.03638774 -0.629472 0.105818495 -0.9039107
00000000: f6a9 10bf d044 46bf c6e6 4cbf 933a 46bf
00000010: 8416 2ebf db70 c7bd 14d7 f43d d02c 01bd
00000020: a136 d0bf d0e0 fd3e b417 aebd 9a63 b3bd
00000030: d27d d4be 66a6 06bf c148 bbbd 6396 063e
00000040: d687 5bbf a8fe d8bd 6b7b 59bd 22f7 60be
00000050: 4198 3abe 1509 3c3e 9d6e 8a3e 7bb8 433e
00000060: 988a 85be e1b4 02bf 0578 27bf 1133 a6be
00000070: ab34 80be 98ab 443f e730 debd 213f 3dbf
00000080: bb7f e63c 3a83 0dbf 28a3 ae3d c99d 40be
00000090: 471c 9b3e 7e1d ca3a 45b9 28bf 7a85 9dbe
000000a0: 71e0 3e3c b4ea e8be ea04 b7bd e48d 873e
000000b0: eb61 17bf 282a ddbe 7915 0a3d aa9a f8be
000000c0: 73e0 0bbf f6eb ad3d 4f70 1bbf e7ca 7b3e
000000d0: 3b7b 9dbe 9d44 8dbe 1116 85be 8bc2 0bbf
000000e0: c4a3 1ebe 36f9 1ebe d001 89bf ff93 003f
000000f0: 5292 2dbe 7870 8dbe 7fae e7be 7fee 73bc
00000100: 7f27 9c3e f5e4 e13d 85b0 e13e 873a 44be
00000110: 8e3e d2be 0fb6 a9bf 1bc5 7abf a582 d7bf
00000120: fb62 f83e 32d8 97be 25b2 d73e db94 6fbe
00000130: bc94 7f3e 156c 67be e529 96be 168b 59be
00000140: 04f4 8abe 222f 633e aa90 01be 0f01 44bf
00000150: 6669 9bbe 2cab af3e abd9 88be 533d f9bc
00000160: c020 473d 87f3 dcbe 65c5 04bf 7fb0 5cbe
00000170: 6bfd cb3e 4ce6 8ebc c588 77bd cf59 abbf
00000180: 0f36 97bc 90dc 22bf a189 a03d 8130 c33e
00000190: 9131 613e 3008 35bf e350 a0be 14fd 9a3e
000001a0: 8da7 4dbe a0a0 f13e fd0b 61be c57e 3ebe
000001b0: a9b5 d83e 4648 813e 3178 b03d de3c 86bd
000001c0: 4fad 41bf 380c b9be 7c90 a03e e1ce 08be
000001d0: 504a c2be c5fc 69be 414f 25be 2fa9 653e
000001e0: d111 5abf ea7d 013e 32d7 773e 175f 93be
000001f0: 646f 35bf bd36 1b3f caf0 7bbe 90fc 19bf
00000200: be4d 813e 4a4d 303e 2cde 65bd 0547 0c3f
00000210: ded4 183f d263 113f 62c7 30be 26bb 4fbf
00000220: 13ac b1be 97ab 133f 7aef d5be 9218 bcbc
00000230: 8981 513e 712b 14bf 6648 2d3e c3d0 15bf
00000240: bfe8 af3e 63e1 d3be 12fe 0a3e 9fe1 39bf
00000250: b2e2 dbbe eeeb 01bf 8635 29bd 0407 79be
00000260: 818a 833d ee7f 13bf 4b2f c8be 57ce 14bf
00000270: 312e 903e 7a2a 853d d364 00bd 2242 46bf
00000280: 4b3d a83e 647f 383e 47ae c63e f9b8 e93e
00000290: e636 fe3d 7901 2b3f a5aa 243e d91b cf3d
000002a0: e7f6 f2be bdd4 8d3f 2c31 813d d1d7 07bf
000002b0: 6cbc 06bf c65e 4abe b35b 2a3f 8014 05bf
000002c0: 01ae 6a3e f755 e63e bfda b7bd 3e81 edbe
000002d0: b411 e03e 42b9 7d3e 96fc d03e bd58 cb3e
000002e0: eed8 aabe 9d75 62be a3e5 3cbf c1ce 62be
000002f0: b9dc cebc c76a d7be 48e6 0cbf 118b 143f
00000300: cb0b 2abf ade8 29bf 305d 14bf 3d51 cebe
00000310: ad26 c53e dfbb 8c3b bae1 28be cba4 23bf
00000320: 3ffb 8dbd cacd e9be aa13 123e 012e 37bf
00000330: e123 053f c3e1 3ebe d532 b8be e522 97bf
00000340: 1748 d7be 9ff5 5ebf 447e a83d fd0c 193e
00000350: df57 0ebd ed9a f73d 9616 0bbf ae58 42bf
00000360: b791 30bf d262 4dbc f97a 133f 72f2 a13e
00000370: 24a3 2cbf 1f76 66bf 76eb 04be 8359 02bf
00000380: 93c2 1abe a43f b0be f09b 09bf cc94 d7be
00000390: b76b 6abe 5777 cdbe 9827 313d 76b9 e23e
000003a0: 5f3a 58be f661 71bd bc9d 2cbd d1f2 afbd
000003b0: 7288 0c3f fb86 453e 7653 6abe 51b4 c7be
000003c0: 24a1 f6be 9fd4 4a3e b695 d23e 256c 6b3e
000003d0: dd20 17bd 38cc 403d 704c 37be 14cc f3bd
000003e0: 270a 5bbd 913d 1abf 984c 84bd 2ed6 6ebe
000003f0: 500b 153d 1425 21bf 5eb7 d83d b166 67bf

seq.3.bias f4 [400]
0.32711998 0.01866009 -0.6352652 -1.1278021 0.03184186 -0.013984439 -1.1563296 -0.14722764
-0.20318384 -0.2202734 -0.0821386 -0.36097297 -0.79026806 -0.25382724 -0.5131796 0.3048814
-0.17805316 -0.5329229 -0.43847564 -0.78262687 -0.3942809 -0.17881334 -0.84456974 -0.74812627
-0.0725917 0.16483766 -0.15225878 -0.57840854 0.028519964 -0.1737929 0.47754675 -1.0524172
-0.17027989 0.37774637 -0.11806194 -0.0030985614 -0.6300814 -0.15526211 -0.5629191 -0.15190856
-0.10692872 -0.11564875 -0.14035437 -0.19031204 -0.18706459 -1.5795208 -0.4510272 -0.68339676
-0.8754444 -0.15675697 -0.3404381 -0.38997903 -0.92426187 -1.1906911 0.1191774 -0.08779657
-0.44514892 -0.9927631 -0.39507967 -0.7186695 0.11544284 -0.81320065 -0.469193 -0.5284083
0.026213342 -0.6514334 -0.054259427 -0.6113692 -1.1299425 -0.19902265 -0.12871334 -0.5553359
-0.036082763 0.11220317 -0.1054006 -0.21146868 -0.39466104 0.08163071 -0.32532725 -0.44569203
-0.37384614 -0.22904891 -0.33324093 -0.27054384 -0.4114433 0.20134383 -0.1579663 -0.70488524
-1.1078079 -0.47542998 -0.14854966 -0.7413603 -0.23469931 -0.80112743 0.23578785 -0.8481975
-0.9051107 -0.20616034 -0.3659308 0.12647618 -0.57367384 0.51972216 -0.14616127 -0.089314125
-0.35271642 -0.46367142 0.120957874 0.4602586 -0.11333395 -0.2145225 -0.99345434 -0.17795633
-0.6187455 -0.07851757 -0.65318674 -0.011751787 -0.1409243 0.21191995 -0.247519 -0.3177535
-0.31268 -0.107708745 0.25517178 -0.07175458 0.0050281417 -0.48624966 -1.0215437 -0.57173425
-0.84435296 -0.1292896 -0.1058382 -0.8449454 -0.24536096 -0.27617276 -0.06921623 -0.14414524
-1.1517857 -0.34751758 -0.48339134 -0.23482785 -0.97445434 -0.6705394 -0.0689523 -0.45766282
-0.463851 -0.06952561 -0.2937552 -0.29548958 -0.61180073 -0.1649227 -0.2198461 -0.1944425
-0.13965608 -1.1030617 -0.485896 -0.1086829 -0.84129703 -0.105724715 -0.7934609 0.11503206
-0.18668115 -0.7405847 -0.6485218 -0.1206573 -0.3687377 -0.13461408 -0.30117872 -0.41277537
0.00075662776 -0.107379325 0.014838112 0.23267168 -0.2315558 -0.60953474 -0.7872559 -0.45637137
-0.13265511 -0.6551223 0.090762764 -0.6477716 -0.14762104 0.016479038 -0.19137329 -0.84295875
-0.018436117 -0.604381 0.0004824936 0.35871148 -0.16879368 -0.9077997 -0.08480013 -0.1426903
-0.23997481 -0.5975367 -0.28205776 -0.8757854 -0.48940814 -1.3241552 -0.15203324 -0.20812972
-0.035549436 -0.8375643 -1.1010916 -0.4570395 -0.63956743 -1.1285622 0.05389649 -0.58555007
-0.93074626 0.044426367 -0.06977213 0.3908231 -0.41951984 0.16678573 -0.40045872 -0.9702323
0.04365258 -0.12225676 -1.0467987 0.08674389 0.2909974 -0.15574053 -0.17411877 -0.0780171
-0.345422 -1.0272359 -0.12692127 -0.51796806 -0.13432477 0.20967196 -0.76158756 -0.13829967
-0.4142754 -0.20036307 -0.8191961 -0.317955 -0.058663428 -0.18137887 -0.04874377 -0.13950668
-0.3376838 -0.3521052 -0.7483443 0.38043696 -0.3978212 -1.0749424 -0.059032585 -0.053142056
-0.12137957 -0.16698176 -0.23224613 -0.7465974 0.13721341 -0.4220326 -0.76096994 -0.99830896
00000000: 457c a73e 0cdd 983c bda0 22bf d25b 90bf
00000010: 9c6c 023d fd1e 65bc 9c02 94bf d8c2 16be
00000020: 6d0f 50be 5a8f 61be 4838 a8bd 73d1 b8be
00000030: 024f 4abf a5f5 81be bd5f 03bf 6a19 9c3e
00000040: 9153 36be a36d 08bf e17f e0be 3c5a 48bf
00000050: 30df c9be d81a 37be b935 58bf 3485 3fbf
00000060: f5aa 94bd 34cb 283e bae9 1bbe 9512 14bf
00000070: b3a2 e93c c4f6 31be 0281 f43e 9bb5 86bf
00000080: da5d 2ebe f967 c13e 75ca f1bd 3c11 4bbb
00000090: 044d 21bf 08fd 1ebe 771b 10bf eb8d 1bbe
000000a0: 72fd dabd 40d9 ecbd 0eb9 0fbe 29e1 42be
000000b0: dc8d 3fbe bd2d cabf 0aed e6be 17f3 2ebf
000000c0: 201d 60bf e684 20be e74d aebe 55ab c7be
000000d0: 6d9c 6cbf 9168 98bf 4813 f43d b0ce b3bd
000000e0: 8fea e3be b925 7ebf e247 cabe b9fa 37bf
000000f0: 4c6d ec3d eb2d 50bf 113a f0be c445 07bf
00000100: 5dbd d63c 57c4 26bf 223f 5ebd b182 1cbf
00000110: f5a1 90bf 98cc 4bbe 6ecd 03be 7e2a 0ebf
00000120: 85cb 13bd c7ca e53d 45dc d7bd 3f8b 58be
00000130: 0311 cabe 002e a73d 4b91 a6be bf31 e4be
00000140: c368 bfbe cc8b 6abe 8e9e aabe b984 8abe
00000150: b2a8 d2be 142d 4e3e ebc1 21be 5c73 34bf
00000160: a6cc 8dbf 8f6b f3be 671d 18be cac9 3dbf
00000170: 0455 70be b016 4dbf 5f72 713e 7923 59bf
00000180: 56b5 67bf b21b 53be 485b bbbe f982 013e
00000190: 4adc 12bf 830c 053f 4dab 15be 53ea b6bd
000001a0: 3f97 b4be 5766 edbe c3b8 f73d 04a7 eb3e
000001b0: a11b e8bd c9ab 5bbe 0653 7ebf 2f3a 36be
000001c0: 1b66 1ebf d2cd a0bd 3f37 27bf 918a 40bc
000001d0: 764e 10be 8b01 593e 9f75 7dbe 96b0 a2be
000001e0: 9817 a0be 6796 dcbd e0a5 823e 11f4 92bd
000001f0: 1cc3 a43b b7f5 f8be f2c1 82bf 2d5d 12bf
00000200: 8427 58bf 7e64 04be b3c1 d8bd 574e 58bf
00000210: e73f 7bbe 8466 8dbe 3dc1 8dbd cf9a 13be
00000220: b76d 93bf d3ed b1be 127f f7be b676 70be
00000230: d775 79bf 78a8 2bbf dd36 8dbd c852 eabe
00000240: e17d edbe 7163 8ebd 1567 96be 694a 97be
00000250: f99e 1cbf 7fe1 28be 561f 61be ef1b 47be
00000260: 0102 0fbe 2031 8dbf 5cc7 f8be 2495 debd
00000270: 3e5f 57bf 3386 d8bd 4120 4bbf ee95 eb3d
00000280: 5829 3fbe f596 3dbf 8605 26bf 2d1b f7bd
00000290: 30cb bcbe 46d8 09be 1934 9abe 4b57 d3be
000002a0: 6e58 463a b1e9 dbbd 8d1b 733c 7c41 6e3e
000002b0: f71c 6dbe 780a 1cbf 9a89 49bf 82a9 e9be
000002c0: bed6 07be 18b6 27bf d4e1 b93d 5cd4 25bf
000002d0: f829 17be 0cff 863c 5cf7 43be 25cc 57bf
000002e0: 5707 97bc b7b8 1abf 32f7 fc39 08a9 b73e
000002f0: 40d8 2cbe 9065 68bf b1ab adbd 681d 12be
00000300: f5bb 75be 2af8 18bf e069 90be 7933 60bf
00000310: b493 fabe eb7d a9bf 9aae 1bbe f51f 55be
00000320: 499c 11bd 9d6a 56bf 92f0 8cbf 1501 eabe
00000330: b1ba 23bf ba74 90bf 91c2 5c3d 9ce6 15bf
00000340: 6345 6ebf 6cf8 353d b1e4 8ebd f719 c83e
00000350: 4ecb d6be e1c9 2a3e ed08 cdbe 2561 78bf
00000360: 0ccd 323d c161 fabd 80fd 85bf c8a6 b13d
00000370: 9cfd 943e 727a 1fbe 314c 32be 6ec7 9fbd
00000380: 27db b0be 777c 83bf a6f7 01be 8e99 04bf
00000390: 6f8c 09be 3fb4 563e 67f7 42bf 6e9e 0dbe
000003a0: e81b d4be fa2b 4dbe d6b6 51bf ffca a2be
000003b0: 1049 70bd 62bb 39be 8ca7 47bd d7da 0ebe
000003c0: e4e4 acbe 2247 b4be 7e93 3fbf a2c8 c23e
000003d0: 38af cbbe b697 89bf 27cc 71bd 7cab 59bd
000003e0: da95 f8bd 44fd 2abe eed1 6dbe 0221 3fbf
000003f0: ac81 0c3e a814 d8be edce 42bf 2d91 7fbf
