checkpoint_critic_normal.pth (torch, 538372 bytes, 9 tensors)

seq1.0.weight f4 [300, 33]
-0.4998056 -1.1031992 0.1269963 0.724885 -0.3893828 0.14909871 -0.26130795 -0.13753915
0.1752059 -0.00517114 0.04114045 -0.20230493 0.008961302 -0.1484943 0.8496125 -0.12644921
0.05223309 -0.0014688302 -0.14534016 -0.14188404 -0.08115069 0.0033770353 -0.1252224 0.30133167
0.11690277 0.042856537 0.8884407 -0.02495662 0.20512453 -0.02610138 -0.012693374 0.04793644
0.7681726 0.45093644 0.015508028 0.2425267 0.01828955 0.32371596 0.33828285 -0.06383554
0.13416746 0.38427326 -0.019048069 0.3223356 0.16078708 -0.07061563 0.5176357 0.508494
-0.5263508 0.933079 0.50700146 0.1386886 0.3027756 0.03827023 -0.25884008 0.11795419
0.108646855 0.15744716 -0.2024666 -0.7118976 0.029070046 0.10205591 0.018847153 0.040628992
-0.0027282499 0.11817322 -1.2327876 0.72481877 -0.52779275 -0.16113438 -0.47191978 -0.08426378
0.02645651 0.16476843 -0.37643102 -0.7026416 -0.08666352 -0.08539471 -0.41423404 0.05163396
-0.34431317 0.23350866 -0.023329483 0.23048885 0.0013983556 -0.018057548 0.26348135 -0.42483047
-0.21017803 -0.64684564 0.13824768 -0.022267269 -0.047513112 0.0048378077 0.055447515 0.011176072
0.01746622 -0.0013400875 1.3653653 -0.38094038 0.043985117 -0.12181538 -1.3886534 0.8071834
-0.49481678 -1.3447064 -0.080820896 -0.36896604 0.41807166 -0.31506214 -0.30140886 0.2312198
-0.52847755 -0.33196795 0.3860498 -0.5612696 -0.18663394 0.29406825 0.10533519 -0.13150778
-0.23708402 -0.17577763 -0.4732427 -0.14888619 0.2617736 -0.22333331 0.0066727297 -0.23237748
0.0027467161 0.032876763 -0.05267085 1.6353425 -0.03548728 0.7682033 0.64919454 -0.7949634
0.10536875 0.12197568 0.5801096 0.13685133 -0.5554752 -0.62080055 -0.107731715 -0.09548673
0.43297794 0.08729317 -0.21819314 0.26942274 -0.7873845 0.019816237 0.57456857 -0.28656194
-0.061685845 -0.29534388 -0.18038747 -0.023985341 -0.9238597 0.39310294 -0.34141114 0.02402502
-0.33902252 -0.04886009 0.042972974 -0.039061908 -0.005175246 1.0790968 0.09923596 0.10655333
-0.41254523 0.4291889 -0.03366421 0.15975384 -0.3735935 -1.0290514 0.027500132 0.35477093
0.03575057 0.1257383 -0.63207316 0.49374455 0.18441844 0.3502216 0.035223242 -0.17675166
0.11989412 0.24800962 0.038779117 0.037786175 -0.30159375 -0.20242348 -0.22105363 0.14810923
0.050902773 0.03602732 0.037233315 0.026496999 -0.035059825 -1.1608123 0.6993521 1.0722033
-0.56706965 -0.14114526 0.4374017 -0.40500012 -0.28479493 0.607825 -0.44341654 -0.39339763
0.21268676 0.41401598 -0.2427733 0.21689618 -0.27525616 -0.45431614 -0.5241856 -0.36935008
-0.00045707065 -0.27843562 0.24683635 -0.05356836 -0.19518293 0.53987235 -0.1817513 -0.43212682
-0.04519487 0.0050504236 0.28829923 -0.055814 -0.02462506 -0.057277165 -0.8347211 0.07617214
-0.7698293 -0.1933511 -0.4678341 0.14404432 0.13768749 0.58800167 -0.6452322 -0.4567584
-0.42756328 -0.031687945 0.648093 -0.41712552 0.07811343 0.7524557 0.008890794 -0.5580469
-0.18311454 0.010925213 -0.019762063 0.35713243 -0.43456966 -0.14381418 -0.43969944 -0.0014289086
00000000: 85e6 ffbe a235 8dbf 510b 023e 1092 393f
00000010: 2f5d c7be 55ad 183e 28ca 85be 10d7 0cbe
00000020: 2d69 333e ab72 a9bb e382 283d 0629 4fbe
00000030: 6dd2 123c e40e 18be 3480 593f e77b 01be
00000040: 5df2 553d c385 c0ba 0dd4 14be 0d4a 11be
00000050: 5532 a6bd 4051 5d3b 4d3a 00be 2548 9a3e
00000060: b86a ef3d 568a 2f3d da70 633f d371 ccbc
00000070: 2a0c 523e 90d2 d5bc dff7 4fbc 0059 443d
00000080: f6a6 443f 24e1 e63e 6215 7e3c eb58 783e
00000090: f7d3 953c 19be a53e 6933 ad3e 35bc 82bd
000000a0: 3263 093e 77bf c43e b20a 9cbc 2c09 a53e
000000b0: 5ea5 243e ed9e 90bd c683 043f aa2c 023f
000000c0: edbe 06bf 44de 6e3f d9ca 013f 6204 0e3e
000000d0: 6705 9b3e 3fc1 1c3d b086 84be f791 f13d
000000e0: 3e82 de3d d439 213e 6853 4fbe ec3e 36bf
000000f0: 4e24 ee3c b002 d13d 5865 9a3c 966a 263d
00000100: 70cc 32bb cd04 f23d fccb 9dbf b98d 393f
00000110: 6d1d 07bf 6900 25be 789f f1be 7d92 acbd
00000120: 53bb d83c 0eb9 283e 91bb c0be 52e0 33bf
00000130: a57c b1bd 6ce3 aebd 7c16 d4be 227e 533d
00000140: d149 b0be e51c 6f3e 791d bfbc 4505 6c3e
00000150: 0749 b73a 6ced 93bc 07e7 863e 6183 d9be
00000160: e938 57be ad97 25bf cd90 0d3e d969 b6bc
00000170: 1c9d 42bd 7986 9e3b ef1c 633d d81b 373c
00000180: 5115 8f3c e0a5 afba 4ac4 ae3f 9e0a c3be
00000190: bd29 343d 587a f9bd 65bf b1bf 92a3 4e3f
000001a0: a058 fdbe 571f acbf 6d85 a5bd 1ee9 bcbe
000001b0: 7d0d d63e d34f a1be 4352 9abe e2c4 6c3e
000001c0: 4e4a 07bf b4f7 a9be 52a8 c53e 5daf 0fbf
000001d0: f81c 3fbe 1d90 963e fab9 d73d faa9 06be
000001e0: 27c6 72be 0dff 33be de4c f2be 9f75 18be
000001f0: 3007 863e 7db1 64be eaa6 da3b 5df4 6dbe
00000200: 4002 343b c9a9 063d 64bd 57bd e752 d13f
00000210: 1c5b 11bd f9a8 443f 9d31 263f b982 4bbf
00000220: 92cb d73d 63ce f93d 1082 143f c122 0c3e
00000230: 9f33 0ebf c9ec 1ebf 72a2 dcbd 8c8e c3bd
00000240: 49af dd3e c3c6 b23d 066e 5fbe c7f1 893e
00000250: 0892 49bf a955 a23c ed16 133f 3fb8 92be
00000260: 4caa 7cbd 5037 97be 7eb7 38be e87c c4bc
00000270: 1282 6cbf ca44 c93e 71cd aebe 1ed0 c43c
00000280: 5c94 adbe 8521 48bd 6e04 303d 61ff 1fbd
00000290: 1c95 a9bb d81f 8a3f 393c cb3d a238 da3d
000002a0: 2139 d3be a6be db3e 7ce3 09bd 8396 233e
000002b0: a647 bfbe f5b7 83bf f547 e13c 89a4 b53e
000002c0: 316f 123d 8ac1 003e 8ccf 21bf 16cc fc3e
000002d0: 30d8 3c3e 3f50 b33e 3f46 103d 63fe 34be
000002e0: 0c8b f53d 3cf6 7d3e dad6 1e3d adc5 1a3d
000002f0: 7f6a 9abe 1a48 4fbe e25b 62be f2a9 173e
00000300: 6d7f 503d 6291 133d f681 183d 3c10 d93c
00000310: e49a 0fbd 7f95 94bf bd08 333f f53d 893f
00000320: 7a2b 11bf 6288 10be 1ef3 df3e 2d5c cfbe
00000330: a4d0 91be 6b9a 1b3f 7e07 e3be 6a6b c9be
00000340: 8fca 593e e7f9 d33e 9099 78be 081a 5e3e
00000350: 60ee 8cbe 209c e8be 0731 06bf 741b bdbe
00000360: fca2 efb9 1d8f 8ebe abc2 7c3e 7f6a 5bbd
00000370: 09de 47be 1335 0a3f 031d 3abe ba3f ddbe
00000380: 421e 39bd 067e a53b f59b 933e 399d 64bd
00000390: 7eba c9bc 769b 6abd 48b0 55bf 2400 9c3d
000003a0: 8813 45bf d5fd 45be f387 efbe 5b80 133e
000003b0: f3fd 0c3e 4787 163f f02d 25bf 3ddc e9be
000003c0: 93e9 dabe 38cb 01bd 6ce9 253f 7a91 d5be
000003d0: eff9 9f3d f0a0 403f b1aa 113c 29dc 0ebf
000003e0: 6182 3bbe aaff 323c 0de4 a1bc 10da b63e
000003f0: ea7f debe 0644 13be 4920 e1be 374a bbba

seq1.0.bias f4 [300]
-0.13711135 -0.0346887 -0.13044003 -0.06033605 -0.032397985 0.103368156 -0.019497512 0.07185819
0.12691727 0.047387294 0.09439459 0.023890015 0.1501411 -0.06253836 -0.04766952 0.08172419
0.02579923 0.0011000398 0.02675098 0.030125653 -0.100072734 0.08166042 0.16353843 0.016738467
0.100359626 0.111318305 -0.1264907 -0.012818343 -0.075023904 0.09107725 -0.11285306 -0.09294291
-0.101360574 0.022847023 -0.07982024 0.13767098 0.113048084 -0.16561054 0.12675175 0.14235504
-0.05666732 -0.13368747 -0.1471808 0.035653025 -0.12868918 -0.17392837 -0.124801435 0.123511456
0.14043465 0.021357805 -0.010194908 -0.09659339 -0.003370257 -0.14256305 -0.14285785 0.10567766
0.1290448 0.14690325 -0.0024579314 0.03036623 0.15194869 0.08088169 -0.15424563 -0.14217371
-0.14570004 0.14056067 0.088533245 -0.12522464 -0.010083604 -0.16100273 -0.113827795 0.052231457
0.08978883 0.119321965 0.07701202 0.11526378 -0.07845253 -0.105443545 -0.09523096 -0.041339107
-0.15540472 0.13024907 0.07359564 -0.10328626 -0.1492207 0.005878755 0.025902547 -0.0348716
-0.1327922 -0.12797353 -0.14049481 0.00015844681 0.1637699 0.14477345 0.07100242 0.04259673
0.0069559165 0.051676612 0.016135748 0.032482013 0.13236052 -0.050394002 -0.06167335 0.10353526
-0.08963049 0.121136375 -0.03522792 0.024436245 0.122738555 -0.12042913 0.07957879 0.086314194
0.10222006 -0.030362276 -0.13850378 0.13229032 0.09641854 -0.08524779 0.14448272 -0.07838103
-0.1457111 -0.040553227 0.1034703 -0.15249135 -0.0938534 -0.10983791 -0.055512648 0.0560191
0.13505448 0.16461886 -0.16548084 0.14799339 -0.17230447 -0.1047038 -0.1710974 -0.07689686
0.095583804 0.13850644 -0.09358526 0.09406732 0.06457645 -0.14419384 0.109254904 0.069791324
-0.15350957 0.09729184 0.15956847 0.12765497 0.07670773 -0.056560542 -0.13187857 0.08815447
0.14990519 0.010116078 -0.05356431 0.00375062 -0.16450109 0.06703367 -0.0823206 -0.001410481
0.14957798 0.15378498 0.026302313 -0.012883392 -0.010863306 -0.17077428 0.021378933 -0.17370376
-0.068829514 -0.027558206 -0.1683858 0.08910511 -0.16342424 -0.06234609 0.09363755 -0.16155389
0.09590443 0.038932197 0.08587981 0.024575125 -0.0813967 -0.08644983 0.059655476 0.07545528
-0.027890084 0.09127942 -0.06429863 -0.14852056 -0.087333255 0.123880014 -0.07215466 0.054208074
-0.13123445 -0.027131436 -0.17051214 -0.082071885 -0.15013167 0.02126588 -0.01938139 0.13753183
-0.16513868 -0.01913298 0.12407719 -0.09070655 -0.15539536 0.027406255 0.15967125 0.07841155
-0.1187513 0.06200179 -0.02577763 0.10840139 0.120022714 -0.07491358 0.031160295 0.14622676
-0.14799906 0.1440691 -0.025065059 0.0554288 0.11198035 0.03628728 0.07976253 -0.006400512
0.06690583 -0.013283734 0.04875044 -0.0359509 -0.119115055 -0.002050333 -0.1418405 -0.06366979
0.08495438 0.10437321 0.07896284 0.14886326 0.07637201 0.055663645 -0.04163992 0.14602476
0.077664234 -0.16608585 0.16553971 -0.008059259 -0.0028245915 -0.15431856 0.03098869 0.11533766
0.110706136 0.0512509 -0.11070607 0.14249916 -0.102318116 -0.12497076 0.16011503 0.097597085
00000000: eb66 0cbe bd15 0ebd 1292 05be ef22 77bd
00000010: c0b3 04bd afb2 d33d 3fb9 9fbc 632a 933d
00000020: 9af6 013e 2e19 423d f351 c13d feb4 c33c
00000030: 97be 193e 1d14 80bd 1d41 43bd 035f a73d
00000040: e858 d33c 362f 903a df24 db3c 13ca f63c
00000050: eff2 ccbd 943d a73d 9e76 273e 1c1f 893c
00000060: 5989 cd3d dafa e33d c786 01be 0704 52bc
00000070: 22a6 99bd b686 ba3d 811f e7bd da58 bebd
00000080: 2296 cfbd ae29 bb3c cb78 a3bd 9ff9 0c3e
00000090: c185 e73d cf95 29be 36cb 013e 85c5 113e
000000a0: fe1b 68bd 5ee5 08be 90b6 16be e808 123d
000000b0: 19c7 03be 471a 32be e597 ffbd 93f3 fc3d
000000c0: 1ace 0f3e 90f6 ae3c 8b08 27bc c1d2 c5bd
000000d0: 88df 5cbb 0cfc 11be 5449 12be 876d d83d
000000e0: 5224 043e ce6d 163e 3f15 21bb 9ac2 f83c
000000f0: 7098 1b3e 4da5 a53d 91f2 1dbe fc95 11be
00000100: 6432 15be 23ef 0f3e eb50 b53d e33a 00be
00000110: b335 25bc e6dd 24be 8c1e e9bd a7f0 553d
00000120: 35e3 b73d 135f f43d 7ab8 9d3d 6b0f ec3d
00000130: b8ab a0bd c9f2 d7bd 7308 c3bd 3253 29bd
00000140: 6a22 1fbe 0360 053e 50b9 963d bf87 d3bd
00000150: 50cd 18be 92a2 c03b 9431 d43c 86d5 0ebd
00000160: aefa 07be 7e0b 03be dfdd 0fbe be24 2639
00000170: 4cb3 273e 7e3f 143e b769 913d e979 2e3d
00000180: 75ee e33b dbaa 533d 1e2f 843c dc0b 053d
00000190: 8489 073e f169 4ebd 329d 7cbd 4b0a d43d
000001a0: 3190 b7bd 5916 f83d 274b 10bd 852e c83c
000001b0: 5a5e fb3d 8ca3 f6bd 34fa a23d 7fc5 b03d
000001c0: c058 d13d 4fba f8bc efd3 0dbe 1d77 073e
000001d0: 1577 c53d 6596 aebd 47f3 133e 3c86 a0bd
000001e0: 4a35 15be 241b 26bd 3de8 d33d b126 1cbe
000001f0: 3636 c0bd b3f2 e0bd 3b61 63bd 4974 653d
00000200: b94b 0a3e d991 283e cf73 29be 948b 173e
00000210: 9570 30be f26e d6bd 2834 2fbe 1a7c 9dbd
00000220: 71c1 c33d a2d4 0d3e a1a9 bfbd 5ea6 c03d
00000230: a840 843d 8da7 13be 09c1 df3d c1ee 8e3d
00000240: 9d31 1dbe f240 c73d eb65 233e fcb7 023e
00000250: f118 9d3d 07ac 67bd 2d0b 07be 558a b43d
00000260: bf80 193e e8bd 253c 4066 5bbd f6cc 753b
00000270: f972 28be f348 893d b497 a8bd e4df b8ba
00000280: f82a 193e cf79 1d3e f377 d73c dd14 53bc
00000290: 02fc 31bc 74df 2ebe df22 af3c 66df 31be
000002a0: 7df6 8cbd bfc1 e1bc 546d 2cbe bd7c b63d
000002b0: af58 27be 9d5e 7fbd 0bc5 bf3d 626e 25be
000002c0: 8b69 c43d 5e77 1f3d c1e1 af3d c651 c93c
000002d0: 50b3 a6bd 9c0c b1bd 4d59 743d 4c88 9a3d
000002e0: bf79 e4bc b4f0 ba3d 00af 83bd c615 18be
000002f0: c7db b2bd ceb4 fd3d d3c5 93bd 4909 5e3d
00000300: 5362 06be bf42 debc bc9a 2ebe 4e15 a8bd
00000310: 1ebc 19be c835 ae3c b9c5 9ebc 25d5 0c3e
00000320: 1d1a 29be c4bc 9cbc 2f1c fe3d 5bc4 b9bd
00000330: f61f 1fbe 1583 e03c dc80 233e 3c96 a03d
00000340: e233 f3bd 97f5 7d3d 9c2b d3bc 8c01 de3d
00000350: 78ce f53d 4b6c 99bd e043 ff3c 78bc 153e
00000360: 118d 17be da86 133e 3d55 cdbc 4f09 633d
00000370: f455 e53d f9a1 143d 8a5a a33d 63bb d1bb
00000380: ec05 893d 05a4 59bc 8bae 473d 4041 13bd
00000390: 98f2 f3bd e15e 06bb a33e 11be 4f65 82bd
000003a0: 90fc ad3d 9fc1 d53d 45b7 a13d 9c6f 183e
000003b0: ee68 9c3d 90ff 633d 9f8e 2abd 8487 153e
000003c0: 6d0e 9f3d 6912 2abe 3e83 293e fb0a 04bc
000003d0: c81c 39bb af05 1ebe fedb fd3c 2736 ec3d
000003e0: e6b9 e23d 77ec 513d ddb9 e2bd 4deb 113e
000003f0: 298c d1bd abf0 ffbd 32f5 233e fbe0 c73d

seq1.1.weight f4 [300]
0.6556124 0.40463477 0.33060917 0.6362211 0.2889241 0.4010538 0.31923458 0.43107572
0.39285976 0.89695865 0.53791845 0.46959287 0.049104035 0.47352433 1.3956047 0.4834157
0.39972568 0.82114786 0.32994545 0.5972067 0.69080985 0.27640465 0.36063376 0.37945148
0.3635033 0.41137153 0.33117777 0.4789995 0.31047454 0.40477648 0.77098453 1.1654721
0.5275378 0.45657256 0.33576757 0.5360692 0.29958168 0.30986267 0.6432033 0.33840582
0.5701546 0.35644168 0.45459765 0.45396116 0.11880636 0.94006747 0.559227 0.64339083
0.8467586 0.8388599 0.43453094 0.5203296 0.343906 0.4362145 0.4133192 0.26023313
0.3580378 0.56067616 0.1278119 0.51983345 0.26328206 0.4400054 0.6010104 0.5587238
0.5535968 0.49581656 0.5882093 0.64028734 0.37609622 0.3945636 0.5143658 0.49800965
0.42572853 0.54255813 0.096770294 0.6985324 0.4064103 0.37852505 0.89188135 0.3387963
0.3583816 0.45820963 0.69646454 0.3969561 0.37268668 1.1665095 0.57516205 0.26603264
0.52226764 0.534368 0.38269696 0.7266801 0.25230408 0.5252338 0.54096884 0.4990456
1.2349391 0.61423427 0.72428185 0.30427814 0.49421397 0.55798036 0.86709034 0.26876554
0.5150915 0.882923 0.62141526 0.79515374 0.33545014 0.7433009 0.52117616 0.36608645
0.56649226 0.6235368 0.33098888 0.5472114 0.35142082 1.125838 0.62253404 0.5076781
0.65222526 0.56457084 0.43544987 0.44041565 0.3864037 0.4849244 0.49414396 0.5947889
0.3704983 0.45746136 0.7974527 0.6942828 0.29050654 0.34517613 0.3569735 0.43769646
0.38486347 0.516 0.37612763 0.35540506 0.4431826 0.60365874 1.4015548 0.28186482
0.41704416 0.50995106 0.6620305 0.69780535 0.3776443 0.2357309 0.62134725 0.5316333
0.39532948 0.34084618 0.60833347 0.17239213 0.4975202 0.4612311 0.4358298 0.9290518
0.44382206 0.6145904 0.42084813 0.37619722 0.46601695 0.74447894 0.21691695 0.56825054
0.5132619 0.37427402 0.29664823 0.57810134 0.3554817 0.41770402 0.44151053 0.46980494
0.5167414 0.5445522 0.8466714 0.73005855 0.52848417 0.67104286 0.7733532 0.34279877
0.7545841 0.5094387 0.34448975 0.63530517 0.31028345 0.31838092 0.6048873 0.5926126
0.3533856 0.29764315 0.37302345 0.3880756 0.56391597 0.5693149 0.5688469 0.67109853
0.48394987 0.4228829 0.72651887 0.8001187 1.214558 0.2861492 0.41513377 0.55721855
0.6667889 0.6630336 0.5587558 0.47031742 0.5793674 0.6440527 0.5453367 0.5003181
0.39515218 0.99488646 0.62257 0.57925 0.6603733 0.37763542 0.53319675 0.4753586
0.52413505 0.9450441 0.38147518 1.1230458 0.45009366 0.6714574 0.48007458 0.9177861
0.62930846 0.41853708 1.143084 0.6181113 0.34210473 1.2070462 0.31565678 0.3833335
0.44543073 0.76256174 0.28065813 0.3252681 0.44564903 0.35976315 0.7372466 0.243696
0.5223161 0.43515244 0.4158489 0.57781345 0.7574103 0.65023774 0.30377528 0.7453644
00000000: 37d6 273f 4a2c cf3e 9b45 a93e 63df 223f
00000010: dced 933e ec56 cd3e b772 a33e f5b5 dc3e
00000020: ea24 c93e 159f 653f 06b5 093f 7a6e f03e
00000030: 5021 493d c871 f23e 2da3 b23f 4382 f73e
00000040: d8a8 cc3e bf36 523f 9cee a83e 8ae2 183f
00000050: ead8 303f e984 8d3e fda4 b83e 7747 c23e
00000060: 1b1d ba3e 4a9f d23e 2290 a93e 6c3f f53e
00000070: 85f6 9e3e dd3e cf3e 3e5f 453f 312e 953f
00000080: b80c 073f e1c3 e93e bae9 ab3e d53b 093f
00000090: c562 993e 52a6 9e3e f9a8 243f 8743 ad3e
000000a0: a7f5 113f 867f b63e 06c1 e83e 996d e83e
000000b0: c050 f33d 43a8 703f 8029 0f3f 43b5 243f
000000c0: 2cc5 583f 86bf 563f d77a de3e 5234 053f
000000d0: 7214 b03e 8257 df3e 939e d33e 473d 853e
000000e0: bb50 b73e 7988 0f3f 1fe1 023e ce13 053f
000000f0: e8cc 863e 6348 e13e d1db 193f 8608 0f3f
00000100: 85b8 0d3f abdb fd3e e294 163f dfe9 233f
00000110: af8f c03e 3d04 ca3e 7aad 033f 1ffb fe3e
00000120: 17f9 d93e 17e5 0a3f 812f c63d 05d3 323f
00000130: 0315 d03e 09ce c13e 5652 643f b576 ad3e
00000140: cb7d b73e 749a ea3e 804b 323f d43d cb3e
00000150: cad0 be3e 2f50 953f d23d 133f 6e35 883e
00000160: 55b3 053f 57cc 083f dbf0 c33e b507 3a3f
00000170: 002e 813e b975 063f ef7c 0a3f e882 ff3e
00000180: 7c12 9e3f 753e 1d3f 896a 393f 58ca 9b3e
00000190: 9d09 fd3e cdd7 0e3f a2f9 5d3f a39b 893e
000001a0: 09dd 033f 3e07 623f 1215 1f3f 328f 4b3f
000001b0: 1fc0 ab3e f848 3e3f cd6b 053f af6f bb3e
000001c0: a305 113f 1ca0 1f3f 6077 a93e 0c16 0c3f
000001d0: 6eed b33e 761b 903f 645e 1f3f 31f7 013f
000001e0: 3cf8 263f b787 103f 49f3 de3e 297e e13e
000001f0: b5d6 c53e 0348 f83e 7000 fd3e 1644 183f
00000200: f4b1 bd3e 6038 ea3e dc25 4c3f 85bc 313f
00000210: 46bd 943e edba b03e 3bc5 b63e c019 e03e
00000220: d30c c53e 9318 043f cd93 c03e a7f7 b53e
00000230: d4e8 e23e 6189 1a3f 2666 b33f 9650 903e
00000240: d086 d53e 278c 023f d57a 293f 5fa3 323f
00000250: 985a c13e 7163 713e 9d10 1f3f 1f19 083f
00000260: a068 ca3e 6483 ae3e bebb 1b3f 9087 303e
00000270: f8ba fe3e 7c26 ec3e 1525 df3e 57d6 6d3f
00000280: a53c e33e cc55 1d3f 6879 d73e ec9c c03e
00000290: c699 ee3e 2c96 3e3f 7a1f 5e3e de78 113f
000002a0: 2265 033f d8a0 bf3e 47e2 973e 73fe 133f
000002b0: b301 b63e 4ddd d53e ab0d e23e 468a f03e
000002c0: 2a49 043f c667 0b3f 75bf 583f 1ee5 3a3f
000002d0: bd4a 073f 77c9 2b3f 7afa 453f 5283 af3e
000002e0: 6c2c 413f 936a 023f f660 b03e 5ca3 223f
000002f0: 79dd 9e3e d302 a33e e5d9 1a3f 76b5 173f
00000300: f5ee b43e af64 983e eefc be3e d8b1 c63e
00000310: cc5c 103f 9fbe 113f f39f 113f 1dcd 2b3f
00000320: 47c8 f73e 1c84 d83e 24fd 393f 94d4 4c3f
00000330: a376 9b3f 2682 923e 6a8c d43e e0a5 0e3f
00000340: adb2 2a3f 92bc 293f 9f0a 0f3f 72cd f03e
00000350: 6c51 143f a3e0 243f 309b 0b3f d914 003f
00000360: 6351 ca3e e1b0 7e3f bf60 1f3f ba49 143f
00000370: 390e 293f 6e59 c13e 957f 083f 3462 f33e
00000380: b72d 063f 69ee 713f b750 c33e f7bf 8f3f
00000390: ad72 e63e a2e4 2b3f 56cc f53e 08f4 6a3f
000003a0: 5c1a 213f 7e4a d63e 9450 923f 8b3c 1e3f
000003b0: 5a28 af3e 7d80 9a3f c49d a13e 4a44 c43e
000003c0: 7f0f e43e 3f37 433f 6cb2 8f3e 8a89 a63e
000003d0: 1c2c e43e e032 b83e 31bc 3c3f 728b 793e
000003e0: 82b6 053f 4dcc de3e 26ea d43e 95eb 133f
000003f0: a4e5 413f fb75 263f 6f88 9b3e 34d0 3e3f

seq1.1.bias f4 [300]
-0.54595226 -0.6522462 -0.37045273 -0.7177908 -0.6231071 -0.26134634 -0.56168526 -0.574916
-0.8775483 -0.7488556 -0.5809826 -0.35373884 -0.21124072 -0.033413664 -0.57782936 -0.5046405
-0.58286947 -0.7963197 -0.40846634 -0.735668 -0.62258995 -0.38860428 -0.81699324 -0.53360337
-0.3763387 -0.5299942 -0.67884344 -0.559194 -0.1318784 -0.36703703 -0.04180854 -0.37332278
-0.60670483 -1.0251849 -0.6999305 -0.018249417 -0.79139525 -0.7864743 0.511562 -0.16109526
-0.9978724 -0.53041375 0.22051387 -0.21185361 0.14719433 -0.8545195 -0.8833012 -0.65086687
-0.3075106 -0.60830814 -0.73559326 -0.67653507 -0.58421916 0.16199704 -0.6511957 -0.08066547
-0.43437803 -0.9164791 -0.10281744 -0.62611526 -0.50367516 -0.8985226 -0.30774906 -0.80340683
-0.26020214 -0.7551031 -0.49170065 -0.5902463 -0.5863586 -0.1926955 -0.8723933 -1.1537851
-0.930093 0.5321686 -0.026762798 -0.4935464 -0.7160477 -0.82899565 -0.64165485 -0.34389466
-0.6254253 -0.46625245 -1.0994654 0.22531448 -0.47732383 -0.77743006 -0.40376425 -0.35776964
-0.8982689 -0.84796154 -0.94828707 -0.89145714 -0.33844054 -0.8663012 -0.71512765 -0.9827884
-0.6225002 -1.0269325 -0.8894606 -0.13498814 -0.9389991 -0.46735242 -0.6320773 -0.72204715
-0.557518 -0.73139834 -0.78185403 -0.29524645 -0.35676545 -0.6104114 -0.5752607 -0.29581317
0.32605723 0.4128333 -0.62990195 -0.7415924 -0.33008707 -0.9791423 -0.27185756 -0.7347183
-0.5967012 -0.4341682 -0.96078354 -0.79618704 -0.40092078 -0.8366584 -0.7852025 -1.0643106
-0.80092263 -0.5863992 -0.3777055 -0.99087507 -0.40046546 -0.6462452 -0.24592166 -0.8771031
-0.4318263 -0.75265807 -0.34040385 -0.9585958 -1.0832059 -0.7237882 -0.19293575 -0.40227613
0.42721123 -0.43154255 -0.7467043 -0.27908936 0.07829794 -0.081855066 0.4483953 -0.69097525
-0.5727314 -0.27228984 -0.57452327 -0.13183193 -0.39749897 0.05298483 -0.8609408 -0.78944874
-0.49306706 0.25208578 -0.5532828 -0.80973846 -0.5030721 -0.98420966 -0.5178611 -0.82954854
-0.27237698 -0.20130058 -0.21025617 -0.3692144 -0.24132279 -1.1631932 -0.6728074 -1.2119412
-0.8581373 0.5039281 -0.38866755 -0.7770297 -0.88775617 -0.75993943 -0.3027188 -0.6054575
-0.9591435 -0.45225093 -0.5635057 -0.30586532 0.26029766 -0.40624744 -0.86496747 -0.6533386
-0.09871865 -1.0292584 -1.0009048 -0.3950694 -0.5214523 -0.70371836 -0.27261993 -0.54330045
-0.20713404 -0.15507902 -1.1612649 -1.2223328 -0.34624076 -0.3048541 -0.42854804 -0.7447751
-0.8617892 0.7163053 -0.74640536 -0.39615825 -0.6248684 -1.1551293 -0.8246132 -0.24055974
-0.8816952 -1.1186022 -0.37890238 -0.4313619 -0.8258219 -0.8297072 -0.89748156 -0.88132626
-0.79466283 -0.6864296 -0.43736804 -0.6463263 -0.80987495 -0.6478012 -0.32830966 -0.8530981
-0.6720075 -0.9047387 -0.8012879 -1.0362082 -0.26326904 -1.1229858 -0.70086455 -0.7139556
-0.48754802 -0.75283027 -0.5321016 -0.55731773 -0.9325986 -0.7612837 -0.398652 -0.34568435
-0.7730364 -0.5300346 0.562678 -0.0071306447 -0.8644634 -0.37280518 0.71156406 -1.2964453
00000000: 87c3 0bbf 9bf9 26bf fbab bdbe 23c1 37bf
00000010: f283 1fbf 30cf 85be 9bca 0fbf b22d 13bf
00000020: 01a7 60bf 00b5 3fbf 47bb 14bf 421d b5be
00000030: 7d4f 58be c4dc 08bd a0ec 13bf 1f30 01bf
00000040: ef36 15bf 9cdb 4bbf 8022 d1be bd54 3cbf
00000050: 0e62 1fbf 24f7 c6be 7826 51bf 3b9a 08bf
00000060: 77af c0be b3ad 07bf afc8 2dbf 5727 0fbf
00000070: 220b 07be 47ec bbbe 6e3f 2bbd 2a24 bfbe
00000080: 0251 1bbf 4239 83bf a52e 33bf cd7f 95bc
00000090: e198 4abf 6156 49bf baf5 023f 28f6 24be
000000a0: 9174 7fbf 32c9 07bf 63ce 613e 27f0 58be
000000b0: 1cba 163e cac1 5abf 0720 62bf 369f 26bf
000000c0: 0872 9dbe 15ba 1bbf d74f 3cbf 6731 2dbf
000000d0: 638f 15bf 8de2 253e c3b4 26bf f033 a5bd
000000e0: cc66 debe 609e 6abf f391 d2bd 1749 20bf
000000f0: dbf0 00bf 9405 66bf 4991 9dbe 12ac 4dbf
00000100: 3739 85be 704e 41bf 30c0 fbbe 621a 17bf
00000110: 991b 16bf f851 45be 2b55 5fbf 3baf 93bf
00000120: 931a 6ebf 343c 083f a83d dbbc 1db2 fcbe
00000130: e74e 37bf 0f39 54bf 7e43 24bf f612 b0be
00000140: df1b 20bf a4b8 eebe 48bb 8cbf d7b8 663e
00000150: ca63 f4be a805 47bf 30ba cebe 952d b7be
00000160: f3f4 65bf 0214 59bf f1c2 72bf 8936 64bf
00000170: 1448 adbe eac5 5dbf 9b12 37bf 0598 7bbf
00000180: 2c5c 1fbf 8672 83bf b1b3 63bf 553a 0abe
00000190: 3f62 70bf d148 efbe d1cf 21bf 15d8 38bf
000001a0: 80b9 0ebf ec3c 3bbf 9627 48bf 8b2a 97be
000001b0: f6a9 b6be ec43 1cbf 4944 13bf d374 97be
000001c0: f9f0 a63e e35e d33e 4141 21bf 00d9 3dbf
000001d0: 2c01 a9be 12a9 7abf ea30 8bbe 8016 3cbf
000001e0: 69c1 18bf 4b4b debe e9f5 75bf ead2 4bbf
000001f0: 7d45 cdbe 3f2f 56bf 0803 49bf 543b 88bf
00000200: 4409 4dbf 421e 16bf 9e62 c1be fda9 7dbf
00000210: cf09 cdbe 5370 25bf e3d2 7bbe d489 60bf
00000220: 5618 ddbe 33ae 40bf 6a49 aebe 8966 75bf
00000230: 7ea6 8abf 2f4a 39bf f390 45be 23f7 cdbe
00000240: 6ebb da3e 25f3 dcbe 0328 3fbf cde4 8ebe
00000250: ac5a a03d a1a3 a7bd 1294 e53e c1e3 30bf
00000260: 869e 12bf 9369 8bbe f513 13bf f3fe 06be
00000270: fc84 cbbe 9f06 593d 9e66 5cbf 5019 4abf
00000280: 4973 fcbe 6311 813e f1a3 0dbf 054b 4fbf
00000290: 55c9 00bf 2af5 7bbf 8c92 04bf 4b5d 54bf
000002a0: ff74 8bbe bd21 4ebe 654d 57be ab09 bdbe
000002b0: 521d 77be 84e3 94bf 1b3d 2cbf e420 9bbf
000002c0: e3ae 5bbf 6f01 013f 6fff c6be 6beb 46bf
000002d0: fd43 63bf 648b 42bf f5fd 9abe 43ff 1abf
000002e0: 6e8a 75bf 6f8d e7be e941 10bf 619a 9cbe
000002f0: bc45 853e aaff cfbe 826e 5dbf 3341 27bf
00000300: 012d cabd bdbe 83bf a61d 80bf 8946 cabe
00000310: e67d 05bf e326 34bf d794 8bbe bd15 0bbf
00000320: f21a 54be 09cd 1ebe 54a4 94bf 6775 9cbf
00000330: 7846 b1be d615 9cbe a66a dbbe 95a9 3ebf
00000340: 389e 5cbf c95f 373f 6c14 3fbf 41d5 cabe
00000350: 60f7 1fbf 47db 93bf da19 53bf 4b55 76be
00000360: c7b6 61bf 5b2e 8fbf 7eff c1be 78db dcbe
00000370: 1069 53bf b167 54bf 5ac1 65bf 999e 61bf
00000380: 066f 4bbf dab9 2fbf b4ee dfbe a475 25bf
00000390: f753 4fbf 4dd6 25bf 3418 a8be a364 5abf
000003a0: af08 2cbf f59c 67bf 3421 4dbf 78a2 84bf
000003b0: 33cb 86be 00be 8fbf dc6b 33bf cbc5 36bf
000003c0: e59f f9be 7cb9 40bf cf37 08bf 60ac 0ebf
000003d0: c8be 6ebf 7de3 42bf 1d1c ccbe 8afd b0be
000003e0: b7e5 45bf 59b0 07bf aa0b 103f 2fa8 e9bb
000003f0: 794d 5dbf 52e0 bebe 1029 363f ebf1 a5bf

seq1.1.running_mean f4 [300]
1.5971782 -2.08527 -0.7990621 -0.28882858 -1.8682512 -2.1056976 -3.124948 -0.56356305
-3.843455 0.30183184 -1.5164176 1.6715001 -2.5951717 -0.963532 0.5097829 0.82216346
0.9452014 0.8056085 -0.21517538 0.99203664 0.75434136 -0.56719714 -1.5581948 -0.010378951
0.032403346 0.26854265 0.7125932 0.49495423 3.12079 0.40888685 0.35877398 0.16751762
0.22002903 3.6148663 -4.339387 0.5794991 -0.5312582 1.2532506 0.85254467 -0.61089313
2.2072203 -1.2730637 1.2442915 -1.5363383 1.4215195 -0.31090432 0.7345099 -0.053956755
1.0588495 -0.02121603 0.059435718 0.7574735 -3.5056212 0.9669457 1.7461451 0.75170445
-2.974703 1.5248275 -0.09504183 -1.8550141 -5.432753 -3.61124 -1.067464 -3.163456
0.6471231 0.26106316 -0.66006327 1.5011157 0.60755277 1.3500574 -1.1301291 -0.9359097
1.8281577 1.4408021 2.2575908 1.0294088 -1.2325484 -1.3823699 -0.20036133 -1.8566437
0.076861575 0.7510556 -2.376575 1.0201706 -2.499458 0.37236905 1.1910417 -3.1164398
1.7496622 -4.3824296 -0.1593053 -0.8130384 -2.0712888 0.13391264 0.9122158 1.3805138
-0.014446773 0.06706629 -1.2845448 3.1007836 -1.0092685 1.014028 -0.49367577 -0.3637768
-0.6883627 -0.45239654 0.055138625 -0.026847007 -0.21219674 0.698916 0.14885741 2.0600648
1.1740277 0.38674507 -0.6656584 -2.1251519 -0.33194768 0.14146008 0.98582995 -0.025728129
0.38768652 -1.3207575 -4.552462 -1.8228658 -0.025364507 -0.5493903 3.3888426 -0.9633443
0.091444075 5.2946014 -0.33476225 -0.40684417 -0.43638033 -1.1537818 0.114689015 -1.5740696
1.6424367 -0.1281173 -0.20345101 -5.8401804 -3.8014848 -0.86232704 0.26623583 -1.4981967
-0.7157265 1.3585973 0.46334708 0.8902558 0.5120383 -1.7095469 0.3804163 2.9297802
-0.6479187 1.2667606 -0.84305394 3.033208 -0.4804528 -1.7993798 -0.360126 -0.23616436
0.5342613 0.5485526 -3.6423419 -0.44847777 -2.845367 -0.02952238 -1.9324964 0.06666921
-0.49172622 0.4458067 0.24343176 0.29492128 -2.1693401 -3.632623 0.37983105 -5.1411486
-1.3730255 -0.37492073 1.6546683 -1.0077236 0.5306802 -0.25151193 0.46848592 2.4473405
-0.048185617 0.10765532 -1.0097196 0.11243231 0.27759996 -1.6119176 0.7793112 -1.3986038
-0.7607875 1.3135562 -1.475522 -1.870426 0.56654423 2.6647964 0.06341392 -1.6249038
0.112513274 -1.1628815 -1.0422375 -2.2440271 0.057699222 -0.18250227 0.56484497 0.049380932
-0.5944131 -0.9058528 -2.023784 2.1349952 5.4305053 -1.1789244 -0.88029796 -0.6099001
-2.9826574 0.53426033 -1.229219 0.2701177 0.3445587 1.6686891 -1.3617408 0.5875499
-1.7674271 0.006046898 1.2832401 -0.4483982 0.035809714 -0.06332816 0.48250422 0.025857307
-0.5871255 2.105347 -0.5511512 -1.6360612 2.043508 0.27921736 2.9287663 1.4431219
-1.325212 -0.14842808 2.4743295 -0.46971142 -5.398727 -0.736817 0.59921277 -1.4687924
-1.0832384 -5.1871223 0.19357432 3.2857306 -0.8216735 -0.3169526 1.1548475 -0.73199433
00000000: 5670 cc3f 1075 05c0 558f 4cbf 57e1 93be
00000010: db22 efbf c0c3 06c0 26ff 47c0 ab45 10bf
00000020: 2bfb 75c0 b489 9a3e f919 c2bf b7f3 d53f
00000030: 4b17 26c0 08aa 76bf 2281 023f 4e79 523f
00000040: b8f8 713f 5c3c 4e3f ef56 5cbe 1df6 7d3f
00000050: 841c 413f d533 11bf ed72 c7bf 7a0c 2abc
00000060: 5fb9 043d 6c7e 893e 826c 363f a46a fd3e
00000070: 06bb 4740 9e59 d13e 39b1 b73e bd89 2b3e
00000080: 4a4f 613e f859 6740 42dc 8ac0 0e5a 143f
00000090: 8a00 08bf 846a a03f 5e40 5a3f 7e63 1cbf
000000a0: 1943 0d40 c0f3 a2bf f244 9f3f bca6 c4bf
000000b0: 5af4 b53f da2e 9fbe d708 3c3f c201 5dbd
000000c0: 6188 873f 3dcd adbc de72 733d c9e9 413f
000000d0: 195c 60c0 c189 773f af81 df3f b46f 403f
000000e0: 8961 3ec0 8c2d c33f 4aa5 c2bd 1a71 edbf
000000f0: 1dd9 adc0 8e1e 67c0 a9a2 88bf 1076 4ac0
00000100: dca9 253f 12aa 853e e8f9 28bf 8f24 c03f
00000110: 9488 1b3f aece ac3f 12a8 90bf c797 6fbf
00000120: 1201 ea3f 346c b83f 5e7c 1040 abc3 833f
00000130: 25c4 9dbf 7ff1 b0bf 852b 4dbe 80a6 edbf
00000140: 9a69 9d3d 2e45 403f ce19 18c0 f394 823f
00000150: 1ff7 1fc0 28a7 be3e 0e74 983f c073 47c0
00000160: eef4 df3f dd3c 8cc0 ee20 23be 4923 50bf
00000170: ff8f 04c0 6520 093e fa86 693f adb4 b03f
00000180: 28b2 6cbc 0d5a 893d f76b a4bf 3d73 4640
00000190: b62f 81bf abcb 813f 12c3 fcbe f440 babe
000001a0: 8a38 30bf 85a0 e7be 0ad9 613d 41ee dbbc
000001b0: 1a4a 59be 29ec 323f 146e 183e 1ad8 0340
000001c0: 8a46 963f 7303 c63e 9768 2abf 7d02 08c0
000001d0: 0cf5 a9be e9da 103e 5a5f 7c3f ccc3 d2bc
000001e0: d97e c63e 950e a9bf c5ad 91c0 ab53 e9bf
000001f0: 3ac9 cfbc d8a4 0cbf cce2 5840 bb9d 76bf
00000200: 0847 bb3d 606d a940 f565 abbe e14d d0be
00000210: 3e6d dfbe 1faf 93bf 13e2 ea3d 1d7b c9bf
00000220: 5e3b d23f 2e31 03be 7655 50be c2e2 bac0
00000230: 874b 73c0 77c1 5cbf 1050 883e e9c4 bfbf
00000240: da39 37bf 84e6 ad3f d43b ed3e cee7 633f
00000250: f114 033f 6fd2 dabf edc5 c23e 8581 3b40
00000260: 00de 25bf 3625 a23f 62d2 57bf 1420 4240
00000270: e9fd f5be 1452 e6bf 6f62 b8be 12d5 71be
00000280: 59c5 083f f16d 0c3f 211c 69c0 e19e e5be
00000290: 7e1a 36c0 ebd8 f1bc 0b5c f7bf de89 883d
000002a0: 8ac3 fbbe c740 e43e 2d46 793e ecff 963e
000002b0: 78d6 0ac0 e57c 68c0 3779 c23e 4a84 a4c0
000002c0: 4dbf afbf 9cf5 bfbe 2ccc d33f 16fd 80bf
000002d0: a8da 073f 2cc6 80be 63dd ef3e 3aa1 1c40
000002e0: 485e 45bd 647a dc3d 7e3e 81bf e942 e63d
000002f0: 9521 8e3e 5153 cebf f080 473f 7305 b3bf
00000300: f8c2 42bf 9c22 a83f e8dd bcbf 1f6a efbf
00000310: 0b09 113f 068c 2a40 28df 813d d9fc cfbf
00000320: 5c6d e63d 4dd9 94bf 0a68 85bf 249e 0fc0
00000330: 0556 6c3d e0e1 3abe ae99 103f a943 4a3d
00000340: 752b 18bf f8e5 67bf ad85 01c0 c3a3 0840
00000350: b3c6 ad40 ffe6 96bf 355b 61bf 6a22 1cbf
00000360: dce3 3ec0 49c5 083f 0c57 9dbf de4c 8a3e
00000370: ff69 b03e 9b97 d53f 864d aebf ac69 163f
00000380: 0d3b e2bf 0f25 c63b 3641 a43f 7394 e5be
00000390: 35ad 123d 32b2 81bd cb0a f73e b4d2 d33c
000003a0: db4d 16bf 01be 0640 3f18 0dbf 746a d1bf
000003b0: d6c8 0240 94f5 8e3e e870 3b40 38b8 b83f
000003c0: 8ca0 a9bf 88fd 17be 6a5b 1e40 047e f0be
000003d0: 5fc2 acc0 0aa0 3cbf 0266 193f 6401 bcbf
000003e0: 8ea7 8abf e8fc a5c0 5938 463e 6949 5240
000003f0: 3259 52bf 9c47 a2be 0bd2 933f fb63 3bbf

seq1.1.running_var f4 [300]
13.524266 5.1246953 11.295337 18.821663 10.505573 4.92273 12.180784 7.5450745
3.3572571 5.561558 25.45816 13.374186 14.339524 5.4505577 6.8296914 7.4188724
8.904198 33.626 4.352574 41.92895 10.703796 13.180377 11.861989 4.0791826
13.883374 23.956495 12.94728 29.234858 7.981601 19.1989 5.347078 5.908553
4.688243 4.502676 3.9738386 39.165646 3.7194176 11.048239 44.04883 40.783497
24.96347 13.606314 57.89612 37.126762 34.231632 7.048303 9.4826355 18.937357
7.284645 5.6501985 11.923541 53.34814 48.985397 11.849525 19.180481 11.053521
10.642795 20.269558 2.889804 38.63245 15.796212 8.793249 71.37857 8.365036
8.5627775 2.2836664 9.169636 26.535622 7.839417 12.704771 20.620924 13.144197
4.9005866 64.69388 2.9528139 7.7599564 5.505798 13.612446 6.0425944 20.981972
11.399843 12.653739 4.812577 15.223084 13.677899 6.412661 41.848576 18.370256
13.773332 7.383029 14.131451 15.854113 4.4861555 7.748521 30.34265 9.071594
6.145475 2.2945316 41.800236 9.215926 8.4728775 20.53392 6.254193 9.065217
57.523476 7.8453712 2.1862116 4.653291 62.440144 9.765929 46.956394 25.225418
30.915205 57.42405 7.7047257 17.741493 53.33123 6.324882 4.059803 2.4481096
38.188244 3.8068938 6.7360787 20.363668 1.0192147 3.173285 19.074493 11.593265
11.708677 41.175583 6.3125405 7.9365344 7.838384 18.945444 1.9803998 20.405216
38.7143 0.40768185 34.522976 5.9574003 4.485499 14.873806 6.3849425 1.0107647
44.141655 16.769398 23.918543 1.6071143 6.2301207 7.1993136 49.334106 25.690687
16.354603 9.563861 23.94795 8.36757 24.084171 22.081913 11.632927 8.151204
4.4698734 47.0228 25.42497 20.032732 37.712826 3.653237 6.435145 1.2715513
10.590064 9.294847 40.01038 5.3825526 5.7182302 2.0909147 15.983271 14.828597
1.8940755 51.880672 4.6744933 0.97442317 9.391596 2.2003622 6.329195 7.5804806
12.109208 18.82855 11.35956 9.858309 13.048162 9.257858 11.399791 4.200137
15.049077 13.153322 18.53805 25.54101 20.053808 47.402214 7.751329 7.9892793
15.06992 12.069423 2.7910333 14.764456 7.389772 9.532007 47.8944 4.616143
29.354961 84.4761 10.63993 14.8266115 44.47469 6.127108 2.8446314 58.529022
12.7584505 9.506351 8.991746 28.034185 8.0747385 17.371347 5.729579 27.537832
69.52329 6.812487 24.896597 4.631473 23.020891 35.196087 2.3714807 7.5573583
6.9516134 6.093811 7.5126114 8.386017 21.479424 6.545001 10.362629 14.232691
45.510216 6.033413 19.232271 17.023956 9.672452 8.274026 3.8382673 4.8162026
4.0051713 23.328222 36.87975 78.57078 16.361233 5.0841007 3.8434012 8.114787
00000000: 6563 5841 81fd a340 b3b9 3441 c492 9641
00000010: d416 2841 0187 9d40 7ee4 4241 4071 f140
00000020: 4ddd 5640 48f8 b140 50aa cb41 aafc 5541
00000030: b16e 6541 f86a ae40 d58c da40 6767 ed40
00000040: 9877 0e41 0681 0642 4948 8b40 3fb7 2742
00000050: c042 2b41 d3e2 5241 b5ca 3d41 aa88 8240
00000060: 4d22 5e41 e7a6 bf41 0f28 4f41 fde0 e941
00000070: 4769 ff40 5997 9941 431b ab40 de12 bd40
00000080: 1606 9640 ec15 9040 5f53 7e40 9fa9 1c42
00000090: f00a 6e40 96c5 3041 0032 3042 4d22 2342
000000a0: 30b5 c741 76b3 5941 a095 6742 ce81 1442
000000b0: 31ed 0842 b38b e140 e0b8 1741 b57f 9741
000000c0: d01b e940 6dce b440 d3c6 3e41 7f64 5542
000000d0: 0cf1 4342 a897 3d41 a071 9941 39db 3041
000000e0: e348 2a41 0e28 a241 8cf2 3840 a187 1a42
000000f0: 49bd 7c41 26b1 0c41 d4c1 8e42 30d7 0541
00000100: 2301 0941 9727 1240 d4b6 1241 f448 d441
00000110: 81dc fa40 be46 4b41 a7f7 a441 a24e 5241
00000120: 9bd1 9c40 4463 8142 e7fa 3c40 9051 f840
00000130: 7f2f b040 94cc 5941 ef5c c140 14db a741
00000140: c265 3641 b775 4a41 a100 9a40 c191 7341
00000150: add8 5a41 8534 cd40 f164 2742 49f6 9241
00000160: 915f 5c41 c641 ec40 6c1a 6241 72aa 7d41
00000170: 968e 8f40 e2f3 f740 bfbd f241 4025 1141
00000180: bba7 c440 9bd9 1240 7133 2742 6f74 1341
00000190: e890 0741 7845 a441 5922 c840 210b 1141
000001a0: 0a18 6642 480d fb40 e4ea 0b40 c3e7 9440
000001b0: b5c2 7942 3f41 1c41 59d3 3b42 a8cd c941
000001c0: 5752 f741 3ab2 6542 1d8d f640 94ee 8d41
000001d0: 2e53 5542 6f65 ca40 e8e9 8140 d4ad 1c40
000001e0: c3c0 1842 26a4 7340 f58d d740 cbe8 a241
000001f0: a175 823f 1a17 4b40 9098 9841 037e 3941
00000200: be56 3b41 ccb3 2442 5500 ca40 17f8 fd40
00000210: 0bd4 fa40 4590 9741 be7d fd3f e23d a341
00000220: 71db 1a42 adbb d03e 8717 0a42 06a3 be40
00000230: 3589 8f40 1cfb 6d41 7351 cc40 bd60 813f
00000240: 0e91 3042 ba27 8641 2d59 bf41 ecb5 cd3f
00000250: 265d c740 c760 e640 2056 4542 8786 cd41
00000260: 3ad6 8241 9305 1941 6795 bf41 91e1 0541
00000270: 62ac c041 c2a7 b041 7820 3a41 556b 0241
00000280: 3409 8f40 5917 3c42 5766 cb41 0943 a041
00000290: efd9 1642 a3ce 6940 b5ec cd40 31c2 a23f
000002a0: e770 2941 b1b7 1441 a10a 2042 df3d ac40
000002b0: befb b640 8cd1 0540 7abb 7f41 ef41 6d41
000002c0: 1171 f23f cf85 4f42 7395 9540 cc73 793f
000002d0: fa43 1641 bcd2 0c40 c488 ca40 4c93 f240
000002e0: 51bf 4141 dfa0 9641 c2c0 3541 a2bb 1d41
000002f0: 46c5 5041 3020 1441 8b65 3641 8667 8640
00000300: 05c9 7041 0274 5241 ed4d 9441 fd53 cc41
00000310: 336e a041 de9b 3d42 e30a f840 2da8 ff40
00000320: 641e 7141 5b1c 4141 4aa0 3240 363b 6c41
00000330: 0379 ec40 1a83 1841 de93 3f42 72b7 9340
00000340: f6d6 ea41 c3f3 a842 273d 2a41 cd39 6d41
00000350: 15e6 3142 4511 c440 710e 3640 b81d 6a42
00000360: 9d22 4c41 041a 1841 31de 0f41 0346 e041
00000370: 2132 0141 85f8 8a41 b658 b740 7b4d dc41
00000380: ed0b 8b42 e5ff d940 3b2c c741 0735 9440
00000390: c92a b841 cbc8 0c42 57c6 1740 e1d5 f140
000003a0: 9e73 de40 8000 c340 5067 f040 202d 0641
000003b0: dcd5 ab41 a670 d140 54cd 2541 1ab9 6341
000003c0: 760a 3642 b811 c140 b1db 9941 1031 8841
000003d0: 5dc2 1a41 6962 0441 2ca6 7540 551e 9a40
000003e0: 5d2a 8040 33a0 ba41 dd84 1342 3d24 9d42
000003f0: cee3 8241 f4b0 a240 49fa 7540 2bd6 0141

seq2.0.weight f4 [400, 304]
-0.023370225 0.013569828 -0.009567547 -0.051448375 -0.08347228 -0.028731754 -0.00076996477 -0.014851738
0.0046510273 0.031016111 0.02446607 0.0043953345 0.0038675712 -0.06317434 -0.030379457 0.024331985
-0.0014442322 -0.06154013 0.027094724 -0.012620725 -0.0392313 0.0034955454 -0.09373707 -0.047861297
-0.006126671 0.015657289 -0.018419845 0.034068786 0.01303369 -0.06760875 -0.033711944 -0.027141726
0.021381734 -3.8463855e-05 -0.050797157 -0.046282966 -0.06656402 -0.052652206 -0.0055377805 0.010223446
-0.032380823 -0.0651387 -0.010777048 0.031812783 0.024197329 -0.054963347 0.029776255 0.015508691
-0.040291384 -0.03617057 -0.061745487 0.0025305098 0.012490796 -0.025903663 -0.024477258 -0.03938176
-0.01758705 0.015466913 -0.06910771 -0.024159959 0.011829192 0.015869664 -0.07429856 -0.051941242
0.012110089 -0.051759865 0.011807262 -0.029988008 -0.018398877 -0.040904094 -0.028580686 -0.054669794
-0.06279459 0.014276181 -0.008357813 0.01833701 -0.05781017 0.003940829 -0.01592511 -0.047429875
-0.053632542 -0.025771232 -0.051875267 -0.020817898 -0.0026701922 0.017845573 -0.059851743 0.013251816
0.021277677 0.013575148 -0.01054517 -0.030152068 -0.059491247 0.010130646 0.03295832 0.025473705
0.028920954 -0.020188978 -0.05658588 0.0027408085 0.0014307788 -0.06643794 -0.019082705 -0.020531686
-0.018191619 -0.04172848 -0.005987139 -0.037919518 -0.018021965 -0.008864716 0.022240737 -0.027412646
0.02348554 -0.01768549 -0.085343614 -0.012840381 -0.044892535 -0.06486523 -0.018405082 -0.03204045
-0.0559831 -0.006807026 -0.06789953 0.035382655 -0.013840963 -0.033346288 -0.01047955 -0.030986594
-0.04542931 0.009374495 -0.0076223323 -0.0053269733 -0.0012480807 0.02055347 -0.013756212 -0.04394832
0.033715997 -0.0061283982 -0.042312894 -0.03272282 0.022351252 -0.013143282 -0.048270848 0.001813898
-0.035042215 -0.032171946 -0.016807785 0.019644795 -0.020395434 -0.033359632 -0.05209764 0.022232233
-0.0518777 -0.053872917 -0.044558402 -0.056551486 0.038128696 0.020200696 0.009202149 -0.033212055
0.009760821 -0.05687139 -0.041933175 0.001797434 -0.060087524 -0.02694547 -0.0057243733 0.026655952
-0.061766747 0.026626334 0.0034228808 -0.034278262 0.011193487 -0.035542622 -0.037683673 -0.061455388
-0.011248475 -0.007847059 -0.03874765 0.0015740353 -0.031164847 0.023621038 -0.021526087 -0.0132773025
0.040921923 -0.020541033 0.013839044 -0.0709886 -0.06985002 -0.018019764 0.03260136 -0.023322085
0.020089565 0.010311599 -0.026729833 0.02219269 0.0065438543 0.013763065 0.008452927 0.03296589
-0.05178982 -0.02543185 0.030670987 0.016267402 -0.00047311437 -0.023132686 0.017620642 -0.021064807
-0.0015316794 -0.04947579 0.010386463 0.036662802 0.004033456 -0.0076750033 -0.07389538 0.005692181
-0.044011075 -0.023799546 -0.050886504 -0.04553803 -0.036616087 -0.017650295 0.006588685 0.0058269924
0.014446925 -0.029800186 0.03454674 -0.05159997 -0.037965912 -0.0081596 -0.011953499 -0.026951324
-0.047839787 0.02295493 0.004159525 0.021739602 -0.056111727 -0.014131836 -0.059578545 -0.03363859
-0.029665373 0.002056924 0.019323617 -0.033964474 0.0008522069 0.015914015 -0.0007082226 -0.058597837
-0.05150236 0.015708633 -0.06084214 -0.05646269 -0.044735357 -0.057866473 -0.0012199737 0.055817276
00000000: ea72 bfbc fc53 5e3c 33c1 1cbc 88bb 52bd
00000010: 84f3 aabd db5e ebbc 76d7 49ba b454 73bc
00000020: a567 983b 8015 fe3c 116d c83c bd06 903b
00000030: 1477 7d3b 8c61 81bd 57de f8bc df53 c73c
00000040: 644c bdba 8111 7cbd c1f5 dd3c 28c7 4ebc
00000050: 00b1 20bd 8515 653b 39f9 bfbd 350a 44bd
00000060: 3ec2 c8bb b743 803c 37e5 96bc b68b 0b3d
00000070: 428b 553c 7576 8abd 8915 0abd 5358 debc
00000080: bf28 af3c 4054 21b8 ae10 50bd 3593 3dbd
00000090: b852 88bd d7a9 57bd 4576 b5bb 3e80 273c
000000a0: c1a1 04bd 7067 85bd 3792 30bc 1f4e 023d
000000b0: 7a39 c63c 3f21 61bd 55ed f33c 2a18 7e3c
000000c0: 9408 25bd 9727 14bd d6e8 7cbd e9d6 253b
000000d0: 32a6 4c3c eb33 d4bc 8884 c8bc c54e 21bd
000000e0: b812 90bc ef68 7d3c 5888 8dbd 1beb c5bc
000000f0: 3acf 413c 1901 823c d829 98bd 57c0 54bd
00000100: 6569 463c 2702 54bd 3f73 413c 69a9 f5bc
00000110: 3eb9 96bc 0d8b 27bd 0b22 eabc 6fed 5fbd
00000120: 739a 80bd a5e6 693c 35ef 08bc 7f37 963c
00000130: 5bca 6cbd 1222 813b 6075 82bc d445 42bd
00000140: ccad 5bbd 311e d3bc 297b 54bd 4c8a aabc
00000150: 64fe 2ebb e130 923c 1a27 75bd 251e 593c
00000160: 864e ae3c 4c6a 5e3c a6c5 2cbc 7801 f7bc
00000170: 18ad 73bd 02fb 253c 4eff 063d 3bae d03c
00000180: a3eb ec3c 5b63 a5bc 99c6 67bd 239f 333b
00000190: f888 bb3a 9d10 88bd 5553 9cbc 1132 a8bc
000001a0: 9706 95bc 7ceb 2abd c32f c4bb 7f51 1bbd
000001b0: cda2 93bc 503d 11bc 3532 b63c 7c90 e0bc
000001c0: bf64 c03c 29e1 90bc a2c8 aebd 7660 52bc
000001d0: 3ce1 37bd 10d8 84bd 41c6 96bc d93c 03bd
000001e0: 894e 65bd 790d dfbb e90e 8bbd 67ed 103d
000001f0: 35c5 62bc 1e96 08bd 6bb2 2bbc 99d7 fdbc
00000200: 1614 3abd 7b97 193c c2c4 f9bb e48d aebb
00000210: a496 a3ba c05f a83c bc61 61bc 2703 34bd
00000220: c919 0a3d bbd0 c8bb 4950 2dbd 5d08 06bd
00000230: f919 b73c ec56 57bc a7b7 45bd 51c0 ed3a
00000240: 6d88 0fbd bbc6 03bd 7bb0 89bc 1fee a03c
00000250: 5314 a7bc 1ca4 08bd 5664 55bd 5f20 b63c
00000260: b67d 54bd d9a9 5cbd df82 36bd 88a2 67bd
00000270: d62c 1c3d ee7b a53c 9cc4 163c 5d09 08bd
00000280: daeb 1f3c faf1 68bd 1fc2 2bbd e097 eb3a
00000290: 561e 76bd bfbc dcbc 8693 bbbb 955d da3c
000002a0: 21ff 7cbd 781f da3c 6952 603b 5d67 0cbd
000002b0: e364 373c 2495 11bd 325a 1abd a5b8 7bbd
000002c0: 864b 38bc f390 00bc dbb5 1ebd dc4f ce3a
000002d0: 6c4d ffbc e880 c13c 7a57 b0bc 0b89 59bc
000002e0: bf9d 273d ab45 a8bc 28bd 623c 7962 91bd
000002f0: 870d 8fbd 2f9e 93bc 0189 053d f50d bfbc
00000300: df92 a43c fbf1 283c 86f8 dabc 72cd b53c
00000310: d46d d63b 7b7e 613c 257e 0a3c 3e07 073d
00000320: 9021 54bd 7556 d0bc b941 fb3c 3743 853c
00000330: 560c f8b9 c280 bdbc 2a59 903c 1a90 acbc
00000340: a2c2 c8ba 20a7 4abd fc2b 2a3c bc2b 163d
00000350: 152b 843b 987e fbbb 7656 97bd 7a85 ba3b
00000360: f544 34bd 44f7 c2bc 5e6e 50bd 1686 3abd
00000370: c0fa 15bd 5a97 90bc e5e5 d73b 5bf0 be3b
00000380: ccb2 6c3c 851f f4bc e280 0d3d 7d5a 53bd
00000390: 2582 1bbd d8af 05bc 9cd8 43bc 06c9 dcbc
000003a0: a7f3 43bd fa0b bc3c a04c 883b 4017 b23c
000003b0: 69d5 65bd 3789 67bc a208 74bd 9ec8 09bd
000003c0: cc04 f3bc 75cd 063b 904c 9e3c 551e 0bbd
000003d0: a366 5f3a 1c5e 823c 04a8 39ba 4904 70bd
000003e0: 23f4 52bd 64af 803c 9c35 79bd 6c45 67bd
000003f0: 6c3c 37bd 6505 6dbd 86e7 9fba a8a0 643d

seq2.0.bias f4 [400]
-0.0058537554 -0.024195138 -0.102251254 -0.08719279 0.32485533 -0.7053691 -0.030949997 -0.03611764
-0.036080394 -0.076064184 -0.03902014 -0.4964911 0.02632483 -0.12099083 -0.013476377 -0.035580236
-0.089410104 -0.030130636 -0.019945439 -0.11379919 -0.02341706 -0.042042088 -0.059350736 0.021741172
0.5151589 -0.061346855 -0.06367937 -0.05806801 -0.022585403 0.095625564 -0.045481123 -0.007481139
0.44447556 -0.11599748 -0.06945145 -0.088292964 0.68199605 -0.019277198 -0.026344292 -0.042195622
-0.051362775 -0.36527875 -0.08321206 -0.040341955 -0.18437043 0.004163941 -0.054133926 -0.096852235
-0.04015666 -0.0064412057 -0.05373383 0.0024736887 -0.012714422 -0.08723425 -0.06687883 -0.060101103
-0.058146343 -0.023153145 -0.033775598 -0.025011865 -0.016060911 -0.053413518 -0.11283576 -0.057290778
0.58423877 -0.06696177 0.019263346 0.023917517 -0.03693925 -0.02428515 -0.09449842 -0.07899922
-0.07515104 -0.06768892 0.0109131215 -0.03941657 -0.2630726 0.5020736 -0.07276875 -0.114917874
-0.027340986 0.640172 -0.053212665 -0.06371248 -0.21077788 0.48370603 -0.040811405 -0.022101618
-0.0574619 -0.06450931 -0.10284852 -0.07627716 -0.0960801 -0.108312756 0.784806 -0.0071511744
-0.35932702 -0.12730628 -0.056322135 0.8339713 -0.07799635 -0.08544434 -0.023857538 -0.03578007
-0.034806285 -0.004177382 -0.055203095 -0.064218484 -0.10775407 -0.080838904 -0.091574475 -0.08630464
-0.063161924 -0.05102813 -0.04863824 -0.028233489 -0.07504163 -0.063493 0.016089259 -0.038381334
0.53364474 -0.024713548 0.03208806 -0.10013148 -0.013623401 -0.036065187 -0.06433874 0.0026103645
0.36692286 -0.03976942 -0.045906052 -0.01659219 0.7682383 0.003729142 -0.07294516 -0.12583554
0.91104186 -0.09416183 -0.07886003 -0.10031826 -0.10165936 -0.06038139 -0.09622613 -0.037199233
-0.066653006 -0.04717797 -0.074002326 -0.07786619 -0.023422915 -0.059938893 -0.041813437 -0.12595099
-0.6424022 0.0038199266 -0.05495722 -0.036378086 -0.05209483 -0.067462906 -0.0665751 -0.04843945
0.0026963172 -0.088982955 0.7759238 -0.04417158 -0.093064286 -0.032768033 -0.06936737 -0.017853452
-0.060953457 -0.05431512 -0.02806764 -0.13946936 0.01237459 0.02927058 -0.47618106 -0.084020406
-0.058479723 -0.07062507 -0.050234254 -0.078802675 -0.014283139 -0.068160996 -0.08191955 -0.57177615
-0.109401345 -0.037802324 0.0070512556 -0.07977332 -0.066886485 -0.08035177 -0.02463181 -0.07099182
-0.06918778 -0.021645926 -0.020252194 0.48233762 -0.0932461 -0.03315357 -0.06257582 -0.072012
-0.028881177 -0.0465791 -0.06968476 -0.06383286 -0.050532512 -0.05072781 -0.03118006 -0.043638654
-0.10864704 -0.26104882 0.69377625 0.0036829317 -0.04066181 -0.0012114102 -0.036656465 -0.5131173
-0.0010076804 -0.06971076 -0.045334112 -0.031448517 -0.07158339 -0.4864539 -0.07479836 -0.06869422
-0.017823484 -0.018007444 0.57157373 -0.051482614 0.4942908 0.68057716 0.6011559 -0.055265035
0.008927493 -0.031523347 -0.040969804 -0.48150876 -0.47984204 -0.099484175 0.0029225273 -0.080721
-0.022920439 -0.042982098 -0.08365238 -0.06389114 -0.6255282 -0.07100693 -0.059948113 -0.046260145
-0.0798542 0.47493622 -0.06125112 -0.046157796 -0.11623756 0.027455986 -0.034670338 -0.061208718
00000000: dcd0 bfbb e234 c6bc 1b69 d1bd 2292 b2bd
00000010: 7053 a63e 1293 34bf d98a fdbc 17f0 13bd
00000020: 09c9 13bd 8ac7 9bbd 95d3 1fbd 1534 febe
00000030: 2ba7 d73c 0aca f7bd 06cc 5cbc 95bc 11bd
00000040: a51c b7bd 86d4 f6bc 9e64 a3bc 8d0f e9bd
00000050: 22d5 bfbc 5334 2cbd c219 73bd 8b1a b23c
00000060: 74e1 033f d746 7bbd 546a 82bd b9d8 6dbd
00000070: 0605 b9bc 56d7 c33d 6a4a 3abd 5824 f5bb
00000080: 4d92 e33e 1690 edbd 903c 8ebd f1d2 b4bd
00000090: 4b97 2e3f 37eb 9dbc fccf d7bc 51d5 2cbd
000000a0: c661 52bd d105 bbbe 166b aabd 9b3d 25bd
000000b0: 9acb 3cbe ab71 883b 89bb 5dbd 775a c6bd
000000c0: 4f7b 24bd c010 d3bb 0118 5cbd 9c1d 223b
000000d0: 2750 50bc dfa7 b2bd c5f7 88bd 932c 76bd
000000e0: dc2a 6ebd aaab bdbc 4858 0abd afe5 ccbc
000000f0: 2c92 83bc 22c8 5abd 6f16 e7bd bca9 6abd
00000100: ac90 153f 4123 89bd 2ace 9d3c abee c33c
00000110: 9c4d 17bd a7f1 c6bc 6388 c1bd 58ca a1bd
00000120: cae8 99bd 7da0 8abd f3cc 323c 4573 21bd
00000130: 74b1 86be e587 003f c807 95bd 105a ebbd
00000140: 34fa dfbc 50e2 233f 86f5 59bd b07b 82bd
00000150: 28d6 57be 51a8 f73e dc29 27bd 740e b5bc
00000160: 2b5d 6bbd 751d 84bd 3fa2 d2bd 3337 9cbd
00000170: a5c5 c4bd 14d3 ddbd 0ce9 483f 6654 eabb
00000180: b6f9 b7be 945c 02be 0ab2 66bd 257f 553f
00000190: 8dbc 9fbd 71fd aebd e270 c3bc 1f8e 12bd
000001a0: 0991 0ebd 6ce2 88bb a41c 62bd fb84 83bd
000001b0: 2aae dcbd de8e a5bd 668b bbbd 7dc0 b0bd
000001c0: 0a5b 81bd df02 51bd e438 47bd eb49 e7bc
000001d0: 6daf 99bd 9e08 82bd 9fcd 833c bf35 1dbd
000001e0: f19c 083f 1174 cabc c56e 033d bc11 cdbd
000001f0: af34 5fbc 17b9 13bd 08c4 83bd a612 2b3b
00000200: 50dd bb3e 42e5 22bd fc07 3cbd 58ec 87bc
00000210: 44ab 443f 9f64 743b 4664 95bd 08db 00be
00000220: 0a3a 693f ebd7 c0bd 5e81 a1bd a973 cdbd
00000230: c832 d0bd 7a52 77bd 3512 c5bd 395e 18bd
00000240: 5f81 88bd b03d 41bd 888e 97bd 4f78 9fbd
00000250: 6ae1 bfbc 7c82 75bd 9144 2bbd 4cf9 00be
00000260: 7874 24bf bc57 7a3b d21a 61bd 3001 15bd
00000270: 6361 55bd fe29 8abd 8758 88bd 7268 46bd
00000280: b2b4 303b b23c b6bd f1a2 463f 42ed 34bd
00000290: 7d98 bebd c637 06bd 7b10 8ebd 6741 92bc
000002a0: 55aa 79bd 8879 5ebd 1bee e5bc 0ed1 0ebe
000002b0: cbbe 4a3c dbc8 ef3c 01ce f3be e412 acbd
000002c0: 6f88 6fbd e0a3 90bd 6fc2 4dbd 4c63 a1bd
000002d0: d403 6abc fe97 8bbd 70c5 a7bd ec5f 12bf
000002e0: d00d e0bd 9cd6 1abd 380e e73b 3260 a3bd
000002f0: c8fb 88bd 788f a4bd a6c8 c9bc 2964 91bd
00000300: 53b2 8dbd cc52 b1bc eee7 a5bc f5f4 f63e
00000310: d0f7 bebd 0acc 07bd c027 80bd 077b 93bd
00000320: 3898 ecbc bac9 3ebd e2b6 8ebd cdba 82bd
00000330: 2efb 4ebd f7c7 4fbd 536d ffbc 72be 32bd
00000340: 5782 debd 31a8 85be 529b 313f 575d 713b
00000350: 008d 26bd 2ec8 9eba 1725 16bd a85b 03bf
00000360: 2514 84ba 84c4 8ebd 43b0 39bd 29d0 00bd
00000370: 509a 92bd 7c10 f9be e22f 99bd 8eaf 8cbd
00000380: 8e02 92bc 5984 93bc a852 123f 6fdf 52bd
00000390: af13 fd3e 4e3a 2e3f 5ae5 193f 975d 62bd
000003a0: 9f44 123c a01e 01bd f4cf 27bd 5188 f6be
000003b0: dbad f5be 5cbe cbbd df87 3f3b 0d51 a5bd
000003c0: a5c3 bbbc ff0d 30bd f051 abbd 5cd9 82bd
000003d0: 9e22 20bf 156c 91bd 278c 75bd 477b 3dbd
000003e0: 998a a3bd d72a f33e 74e2 7abd f50f 3dbd
000003f0: f50d eebd 60eb e03c 7c02 0ebd feb5 7abd
