checkpoint_actor_normal.pth (torch, 536772 bytes, 10 tensors)

seq.0.weight f4 [300, 33]
0.20516932 0.17201221 0.4846921 0.036624465 -0.24088237 -0.26350948 0.36397493 -0.3824986
0.25728616 -0.76548874 -0.48454043 -0.6415326 0.095643125 0.38757974 -0.63300514 -0.17893173
-0.55194265 0.0008393029 0.48741406 -0.098172426 -0.22026093 0.015598079 0.6042343 -0.41285318
0.38803455 -0.938019 -0.32676676 0.045704044 0.3260469 0.03266085 -0.0018389428 0.028748706
0.29121804 0.52512527 2.0023925 0.120772995 -0.46895894 0.26777935 0.21316728 0.10793749
0.04498325 0.04887482 -0.43756026 0.12127138 0.28216776 0.18478993 -0.15155707 -0.7153773
0.18949433 -0.32607833 0.093339674 0.14269276 0.13394865 -0.117227234 -0.011179399 0.13256171
-0.010518102 0.048743654 0.40143377 -0.3369388 0.05421144 -0.21600056 -0.025524266 -0.028159093
-0.026105043 -1.7290361 -0.89173174 -0.4369345 0.3069277 0.04287314 -0.47509092 -0.14453205
-0.108882256 0.095445044 -0.41833267 -0.113338746 -0.08703511 -0.072530836 0.08279442 0.7248841
0.2772765 -0.62735957 0.0367427 0.034531545 -0.37266243 -0.18678583 -0.20322059 -0.3737952
-0.12719038 0.33479396 0.067930184 0.20742081 -0.24188703 -0.01878068 0.823096 0.019275717
-0.056945097 0.039834112 0.1969185 0.2624498 0.04866066 -0.796929 -0.28595138 0.2188341
-0.22731902 -0.05485111 -0.023563014 -0.00018748315 0.1566068 -0.015724273 0.03070784 -0.012831931
-0.44225875 0.10489673 0.96041286 0.06856653 0.060287282 -0.0031946257 -0.00088403275 0.005035644
0.013229795 -0.0013382989 -0.032279126 0.01359373 0.06965533 0.2650015 0.005674105 -0.5261359
-0.003763482 0.021430489 -0.046830036 0.19917278 -1.6637301 0.70467955 0.18621118 -0.6872035
-0.46460465 0.5896747 0.37841856 -0.12039963 -0.87361556 0.6352537 -0.01603264 0.43880215
-0.050422523 0.011462315 0.492344 0.41550252 0.26295537 0.23658879 -0.70971954 -0.28563726
0.29060638 -0.20364328 -0.2827085 0.1355263 0.45714244 -0.21826267 -0.23734055 0.048113182
-0.36634135 0.016390093 0.048026755 -0.018222138 -0.27547356 -0.1642439 -1.1209797 0.1383314
-0.4439465 -0.7641159 0.76266 0.11147716 0.09418958 0.057696663 0.42401114 0.10413785
0.01653687 -0.13404071 -0.55682343 0.7749315 -0.37634704 0.58701766 -0.23672123 -0.13764328
-0.11913076 -0.1614847 0.016766902 0.08327199 0.074824914 -0.08979204 -0.09235962 1.2617447
0.01911582 0.28906503 -0.052648306 0.034506477 -0.012750581 -0.76414853 -0.37862062 -0.5876071
-0.27013743 -0.43874216 0.35353944 -0.7656609 -0.19571699 0.01957856 0.13370171 0.44502196
0.10414256 -0.6885445 0.2891635 -0.421708 -1.0046767 -0.012757455 0.22160466 -0.083921984
0.29200208 0.60366535 -0.43137714 -0.43866065 0.11118468 0.764387 -0.5176366 0.07468665
-0.11512338 -0.013999906 0.02318423 -0.021354184 0.049995255 0.056055874 0.30918127 -0.3969393
-0.9478403 -0.121930964 -0.33859655 -0.4726125 -0.76199156 -0.86771464 0.06764592 -0.5404076
-0.3656563 -0.08824579 -0.012916675 -0.4191725 -0.25960448 1.2897568 -0.040359594 0.094466336
-0.37179098 -0.02832232 0.16510442 0.13137758 -0.14583835 0.3344278 -0.5844239 0.8482633
00000000: e817 523e f823 303e 9029 f83e 8903 163d
00000010: dea9 76be b7ea 86be ec5a ba3e dbd6 c3be
00000020: 03bb 833e 12f7 43bf af15 f8be 7b3b 24bf
00000030: 8be0 c33d da70 c63e a00c 22bf e139 37be
00000040: 1d4c 0dbf aa04 5c3a 568e f93e a00e c9bd
00000050: 158c 61be 168f 7f3c 19af 1a3f 7e61 d3be
00000060: 77ac c63e 0322 70bf f94d a7be 2a34 3b3d
00000070: 9fef a63e 62c7 053d ae08 f1ba 6882 eb3c
00000080: 881a 953e 9c6e 063f 3327 0040 d557 f73d
00000090: 631b f0be 601a 893e 8648 5a3e 550e dd3d
000000a0: 5b40 383d f730 483d e607 e0be 215d f83d
000000b0: 4b78 903e 9239 3d3e c731 1bbe f722 37bf
000000c0: cd0a 423e bdf3 a6be df28 bf3d 0d1e 123e
000000d0: d629 093e d514 f0bd cc29 37bc 42be 073e
000000e0: 1e54 2cbc 6da7 473d ba88 cd3e 3e83 acbe
000000f0: d10c 5e3d 402f 5dbe 4418 d1bc e6ad e6bc
00000100: 3eda d5bc 0e51 ddbf 8848 64bf e1b5 dfbe
00000110: a125 9d3e bf9b 2f3d 1e3f f3be 3600 14be
00000120: a9fd debd b178 c33d b32f d6be 251e e8bd
00000130: 773f b2bd 0c8b 94bd 1f90 a93d 0192 393f
00000140: 2ff7 8d3e a39a 20bf 837f 163d f370 0d3d
00000150: 9ccd bebe c944 3fbe 0f19 50be 1662 bfbe
00000160: 323e 02be 1d6a ab3e fb1e 8b3d 1f66 543e
00000170: 3cb1 77be f1d9 99bc 6bb6 523f 1ce8 9d3c
00000180: 433f 69bd 1829 233d 01a5 493e d25f 863e
00000190: 6650 473d 8a03 4cbf 3868 92be 0c16 603e
000001a0: 51c6 68be 8fab 60bd 3907 c1bc 2097 44b9
000001b0: 885d 203e 31d0 80bc 028f fb3c 053d 52bc
000001c0: bd6f e2be 19d4 d63d 9edd 753f 9c6c 8c3d
000001d0: ccef 763d ed5c 51bb 6fbe 67ba 0b02 a53b
000001e0: c8c1 583c dc69 afba 1e37 04bd 3cb8 5e3c
000001f0: 74a7 8e3d 47ae 873e d8ed b93b d8b0 06bf
00000200: c0a4 76bb fe8e af3c dad0 3fbd f3f3 4b3e
00000210: 1cf5 d4bf e165 343f 25ae 3e3e 92ec 2fbf
00000220: a9e0 edbe ecf4 163f 14c0 c13e 1594 f6bd
00000230: 45a5 5fbf fd9f 223f e256 83bc adaa e03e
00000240: d987 4ebd 6fcc 3b3c 8314 fc3e bfbc d43e
00000250: 16a2 863e 5544 723e 2eb0 35bf 0c3f 92be
00000260: 5cca 943e dd87 50be 2bbf 90be 68c7 0a3e
00000270: 930e ea3e 4080 5fbe 6709 73be 5412 453d
00000280: 1891 bbbe 8444 863c b4b7 443d 9846 95bc
00000290: df0a 8dbe 8e2f 28be 437c 8fbf bfa6 0d3e
000002a0: f54c e3be 1a9d 43bf b03d 433f 234e e43d
000002b0: 77e6 c03d 5653 6c3d fd17 d93e 3a46 d53d
000002c0: 5478 873c f841 09be fb8b 0ebf e961 463f
000002d0: 8fb0 c0be ca46 163f 0d67 72be 5cf2 0cbe
000002e0: d4fa f3bd 3f5c 25be be5a 893c 818a aa3d
000002f0: ce3d 993d e4e4 b7bd 0a27 bdbd da80 a13f
00000300: c898 9c3c 5500 943e c0a5 57bd aa56 0d3d
00000310: d0e7 50bc 3d9f 43bf 90da c1be 6b6d 16bf
00000320: 744f 8abe d0a2 e0be 1f03 b53e 5a02 44bf
00000330: 096a 48be 3763 a03c 1ae9 083e ebd9 e33e
00000340: b248 d53d 7444 30bf 3d0d 943e 1cea d7be
00000350: 3f99 80bf a504 51bc 55ec 623e 4adf abbd
00000360: 4c81 953e d089 1a3f 77dd dcbe 2198 e0be
00000370: cbb4 e33d deae 433f d583 04bf 50f5 983d
00000380: cfc5 ebbd dd5f 65bc dbec bd3c f8ee aebc
00000390: d3c7 4c3d d89a 653d 024d 9e3e a13b cbbe
000003a0: a9a5 72bf f1b6 f9bd 875c adbe 44fa f1be
000003b0: e111 43bf 8c22 5ebf f289 8a3d 2758 0abf
000003c0: 4d37 bbbe 35ba b4bd 76a0 53bc c79d d6be
000003d0: e1ea 84be c016 a53f 1a50 25bd 9177 c13d
000003e0: 635b bebe 3604 e8bc 2211 293e d887 063e
000003f0: a656 15be 1f3a ab3e ce9c 15bf c927 593f

seq.0.bias f4 [300]
-0.078686744 -0.14628474 -0.030125204 -0.077791646 -0.041705366 0.10564053 0.100964405 0.11349125
0.17381327 0.01192189 -0.092370264 -0.017983923 0.027963944 -0.062107023 0.13874352 0.09087844
-0.12644535 0.016442547 0.016325159 0.053774755 -0.115849055 0.17128928 -0.060087007 0.065463744
-0.086101264 0.059321295 -0.06050907 -0.092514634 -0.15578194 0.061456736 0.02388153 0.053778395
-0.095467225 0.037000064 -0.07115683 0.04832479 0.16263112 -0.14569134 0.06670604 -0.11216548
0.053416993 -0.037899736 0.07103444 -0.12982458 0.12228291 0.09823211 -0.11945732 -0.122853145
0.095043056 -0.13648917 0.06814056 -0.08603026 -0.15594204 0.05422878 -0.073105685 -0.11514071
0.052072484 0.08044625 0.14060763 0.16996275 0.060221598 -0.050217442 -0.02978147 0.13159993
-0.13537717 0.12515971 0.080290616 0.0668809 0.053824693 -0.14434327 0.06963013 -0.010587903
0.0023752993 -0.08079844 0.12576358 -0.029090209 0.0016922442 -0.14870836 0.13393988 -0.16169535
0.10779986 0.07637941 0.026542187 -0.16863665 -0.08032488 -0.0115792705 -0.1289851 -0.05623336
-0.03935296 -0.05444342 0.121183656 0.15926652 -0.0780493 0.08992376 0.010923976 0.12622273
-0.15179335 -0.086306155 -0.035303567 0.16727667 0.13783617 -0.047050867 -0.10713623 -0.08712151
0.021480609 0.039328657 -0.08797346 0.04915116 -0.020197503 0.12951185 -0.06649921 -0.097726665
0.026904156 0.009003975 0.09824649 0.1696084 -0.07007035 0.16201052 0.081680514 0.1476008
0.05333357 -0.025969911 0.02393268 0.004616233 -0.12857622 -0.05793221 0.13184233 0.034208562
0.046241973 0.017290303 0.03758031 -0.12102762 -0.03266049 -0.03674623 -0.05936765 -0.10988247
-0.01796213 -0.0039705494 -0.056935616 -0.042575367 -0.053610858 -0.0276497 -0.1390246 0.1416636
-0.09297735 0.090769805 -0.15333493 -0.007908695 -0.016053522 -0.14788952 0.00915746 -0.1299138
0.06136715 0.108944364 -0.026959851 0.028682355 -0.087089434 0.06305394 -0.16426973 0.17343226
-0.009832163 0.035924196 0.1472441 -0.1442325 -0.090665594 0.031489357 -0.17363663 0.039389797
-0.014786241 -0.16339459 -0.043340717 -0.12735663 0.016838482 0.12862149 0.16558841 -0.16274522
0.061544016 -0.13377897 0.062205363 0.09583549 -0.16585614 -0.1256401 -0.1560681 -0.016334772
0.063801415 -0.12813617 -0.011385649 -0.060535535 0.15810908 -0.15950222 -0.096501745 -0.0015322674
-0.13579556 0.1341268 -0.1605096 -0.056067016 -0.07294326 -0.0012225421 -0.0826469 0.12516628
-0.14972304 -0.091845006 -0.08004035 -0.16618547 -0.17241894 0.061312996 0.16369835 -0.026461527
-0.06761214 0.07615318 0.10257076 -0.15623769 -0.08322889 0.14721951 0.077606544 -0.16168515
0.0033872123 -0.13178249 -0.13458039 -0.08665777 0.17285396 -0.100507714 0.1192685 -0.15757604
-0.011890702 0.15767251 -0.039173312 -0.060134348 -0.07687546 -0.12576304 0.05590254 -0.1269223
-0.11063191 0.15137842 0.12920253 -0.09103018 0.00369806 -0.046917927 0.13259993 -0.15634805
-0.1565818 0.08481846 0.008299934 -0.051310323 0.08928499 0.07146292 -0.11840108 0.099717885
0.10101361 -0.024652464 -0.1509178 0.07310019 0.1034619 -0.17288695 -0.16117814 -0.020989738
00000000: 8426 a1bd abcb 15be 22c9 f6bc 3a51 9fbd
00000010: 3fd3 2abd 105a d83d 6dc6 ce3d 1a6e e83d
00000020: 1bfc 313e 0854 433c 9f2c bdbd 0553 93bc
00000030: a414 e53c ef63 7ebd c812 0e3e 7a1e ba3d
00000040: e47a 01be 85b2 863c 57bc 853c eb42 5c3d
00000050: 4542 edbd 7566 2f3e cb1d 76bd db11 863d
00000060: dc55 b0bd e3fa 723d 5cd8 77bd 5078 bdbd
00000070: 4d85 1fbe 0fba 7b3d 33a3 c33c bc46 5c3d
00000080: 5284 c3bd 618d 173d acba 91bd 37f0 453d
00000090: c688 263e 1c30 15be 2d9d 883d 04b7 e5bd
000000a0: c7cb 5a3d c13c 1bbd 817a 913d bcf0 04be
000000b0: 766f fa3d eb2d c93d 0aa6 f4bd 6e9a fbbd
000000c0: efa5 c23d d1c3 0bbe 478d 8b3d a230 b0bd
000000d0: 45af 1fbe ff1e 5e3d 6fb8 95bd e4ce ebbd
000000e0: f549 553d 01c1 a43d 72fb 0f3e b70a 2e3e
000000f0: ecaa 763d ceb0 4dbd 45f8 f3bc 22c2 063e
00000100: 50a0 0abe de29 003e 686f a43d daf8 883d
00000110: 4877 5c3d b9ce 13be 3e9a 8e3d e278 2dbc
00000120: e9aa 1b3b a779 a5bd 2bc8 003e 974e eebc
00000130: 4bce dd3a 0147 18be 8927 093e 7793 25be
00000140: 2cc6 dc3d cf6c 9c3d 006f d93c 16af 2cbe
00000150: 5f81 a4bd fbb6 3dbc ac14 04be f454 66bd
00000160: 9230 21bd 1000 5fbd 232f f83d c316 233e
00000170: 50d8 9fbd f329 b83d 7afa 323c 8840 013e
00000180: b76f 1bbe 48c1 b0bd 799a 10bd 934a 2b3e
00000190: ed24 0d3e 69b8 40bd 3d6a dbbd c36c b2bd
000001a0: 1af8 af3c 1617 213d 6e2b b4bd ba52 493d
000001b0: 3c75 a5bc c19e 043e bd30 88bd eb24 c8bd
000001c0: 1b66 dc3c 6985 133c 7535 c93d d3ad 2d3e
000001d0: 0b81 8fbd 16e6 253e 1d48 a73d aa24 173e
000001e0: 4d74 5a3d dabe d4bc 780e c43c c543 973b
000001f0: 7ca9 03be 534a 6dbd ad01 073e 471e 0c3d
00000200: 3968 3d3d 65a4 8d3c d0ed 193d 54dd f7bd
00000210: 02c7 05bd 3783 16bd 7e2b 73bd 0f0a e1bd
00000220: 5125 93bc 621b 82bb 5235 69bd 8263 2ebd
00000230: 0f97 5bbd a081 e2bc 775c 0ebe 4310 113e
00000240: e96a bebd 85e5 b93d d503 1dbe 7993 01bc
00000250: ad82 83bc 5a70 17be 2c09 163c 2008 05be
00000260: 1f5c 7b3d 391e df3d e8da dcbc 42f7 ea3c
00000270: f25b b2bd 6d22 813d 5336 28be 3a98 313e
00000280: 1517 21bc 4025 133d 28c7 163e afb1 13be
00000290: e2ae b9bd fcfa 003d cdcd 31be 3257 213d
000002a0: fd41 72bc e950 27be 0986 31bd c769 02be
000002b0: dbf0 893c 5ab5 033e 0290 293e afa6 26be
000002c0: 9415 7c3d 5bfd 08be 0dcb 7e3d 6645 c43d
000002d0: 31d6 29be cca7 00be 51d0 1fbe 80d0 85bc
000002e0: 51aa 823d 2136 03be e08a 3abc 1cf4 77bd
000002f0: 59e7 213e 8d54 23be b5a2 c5bd 5dd6 c8ba
00000300: fe0d 0bbe 8958 093e a15c 24be 87a6 65bd
00000310: 4763 95bd b53d a0ba c742 a9bd 972b 003e
00000320: ff50 19be 3c19 bcbd 32ec a3bd 862c 2abe
00000330: 978e 30be 5623 7b3d 8aa0 273e d8c5 d8bc
00000340: 3c78 8abd 33f6 9b3d 9e10 d23d c6fc 1fbe
00000350: e973 aabd b6c0 163e 2ef0 9e3d cb90 25be
00000360: fefb 5d3b fdf1 06be 71cf 09be a179 b1bd
00000370: a100 313e fdd6 cdbd 0b43 f43d 9d5b 21be
00000380: 38d1 42bc e774 213e 3274 20bd 6f4f 76bd
00000390: e270 9dbd 07c8 00be 10fa 643d ebf7 01be
000003a0: fc92 e2bd f202 1b3e ab4d 043e 086e babd
000003b0: 275b 723b 032d 40bd 47c8 073e b419 20be
000003c0: fb56 20be 4db5 ad3d 72fc 073c c62a 52bd
000003d0: 0ddb b63d 275b 923d 447c f2bd e438 cc3d
000003e0: 39e0 ce3d f7f3 c9bc 328a 1abe 8db5 953d
000003f0: d5e3 d33d 4709 31be e20b 25be acf2 abbc

seq.1.weight f4 [300]
0.66885895 0.83843815 1.0131586 1.1545423 0.97742325 0.97955567 0.5593999 0.74243253
1.1691879 0.7476653 1.0089517 0.59124136 0.92046285 0.7185478 0.5863545 1.2131683
0.48378867 1.0273831 0.7230243 0.7362856 0.9813995 0.6500385 0.7863428 0.94830054
0.4785333 0.7288418 0.60342485 1.1520823 0.5968004 1.0324343 0.70398796 1.1729848
0.7488343 0.9118354 0.6789 0.5847708 0.8712868 0.76630485 0.88199973 0.588375
0.8764169 0.85680723 0.66311187 0.60345227 0.73696464 1.1573125 1.039129 0.773636
0.8534248 0.9139073 0.68610346 0.9551714 0.71005034 1.0256646 0.5187125 0.74463344
1.6620455 0.504389 0.570422 0.8587503 0.9353622 0.8281878 0.9458495 0.83837944
0.785207 0.970353 0.6839395 0.8307736 0.7966362 0.9291375 1.0250173 0.754245
0.62292004 0.6449986 0.4159477 0.78140324 0.7866888 0.7358584 0.6899524 1.5168993
0.55883247 1.0253403 0.5269802 0.89920825 0.5151682 0.7893146 0.6544354 0.9593353
0.79917824 0.7835735 0.6555619 0.63683873 1.1166587 0.76946056 0.73796403 1.0016038
0.7104887 0.72213864 1.1404967 0.6774707 0.9906591 0.9741043 0.46014428 0.67459655
0.82921505 0.7074459 0.7418881 0.65325487 0.6376882 0.95356786 0.62418866 0.9249522
1.4823977 1.054267 0.7765879 0.8153368 0.7018854 0.5104794 0.7656262 1.6410649
1.1256185 0.83406687 0.6938976 0.8689559 1.0296992 0.6641553 0.5783389 1.0636818
0.5442105 1.1406236 0.73640573 0.87748444 0.75949025 1.8011779 0.7223965 0.6819507
1.1793865 1.409603 0.7019529 0.980096 0.61111766 0.2507208 0.7696505 0.88420665
0.92195266 0.9632573 0.93194824 0.87161744 0.771063 1.0076641 0.49529234 0.67229915
0.88736564 0.9172068 0.7181296 0.73981327 0.5630159 0.66043943 0.8633663 0.590283
0.61165035 0.912045 0.7329148 0.7236173 0.6270681 1.0368624 0.8934626 0.8562326
0.8073746 1.0920991 0.62549984 0.8530542 0.5763199 1.2393246 0.53714764 0.60162395
1.0712483 0.93916357 0.9354898 0.55461717 0.86050344 0.9248363 1.0988015 0.6200448
0.805021 1.1647934 1.4359878 0.6905731 0.7183638 0.9748103 0.87815773 0.68306696
0.58267146 0.7576362 0.48012435 0.88876855 0.7730172 0.92541003 0.8035301 0.9966988
0.7371313 0.66098785 0.82037663 0.55030614 0.97933936 0.81904393 1.0076226 0.7657622
0.5825447 0.8336884 0.6887047 1.2364831 0.5581852 0.5512057 0.9552255 0.6218075
0.59049547 0.7058507 0.6138942 1.1954603 0.61786515 0.85568357 0.9803223 1.3239082
0.56061834 0.72545314 0.67320687 0.7340422 0.45302024 0.60548645 0.79836714 0.8280423
0.89017147 0.76162004 0.7907301 0.6650766 0.950961 1.2253124 0.9303145 0.8342871
0.71414614 1.72157 0.5961672 1.5230644 0.57231367 0.7590195 0.58440924 1.1109363
0.8386527 0.6828406 0.8527583 0.9125413 1.2814056 0.5412721 0.89600223 0.64407766
00000000: 573a 2b3f e2a3 563f 2eaf 813f 0bc8 933f
00000010: 6938 7a3f 29c4 7a3f d534 0f3f 0f10 3e3f
00000020: f3a7 953f fe66 3f3f 5425 813f 985b 173f
00000030: 74a3 6b3f c0f2 373f 541b 163f 1949 9b3f
00000040: 26b3 f73e 4a81 833f 1f18 393f 377d 3c3f
00000050: ff3c 7b3f ec68 263f c34d 493f d3c3 723f
00000060: 5102 f53e 6095 3a3f 0d7a 1a3f 6f77 933f
00000070: e9c7 183f cf26 843f 8e38 343f 5e24 963f
00000080: 9bb3 3f3f 0b6e 693f 64cc 2d3f 8ab3 153f
00000090: a70c 5f3f 8e2c 443f bcca 613f be9f 163f
000000a0: dc5c 603f b857 5b3f b3c1 293f d97b 1a3f
000000b0: b7a9 3c3f d122 943f 2e02 853f 020d 463f
000000c0: 0c7a 5a3f d4f5 693f 7aa4 2f3f 1d86 743f
000000d0: dcc5 353f fa48 833f 58ca 043f 4ca0 3e3f
000000e0: e8bd d43f a31f 013f 2d07 123f 0fd7 5b3f
000000f0: e673 6f3f 1e04 543f 3123 723f 09a0 563f
00000100: 5303 493f 0e69 783f a916 2f3f 94ad 543f
00000110: 5af0 4b3f f5db 6d3f c433 833f 3316 413f
00000120: b077 1f3f a11e 253f 19f7 d43e 0b0a 483f
00000130: 7064 493f 3761 3c3f b8a0 303f c229 c23f
00000140: a50f 0f3f 5a3e 833f 2de8 063f 8332 663f
00000150: 10e2 033f 8610 4a3f 1489 273f 0097 753f
00000160: f296 4c3f 4698 483f e8d2 273f dd07 233f
00000170: acee 8e3f 5efb 443f 36eb 3c3f 8e34 803f
00000180: 96e2 353f 14de 383f ccfb 913f b86e 2d3f
00000190: d69b 7d3f e65e 793f 0898 eb3e 5cb2 2c3f
000001a0: 7047 543f 2d1b 353f 61ec 3d3f b63b 273f
000001b0: 893f 233f 061d 743f d4ca 1f3f abc9 6c3f
000001c0: 35bf bd3f 39f2 863f 77ce 463f eab9 503f
000001d0: c3ae 333f c7ae 023f 1400 443f 6a0e d23f
000001e0: 4414 903f 6885 553f 46a3 313f e573 5e3f
000001f0: 2fcd 833f 1506 2a3f 050e 143f ba26 883f
00000200: 6151 0b3f f4ff 913f 1685 3c3f d2a2 603f
00000210: f46d 423f ff8c e63f faee 383f 5294 2e3f
00000220: 23f6 963f df6d b43f 2fb3 333f 92e7 7a3f
00000230: 3572 1c3f 7a5e 803e d107 453f 5e5b 623f
00000240: 1705 6c3f 0898 763f 2994 6e3f 5222 5f3f
00000250: 6364 453f 23fb 803f f596 fd3e cc1b 2c3f
00000260: 652a 633f 11ce 6a3f 57d7 373f 6764 3d3f
00000270: cf21 103f 8f12 293f 9305 5d3f c91c 173f
00000280: 1e95 1c3f c87b 693f 4ea0 3b3f fc3e 393f
00000290: 8987 203f e8b7 843f f7b9 643f 0f32 5b3f
000002a0: 1ab0 4e3f e7c9 8b3f c220 203f c361 5a3f
000002b0: b389 133f 30a2 9e3f 8282 093f 0704 1a3f
000002c0: aa1e 893f 066d 703f 427c 6f3f 64fb 0d3f
000002d0: f449 5c3f 12c2 6c3f 87a5 8c3f 42bb 1e3f
000002e0: db15 4e3f f317 953f 73ce b73f 66c9 303f
000002f0: b1e6 373f 2b8d 793f f2ce 603f 7add 2e3f
00000300: f529 153f 72f4 413f dcd2 f53e 5686 633f
00000310: 75e4 453f ace7 6c3f 26b4 4d3f a727 7f3f
00000320: a3b4 3c3f 8036 293f 3404 523f dde0 0c3f
00000330: fcb5 7a3f ddac 513f c7f9 803f fe08 443f
00000340: a621 153f 9a6c 553f f44e 303f 1445 9e3f
00000350: 3ae5 0e3f d11b 0d3f a989 743f c72e 1f3f
00000360: b62a 173f a2b2 343f 2c28 1d3f d804 993f
00000370: 692c 1e3f 140e 5b3f 67f6 7a3f d375 a93f
00000380: af84 0f3f 4cb7 393f 4957 2c3f 31ea 3b3f
00000390: 45f2 e73e 2901 1b3f ca61 4c3f 95fa 533f
000003a0: 47e2 633f 88f9 423f 4a6d 4a3f 7642 2a3f
000003b0: 2e72 733f 09d7 9c3f 1729 6e3f d793 553f
000003c0: 48d2 363f 685c dc3f 6a9e 183f c6f3 c23f
000003d0: 2683 123f 1a4f 423f d89b 153f 2933 8e3f
000003e0: f1b1 563f a4ce 2e3f 5e4e 5a3f 4e9c 693f
000003f0: 1905 a43f cf90 0a3f 6760 653f 46e2 243f

seq.1.bias f4 [300]
-0.8109525 -1.0485735 -1.164008 -1.5010028 -1.2753903 -0.9201992 -1.3307966 -0.8351878
-1.2855887 -0.77361995 -0.99624723 -0.7193193 -0.79167014 -0.95255053 -1.2403202 -0.7448307
-0.31976688 -1.0662986 -0.62240213 -0.6488996 -1.1503706 -1.2422292 -0.98397076 -1.0027587
-0.6303013 -0.99704313 -0.56299007 -0.7483006 -0.6200577 -0.929108 -0.8019194 -1.0736291
-0.70069647 -0.9767208 -1.0905647 -0.89240354 -0.65071136 -1.5737841 -1.4413828 -0.9246614
-0.76860917 -1.041323 -1.1927556 -0.9445696 -1.0337052 -1.2247554 -1.210024 -0.849059
-1.0279201 -1.0415518 -0.72518855 -1.0094442 -0.9836228 -1.0211923 -0.4691878 -0.6916368
-0.97033244 -0.21935095 -0.92590964 -0.44540626 -1.0731542 -0.87127346 -0.38419837 -0.6520871
-0.86860657 -1.2698089 -0.9630236 -0.984754 -1.1659194 -1.3342127 -1.0888789 -0.7711848
-0.94538134 -1.0366715 -0.4698853 -0.93210465 -1.1135194 -1.4610058 -0.63835156 -1.1701493
-0.18768755 -1.0139059 -0.53358215 -1.0776622 -0.84285307 -0.8022337 -0.89120734 -0.42073005
-0.8611511 -0.8056379 -0.5727356 -0.5266393 -1.1508294 -0.7317406 -1.0442852 -0.9520763
-0.8002889 -0.87046593 -1.2771432 -0.85626 -1.0789353 -1.1714836 0.10994782 -1.1397617
-0.7889632 -0.98462605 -1.0623395 -0.78019136 -0.9025486 -1.0826313 -0.63147974 -1.0037013
-1.4774063 -1.0727333 -0.78551966 -0.70737493 -0.43838096 -0.11076439 -1.015403 -1.1705201
-0.76732165 -0.9117916 -0.61274713 -0.98319674 -1.1644793 -0.7309044 -0.81069785 -0.39516202
-0.82151026 -0.73117983 -0.9740764 -0.57194096 -1.098472 -0.8434255 0.0106923 -0.4145269
-0.8698463 -0.9422628 -0.93601906 -1.1553749 -0.7450126 0.05953909 -1.0000374 -0.97442096
-0.7755603 -0.86721796 -0.97982126 -0.90888363 -1.2144741 -0.6613841 -0.35105982 -1.2816375
-1.0784576 -0.97828406 -0.59666705 -0.76767385 -0.3604542 -0.7105183 -1.0484155 -0.784636
-0.375459 -0.17833324 -0.31685877 -1.0451903 -0.9654669 -0.5404663 -0.9679229 -0.7793223
-1.1384943 -0.9661973 -0.6752859 -0.33057475 -0.5355206 -0.7587552 -0.69330215 -1.051305
-0.9671026 -1.3735355 -1.043471 -1.2040926 -1.0727032 -1.238051 -1.4203783 -0.31694368
-1.2690734 -0.8124335 -1.4078951 -0.48205715 -0.5665251 -0.8947743 -0.7969283 -0.72458977
-0.94110334 -0.39650965 0.5297599 -0.9831864 -0.7955968 -1.2150656 -0.7697798 -1.1337125
-1.0048977 -0.7069216 -1.0349929 -0.33776498 -1.3376734 -1.3015573 -1.0142452 -0.70962167
-0.62989193 -1.0455993 -0.6864838 -0.9868656 -0.50941217 -0.8744025 -1.0258849 -0.9394515
-0.6707533 -1.2251878 -0.7707133 -1.1646106 -1.1853122 -1.1627749 -0.55731153 -0.91099596
-0.60742605 -0.64439833 -0.6214228 -0.80557334 -0.5666036 -0.6257031 -0.7704231 -1.2079498
-0.87990004 -0.18078601 -0.64135706 -1.1123362 -1.274818 -1.2697321 -1.1661165 -1.0310074
-0.15172346 -1.0889649 -0.5626344 -0.6239774 -0.33074126 -0.76116896 -0.6361537 -1.1759284
-1.3791285 -0.6177157 -0.76533675 -0.89922965 -1.0082301 -0.6014241 -0.860936 -0.7254629
00000000: 959a 4fbf a837 86bf 37fe 94bf dc20 c0bf
00000010: fd3f a3bf 2d92 6bbf 8b57 aabf dece 55bf
00000020: 2c8e a4bf f50b 46bf 0f0a 7fbf 4f25 38bf
00000030: e5aa 4abf 5ada 73bf d0c2 9ebf 3aad 3ebf
00000040: 7cb8 a3be 797c 88bf bf55 1fbf 491e 26bf
00000050: 583f 93bf 5e01 9fbf 82e5 7bbf 665a 80bf
00000060: 6d5b 21bf 383e 7fbf 1e20 10bf a190 3fbf
00000070: 1abc 1ebf 06da 6dbf 974a 4dbf ae6c 89bf
00000080: d860 33bf 600a 7abf a097 8bbf 8f74 64bf
00000090: 0595 26bf c271 c9bf 3b7f b8bf 9cb6 6cbf
000000a0: 92c3 44bf 124a 85bf 37ac 98bf 50cf 71bf
000000b0: 7450 84bf c9c4 9cbf 11e2 9abf ee5b 59bf
000000c0: e392 83bf 9251 85bf f5a5 39bf 7835 81bf
000000d0: b4ce 7bbf 6eb6 82bf 6239 f0be 1c0f 31bf
000000e0: b567 78bf 899d 60be 6a08 6dbf 4a0c e4be
000000f0: 1e5d 89bf c70b 5fbf a6b5 c4be 2eef 26bf
00000100: 005d 5ebf 1989 a2bf b788 76bf d718 7cbf
00000110: d93c 95bf 7bc7 aabf 6260 8bbf 5e6c 45bf
00000120: 8304 72bf a7b1 84bf ce94 f0be 699e 6ebf
00000130: ce87 8ebf 3d02 bbbf 026b 23bf 74c7 95bf
00000140: 2a31 40be abc7 81bf d798 08bf d6f0 89bf
00000150: 38c5 57bf 305f 4dbf 2a26 64bf ee69 d7be
00000160: 6674 5cbf 493e 4ebf cd9e 12bf d5d1 06bf
00000170: 614e 93bf 5a53 3bbf 23ab 85bf 46bb 73bf
00000180: bcdf 4cbf dbd6 5ebf 6e79 a3bf db33 5bbf
00000190: 8d1a 8abf 2df3 95bf 532c e13d b6e3 91bf
000001a0: 7ef9 49bf 7410 7cbf befa 87bf 9fba 47bf
000001b0: 6d0d 67bf aa93 8abf a8a8 21bf 4979 80bf
000001c0: a61b bdbf 534f 89bf d117 49bf 8616 35bf
000001d0: 7873 e0be 71d8 e2bd baf8 81bf 9ad3 95bf
000001e0: 316f 44bf 2d6b 69bf ffdc 1cbf c8b2 7bbf
000001f0: a80d 95bf 8d1c 3bbf e589 4fbf ad52 cabe
00000200: 7f4e 52bf 9a2e 3bbf 125d 79bf b96a 12bf
00000210: bb9a 8cbf bcea 57bf c22e 2f3c df3c d4be
00000220: 3fae 5ebf 2338 71bf f29e 6fbf 53e3 93bf
00000230: 25b9 3ebf 43df 733d 3a01 80bf a773 79bf
00000240: 1f8b 46bf ff01 5ebf 91d5 7abf 99ac 68bf
00000250: e373 9bbf 7850 29bf 1dbe b3be b30c a4bf
00000260: e60a 8abf d370 7abf 2cbf 18bf 4686 44bf
00000270: 748d b8be 87e4 35bf 7b32 86bf e8dd 48bf
00000280: 293c c0be fd9c 36be 503b a2be ccc8 85bf
00000290: d728 77bf 005c 0abf ccc9 77bf ab81 47bf
000002a0: 2eba 91bf b558 77bf 89df 2cbf 1841 a9be
000002b0: e117 09bf c83d 42bf 407c 31bf 2a91 86bf
000002c0: 0994 77bf 03d0 afbf 7590 85bf b51f 9abf
000002d0: 574e 89bf 7578 9ebf f5ce b5bf 7146 a2be
000002e0: ff70 a2bf a4fb 4fbf e835 b4bf 32d0 f6be
000002f0: ca07 11bf ee0f 65bf 7e03 4cbf b77e 39bf
00000300: 26ec 70bf 5003 cbbe 589e 073f 1bb2 7bbf
00000310: 3bac 4bbf 4587 9bbf 4a10 45bf 7e1d 91bf
00000320: 7da0 80bf d0f8 34bf a67a 84bf 88ef acbe
00000330: e238 abbf 6e99 a6bf c9d2 81bf c4a9 35bf
00000340: 9940 21bf 33d6 85bf 67bd 2fbf 39a3 7cbf
00000350: d668 02bf d8d8 5fbf 3250 83bf e57f 70bf
00000360: 7db6 2bbf f4d2 9cbf 784d 45bf f611 95bf
00000370: 4fb8 97bf cfd5 94bf f8ab 0ebf 0837 69bf
00000380: 4680 1bbf 4af7 24bf 9115 1fbf 0e3a 4ebf
00000390: ef0c 11bf 142e 20bf 733a 45bf 199e 9abf
000003a0: 2141 61bf f81f 39be fa2f 24bf 0861 8ebf
000003b0: 3c2d a3bf 9586 a2bf 4e43 95bf 0df8 83bf
000003c0: 655d 1bbe 3463 8bbf cf08 10bf fcbc 1fbf
000003d0: eb56 a9be f8db 42bf f8da 22bf d284 96bf
000003e0: 4887 b0bf 9e22 1ebf 1ced 43bf ea33 66bf
000003f0: af0d 81bf eef6 19bf 4d66 5cbf f0b7 39bf

seq.1.running_mean f4 [300]
1.2125509 -4.12454 0.41275504 -0.578732 -2.7039301 0.91466516 4.007004 -0.92544216
-0.31982985 2.6107242 -0.53165555 2.3588035 0.41039664 0.39882344 1.1439059 -1.459215
2.4927137 -0.63958067 1.7111233 -1.7242638 -1.8333849 -5.285298 -2.717342 0.7696449
-0.27138442 -1.5154967 -2.2829318 0.3739473 2.4000642 0.77075356 -0.45653507 -0.32987428
0.7894998 0.4306823 -4.7132945 -1.9896446 0.5307685 -0.09336779 -0.7769066 0.64976126
-2.7651465 0.7461368 -3.5799332 -1.9087762 -1.7538161 0.311848 -0.42664653 -0.7603307
-0.58299446 -2.3553581 2.5581174 -1.1191361 1.4371254 -0.24588081 4.4819865 -0.6003252
0.55424213 1.9375803 5.1707764 -0.55534077 0.013836685 -1.2176759 1.3005593 -0.8485663
-4.9405823 -0.586652 2.450352 -0.868383 -1.582983 0.64459175 -0.6478099 1.3400037
-1.3105627 0.523918 -3.2378502 1.5037977 -3.261568 -1.3262606 -0.58248246 0.10533368
2.4386015 -0.7163523 2.3330493 -1.0113466 2.45718 -1.219973 -1.584472 1.5780513
-2.8393788 0.7485021 2.320208 -0.98968995 -0.24791096 -1.3831719 0.23854697 -0.26202133
-1.5315801 0.010486096 -1.66854 -0.21375294 -1.90789 1.6327696 2.0800188 -4.044473
-3.5230556 1.0390016 -0.7117644 4.8507624 -2.8991923 -1.5551975 -5.6039104 -1.7842436
-0.9180593 -3.5994446 1.8786026 0.9155804 0.66144747 -1.463057 -3.095902 0.24905063
-1.0047622 3.3636239 -2.7962031 -1.0172474 -0.8599938 -0.25030416 0.852728 1.8535968
-2.6312346 0.3431778 -3.4242764 1.3306621 -4.0491643 -0.27415428 -0.6269494 0.19223702
0.33382195 -0.3377841 -0.86036223 0.63564914 -1.3247572 1.2467358 -0.8085492 -0.86029536
-1.7342732 -2.883048 -0.57963014 -0.8960777 -7.4230595 -0.36781487 1.4967482 -0.9516865
-7.359267 0.15278746 -0.13299005 2.4756722 -0.46448135 1.2484137 0.7497234 0.33777732
1.1950368 0.37240052 1.403759 -4.8157434 -1.536194 0.9109724 1.236733 0.013346424
-0.74859923 -1.7708864 2.604366 1.736741 -0.06415643 -0.45089597 -2.8180566 -2.101526
-0.35100895 -2.0724933 -0.8147739 2.3242002 1.230089 -0.23608992 -1.1983433 -1.5640814
-4.895438 -0.16320685 -0.52586937 0.24978104 2.4145079 -0.3243178 3.6093907 -5.3631835
2.4341369 -0.84338504 2.0352705 -0.49357194 -0.8366597 -1.2712648 1.9697106 -0.93498415
-0.6183151 -0.3908974 -3.6812043 -0.8211902 -3.4018304 0.5565373 0.019673508 1.1852365
1.5610855 -2.8410723 0.4959389 -0.29035854 -0.98526835 -4.879235 -0.67305255 2.4614465
3.1738577 0.8400873 0.54763746 0.19057995 -5.1861243 -2.856096 -1.239263 -1.2691987
2.840987 -0.6414832 1.7282355 0.37247562 1.7819958 -0.45571244 0.34530902 -1.7605138
0.06978988 1.5101043 0.26950446 1.5993191 -2.9690714 -0.16266434 2.7603273 -3.9560575
1.0582774 0.059481665 0.27168748 -0.1848326 3.2408152 3.3291366 2.9579864 -0.2838795
-1.4939332 -1.5400265 1.1539316 1.3878791 0.7771759 -0.84692353 -1.5051174 3.716141
00000000: de34 9b3f 3bfc 83c0 a154 d33e c827 14bf
00000010: 310d 2dc0 7f27 6a3f 6039 8040 c7e9 6cbf
00000020: bdc0 a3be 1b16 2740 941a 08bf a3f6 1640
00000030: 821f d23e 9632 cc3e 826b 923f 8fc7 babf
00000040: 9f88 1f40 8fbb 23bf 1706 db3f adb4 dcbf
00000050: 5bac eabf 2921 a9c0 eee8 2dc0 7307 453f
00000060: e6f2 8abe ccfb c1bf 8e1b 12c0 0576 bf3e
00000070: a79a 1940 1b50 453f f7be e9be 48e5 a8be
00000080: a91c 4a3f 6482 dc3e 4fd3 96c0 adac febf
00000090: 72e0 073f 9d37 bfbd 5ae3 46bf c156 263f
000000a0: 29f8 30c0 d202 3f3f a01d 65c0 c752 f4bf
000000b0: 0c7d e0bf 8baa 9f3e 6a71 dabe 08a5 42bf
000000c0: 203f 15bf 30be 16c0 32b8 2340 da3f 8fbf
000000d0: baf3 b73f 2ec8 7bbe 6f6c 8f40 eaae 19bf
000000e0: d0e2 0d3f a202 f83f 0077 a540 d02a 0ebf
000000f0: 43b3 623c cedc 9bbf ba78 a63f a43b 59bf
00000100: 4019 9ec0 d32e 16bf 91d2 1c40 594e 5ebf
00000110: 309f cabf f703 253f dfd6 25bf 3e85 ab3f
00000120: 85c0 a7bf 7d1f 063f f038 4fc0 717c c03f
00000130: 88bd 50c0 e8c2 a9bf 921d 15bf 2fb9 d73d
00000140: 0c12 1c40 dd62 37bf ae50 1540 ce73 81bf
00000150: 7042 1d40 1328 9cbf facf cabf 96fd c93f
00000160: 62b8 35c0 d59d 3f3f 4a7e 1440 525c 7dbf
00000170: 5fdc 7dbe c70b b1bf a845 743e a927 86be
00000180: d10a c4bf e0cd 2b3c b892 d5bf 0de2 5abe
00000190: bd35 f4bf 98fe d03f 071f 0540 536c 81c0
000001a0: be79 61c0 01fe 843f 3136 36bf 7239 9b40
000001b0: 5e8c 39c0 b610 c7bf 3c53 b3c0 1862 e4bf
000001c0: ef05 6bbf 4d5d 66c0 0d76 f03f 7a63 6a3f
000001d0: 9f54 293f 7445 bbbf 4223 46c0 2107 7f3e
000001e0: 0c9c 80bf 9d45 5740 fef4 32c0 2a35 82bf
000001f0: 8e28 5cbf de27 80be 624c 5a3f a942 ed3f
00000200: 2666 28c0 00b5 af3e 5827 5bc0 2353 aa3f
00000210: c192 81c0 f35d 8cbe c27f 20bf c8d9 443e
00000220: b6ea aa3e 0af2 acbe b340 5cbf e7b9 223f
00000230: a591 a9bf 0a95 9f3f 15fd 4ebf 513c 5cbf
00000240: aafc ddbf dc83 38c0 a462 14bf 5965 65bf
00000250: b489 edc0 3b52 bcbe 7295 bf3f baa1 73bf
00000260: 1e7f ebc0 5174 1c3e 8b2e 08be 6a71 1e40
00000270: 80d0 edbe 05cc 9f3f dfed 3f3f 26f1 ac3e
00000280: f7f6 983f 48ab be3e 60ae b33f 921a 9ac0
00000290: 01a2 c4bf 7d35 693f 444d 9e3f f6aa 5a3c
000002a0: 33a4 3fbf 68ac e2bf efad 2640 874d de3f
000002b0: 7264 83bd d6db e6be 0a5b 34c0 677f 06c0
000002c0: 72b7 b3be bba3 04c0 0695 50bf b2bf 1440
000002d0: 8e73 9d3f 8ec1 71be 5063 99bf d233 c8bf
000002e0: 6ea7 9cc0 b21f 27be 609f 06bf 9ac6 7f3e
000002f0: 4c87 1a40 fc0c a6be 4200 6740 339f abc0
00000300: e6c8 1b40 15e8 57bf df41 0240 76b5 fcbe
00000310: 552f 56bf ceb8 a2bf 7a1f fc3f 1f5b 6fbf
00000320: e649 1ebf b423 c8be da98 6bc0 8539 52bf
00000330: 97b7 59c0 3a79 0e3f 562a a13c d4b5 973f
00000340: a6d1 c73f 21d4 35c0 b4eb fd3e e0a9 94be
00000350: 8c3a 7cbf b122 9cc0 2c4d 2cbf 5788 1d40
00000360: 7c20 4b40 f60f 573f f831 0c3f 6427 433e
00000370: bbf4 a5c0 47ca 36c0 2ca0 9ebf 1a75 a2bf
00000380: bbd2 3540 3e38 24bf d236 dd3f 20b5 be3e
00000390: 7018 e43f 2453 e9be 58cc b03e 8458 e1bf
000003a0: ffed 8e3d 194b c13f 7dfc 893e 7db6 cc3f
000003b0: 4405 3ec0 7b91 26be 34a9 3040 0c30 7dc0
000003c0: a275 873f 0ca3 733d 9f1a 8b3e c244 3dbe
000003d0: 8469 4f40 9310 5540 a64f 3d40 a758 91be
000003e0: 3439 bfbf 971f c5bf 08b4 933f 06a6 b13f
000003f0: 00f5 463f fbcf 58bf b0a7 c0bf 41d5 6d40

seq.1.running_var f4 [300]
18.088017 6.244119 7.200629 0.5735797 22.161676 19.889261 17.28774 13.439033
14.104091 17.708738 9.038552 14.3981495 11.075142 5.481092 11.182527 6.2572365
14.710071 1.9050027 9.813502 21.240335 19.42712 7.8816824 13.167236 24.114376
4.8650293 26.36429 7.1720705 5.4098864 3.294558 10.058907 9.193969 12.1916
18.70886 19.191967 24.99433 13.490304 14.325421 21.083805 7.7980967 18.821316
11.287508 11.436991 20.401102 5.711485 7.0266976 20.366684 1.7505196 10.497345
30.08915 38.87742 14.950243 24.34634 21.378326 9.744252 7.499085 5.466554
8.751711 14.604778 17.098362 3.5651329 36.237846 27.450056 11.7185755 61.10897
34.686825 35.370472 37.822582 43.158478 25.472408 6.7434616 13.076416 10.140889
11.468246 10.116803 18.02817 37.417637 29.749508 5.0177193 5.856892 6.5712514
14.407606 8.347504 17.799244 15.655379 9.0057335 13.25606 54.40428 48.193134
13.320046 62.02906 73.694115 30.080494 11.282046 18.383684 9.345687 2.5217125
18.90747 48.855907 11.839227 41.729454 40.028717 26.567045 6.3918805 17.447702
47.469135 29.015106 21.049225 22.147121 29.915178 31.229986 27.131763 15.930143
10.470141 45.952026 38.854065 15.3185625 55.849922 5.592771 24.012169 12.866905
8.243531 45.287106 16.50767 9.512117 8.467496 9.550444 9.169516 7.3901577
8.061779 6.4250484 31.287378 8.057794 20.431993 12.129781 9.386366 8.233462
8.317222 11.105207 25.855385 7.3386726 29.212795 30.123575 13.322578 36.788357
9.369098 31.561914 37.197464 35.886322 7.7694545 6.027611 7.4728484 9.38616
12.089842 99.74864 26.92504 14.916731 14.76064 28.380833 10.53867 5.695651
10.914603 8.375297 2.0859268 11.668305 11.448791 9.23327 78.26507 17.502142
8.732381 6.461171 20.853844 13.340161 23.435715 8.335614 13.92917 11.161552
19.95516 14.008792 2.2011883 20.222422 22.61421 18.871565 8.3567505 8.123986
17.904324 5.810182 12.200758 16.559692 26.045122 30.634737 71.02059 11.575834
14.443642 5.6705084 5.5317354 7.6012583 14.200251 39.211826 10.697078 21.25497
13.967621 6.92167 2.097081 2.3148522 50.484646 8.123943 10.401758 34.94928
21.627922 17.819193 8.991773 9.491859 22.50885 14.984245 17.94554 20.75723
20.732351 13.512235 19.14515 12.357638 14.010434 39.499466 8.821904 9.850382
16.006596 23.45567 18.344606 44.31448 31.627726 5.684488 6.2261596 9.455722
22.711954 15.34421 8.133502 19.57241 25.79754 14.90112 15.983366 71.38929
9.545655 10.015802 15.568728 9.511857 22.208302 27.268076 12.655185 8.007197
11.949179 12.152982 19.28995 11.684908 11.338192 31.885294 13.494918 10.345694
00000000: 42b4 9041 d3cf c740 8e6b e640 1fd6 123f
00000010: 1d4b b141 351d 9f41 4b4d 8a41 4706 5741
00000020: 5baa 6141 7fab 8d41 e99d 1041 d25e 6641
00000030: c833 3141 1b65 af40 a1eb 3241 483b c840
00000040: 735c 6b41 21d7 f33f 1b04 1d41 35ec a941
00000050: be6a 9b41 be36 fc40 00ad 5241 3eea c041
00000060: 52ae 9b40 11ea d241 9a81 e540 ca1d ad40
00000070: 0ada 5240 48f1 2041 7f1a 1341 cb10 4341
00000080: bfab 9541 2689 9941 63f4 c741 49d8 5741
00000090: ed34 6541 a2ab a841 028a f940 0e92 9641
000000a0: a299 3441 eafd 3641 7535 a341 7cc4 b640
000000b0: b5da e040 f8ee a241 0711 e03f 20f5 2741
000000c0: 94b6 f041 7a82 1b42 3234 6f41 4ec5 c241
000000d0: d006 ab41 75e8 1b41 81f8 ef40 03ee ae40
000000e0: 0207 0c41 2cad 6941 72c9 8841 232b 6440
000000f0: 8ef3 1042 b799 db41 497f 3b41 966f 7442
00000100: 4fbf 0a42 5d7b 0d42 534a 1742 48a2 2c42
00000110: 7ec7 cb41 70ca d740 0039 5141 1541 2241
00000120: f07d 3741 6dde 2141 b139 9041 a9ab 1542
00000130: fefe ed41 2891 a040 a96b bb40 b147 d240
00000140: 8e85 6641 608f 0541 da64 8e41 6f7c 7a41
00000150: 7c17 1041 d218 5441 fc9d 5942 c5c5 4042
00000160: e91e 5541 c21d 7842 6363 9342 daa4 f041
00000170: 4383 3441 c911 9341 ef87 1541 bd63 2140
00000180: 8042 9741 736c 4342 796d 3d41 f6ea 2642
00000190: 681d 2042 4f89 d441 498a cc40 e594 8b41
000001a0: 65e0 3d42 f01e e841 d064 a841 4e2d b141
000001b0: 4952 ef41 03d7 f941 da0d d941 dee1 7e41
000001c0: b385 2741 e0ce 3742 906a 1b42 d518 7541
000001d0: 5266 5f42 fbf7 b240 ec18 c041 d8de 4d41
000001e0: 81e5 0341 ff25 3542 b50f 8441 a231 1841
000001f0: dd7a 0741 9ece 1841 56b6 1241 2c7c ec40
00000200: 0cfd 0041 ff99 cd40 8d4c fa41 b9ec 0041
00000210: b974 a341 9513 4241 8e2e 1641 43bc 0341
00000220: 5713 0541 eeae 3141 d4d7 ce41 68d6 ea40
00000230: ceb3 e941 15fd f041 4829 5541 4727 1342
00000240: d3e7 1541 cd7e fc41 34ca 1442 988b 0f42
00000250: 5f9f f840 30e2 c040 9321 ef40 b62d 1641
00000260: fe6f 4141 4e7f c742 7b66 d741 eeaa 6e41
00000270: 952b 6c41 f20b e341 649e 2841 c642 b640
00000280: 37a2 2e41 3701 0641 d37f 0540 61b1 3a41
00000290: 3f2e 3741 79bb 1341 b787 9c42 6304 8c41
000002a0: d5b7 0b41 eac1 ce40 acd4 a641 4d71 5541
000002b0: 587c bb41 ad5e 0541 e1dd 5e41 b895 3241
000002c0: 2ba4 9f41 0324 6041 45e0 0c40 85c7 a141
000002d0: e7e9 b441 f7f8 9641 40b5 0541 d9fb 0141
000002e0: 0e3c 8f41 03ed b940 4e36 4341 407a 8441
000002f0: 695c d041 f113 f541 8b0a 8e42 9e36 3941
00000300: 2819 6741 ce74 b540 fa03 b140 823d f340
00000310: 3a34 6341 e9d8 1c42 3b27 2b41 2e0a aa41
00000320: 607b 5f41 527e dd40 9336 0640 8a26 1440
00000330: 47f0 4942 acfb 0141 9a6d 2641 10cc 0b42
00000340: fc05 ad41 b58d 8e41 4dde 0f41 a8de 1741
00000350: 2012 b441 78bf 6f41 7790 8f41 cf0e a641
00000360: dbdb a541 1d32 5841 4429 9941 e3b8 4541
00000370: bd2a 6041 74ff 1d42 8526 0d41 2a9b 1d41
00000380: 820d 8041 36a5 bb41 c1c1 9241 0742 3142
00000390: 9505 fd41 53e7 b540 b33c c740 a34a 1741
000003a0: 15b2 b541 e281 7541 d322 0241 4c94 9c41
000003b0: 5d61 ce41 fd6a 6e41 debb 7f41 51c7 8e42
000003c0: 01bb 1841 ba40 2041 8319 7941 9130 1841
000003d0: 9aaa b141 0525 da41 a37b 4a41 7b1d 0041
000003e0: d62f 3f41 9d72 4241 d151 9a41 62f5 3a41
000003f0: 3c69 3541 1515 ff41 2feb 5741 f687 2541

seq.3.weight f4 [400, 300]
0.6639658 -0.19123106 0.12637106 0.12475493 -0.883413 -0.23904562 0.369194 0.30218396
0.07015011 0.6158203 0.38230672 -0.048039604 0.059747722 -0.02123339 0.4358306 -0.45984605
-0.054300714 0.12156281 -0.6440697 0.026630023 0.08286989 -0.46934924 -0.6925994 -0.3778916
0.009069296 0.2509244 -0.24229665 0.08233565 0.22274558 0.46239176 0.5479258 -0.15039766
0.122604795 0.008615722 0.21385494 0.5181072 -0.15723222 -0.13366424 0.10646776 -0.0147692235
-0.12796003 0.2639724 -0.5839949 0.04026709 -0.093857504 0.15639953 -0.17245476 0.35634816
-0.28788298 0.21746399 -0.4166981 0.29393885 -0.8283375 0.18279469 -0.2265525 -0.26259834
0.9731824 -0.033017278 -0.05799559 -0.8488038 -0.43824705 -0.25445494 0.48383665 0.2142668
-0.13091451 0.93982446 -0.305906 -0.22579558 0.14440826 -0.10264482 -0.2975626 -0.6348726
0.015497261 0.32634488 -0.10465935 0.43899927 0.16674449 0.14284796 -0.019769177 -0.8547788
-0.43852136 -0.75939405 -0.44860932 -0.03629535 0.46139833 -0.70679814 -0.268386 -0.45859596
-0.7818559 0.25981292 0.18184303 -1.1472121 0.14504862 -1.1286075 0.16374029 0.41798264
-0.34617576 0.1788521 0.23824348 -0.123944245 -0.22611682 0.04704213 -0.48839805 -0.105749294
-0.4089227 0.4306524 -0.62503624 0.3823465 -0.8666948 -0.19237089 0.09083555 -0.23193301
0.16181043 -0.033294555 0.059351522 0.23431997 -0.21121797 -0.16438621 0.40134728 -0.2511444
0.08970842 -0.025644414 -0.4630384 -0.15438682 -0.27360013 0.080740705 -0.20741685 -0.24540615
0.17313762 -0.42866796 0.84027076 -0.1772906 0.13737142 -0.3853568 -0.7911018 -0.80469036
0.112924576 -0.30945635 0.266964 -0.73050463 0.078823365 -0.21340886 0.43265778 0.21080986
-0.75630426 0.12812465 -0.606562 -0.29608974 0.47542363 -0.29899573 0.30252707 -0.09332673
0.4500188 -0.006688734 0.22267437 -0.17458916 -0.12917018 0.26516536 0.09107224 0.035112113
0.08256617 -0.6104939 0.17512722 0.26303807 0.60911226 -0.40048054 0.21034491 -0.19351618
0.6038919 0.1319943 0.19105586 -0.29881918 -0.1340636 0.13152878 -0.52688664 0.19112629
-0.35916814 0.62087613 -0.26973054 0.39988363 0.45548823 -0.22880489 -0.48832095 -0.21664132
-0.56807184 0.098182335 0.2707296 0.012648383 -0.3252722 -0.13382228 0.32341185 -0.9059673
-0.92567813 -0.24903037 -0.7436093 -0.4499045 -0.11173411 0.30535486 -0.07242901 0.55705017
-0.497343 -0.8048443 0.4938197 -0.90864056 -0.26315963 -0.9635864 -0.67270184 0.028276864
-0.2558933 0.005204512 0.23351209 -0.07305241 -0.24564175 0.1161826 -0.6987436 -0.05485417
-0.29437086 0.43130758 -0.4750419 0.5116112 -0.31715584 -0.47508493 0.10536266 0.114232175
0.3762672 -0.10718375 0.32833388 -0.17587009 -0.78857046 -0.021158729 0.4401311 -0.6213995
-0.90352786 -0.46918085 0.2376149 -0.08390352 0.09529093 0.32851082 0.51932675 0.53103554
-0.3752279 0.1807794 0.07337904 -0.11077968 -0.44218463 -0.41390517 -0.26540196 -0.033437125
-0.35056716 -0.55327964 -0.07722793 0.02202348 -0.052325793 -0.40276325 0.18072544 0.48243034
00000000: aaf9 293f 13d2 43be 6a67 013e 837f ff3d
00000010: 5b27 62bf 60c8 74be ff06 bd3e dbb7 9a3e
00000020: dcaa 8f3d 66a6 1d3f b5bd c33e 2dc5 44bd
00000030: 07ba 743d a5f1 adbc 3025 df3e f170 ebbe
00000040: 6d6a 5ebd ecf5 f83d c0e1 24bf 3527 da3c
00000050: b0b7 a93d 8b4e f0be 324e 31bf 027b c1be
00000060: 6297 143c 2a79 803e 9d1c 78be 989f a83d
00000070: 6b17 643e 9dbe ec3e dd44 0c3f d801 1abe
00000080: 3918 fb3d f528 0d3c cafc 5a3e aca2 043f
00000090: 7c01 21be 47df 08be c50b da3d 9dfa 71bc
000000a0: f407 03be 6427 873e b180 15bf 1bef 243d
000000b0: 5d38 c0bd 3327 203e fb97 30be 4473 b63e
000000c0: 6665 93be e1ae 5e3e 7459 d5be 277f 963e
000000d0: ed0d 54bf 882e 3b3e 61fd 67be 4a73 86be
000000e0: 7b22 793f 203d 07bd c98c 6dbd 354b 59bf
000000f0: eb61 e0be eb47 82be 70b9 f73e c268 5b3e
00000100: 740e 06be 5698 703f b69f 9cbe f536 67be
00000110: c2df 133e 7337 d2bd 205a 98be 0387 22bf
00000120: 39e8 7d3c ad16 a73e a457 d6bd 83c4 e03e
00000130: 11bf 2a3e bc46 123e f8f2 a1bc c9d2 5abf
00000140: df85 e0be a667 42bf 1fb0 e5be 6faa 14bd
00000150: 673c ec3e b9f0 34bf e469 89be 17cd eabe
00000160: b527 48bf 3306 853e 0f35 3a3e d9d7 92bf
00000170: a087 143e 3676 90bf 89ab 273e d201 d63e
00000180: f33d b1be 0125 373e 19f6 733e 7bd6 fdbd
00000190: 2b8b 67be 40af 403d 4f0f fabe 1693 d8bd
000001a0: 515e d1be 797e dc3e 6002 20bf ecc2 c33e
000001b0: b6df 5dbf e0fc 44be fd07 ba3d d97f 6dbe
000001c0: a2b1 253e df5f 08bd 951a 733d 93f1 6f3e
000001d0: 8649 58be dc54 28be 647d cd3e 0096 80be
000001e0: 0cb9 b73d 3c14 d2bc 5f13 edbe 9417 1ebe
000001f0: 5115 8cbe 625b a53d 1565 54be c04b 7bbe
00000200: fd4a 313e 5e7a dbbe fc1b 573f ab8b 35be
00000210: 18ab 0c3e 7d4d c5be a685 4abf 3000 4ebf
00000220: 0045 e73d 1071 9ebe 81af 883e 5a02 3bbf
00000230: 256e a13d da87 5abe 5285 dd3e 8ade 573e
00000240: 289d 41bf 1c33 033e a647 1bbf 1399 97be
00000250: ba6a f33e f815 99be d4e4 9a3e 1622 bfbd
00000260: dd68 e63e 2b2d dbbb c004 643e 80c7 32be
00000270: 3045 04be c1c3 873e 1584 ba3d b8d1 0f3d
00000280: 7418 a93d 5449 1cbf 8d54 333e edac 863e
00000290: c8ee 1b3f c90b cdbe a864 573e 1b29 46be
000002a0: a998 1a3f 8429 073e 26a4 433e d4fe 98be
000002b0: f847 09be 7baf 063e 0be2 06bf 9cb6 433e
000002c0: e3e4 b7be bdf1 1e3f 1f1a 8abe 8cbd cc3e
000002d0: c135 e93e d44b 6abe 3405 fabe 39d7 5dbe
000002e0: 286d 11bf d213 c93d 129d 8a3e 2a3b 4f3c
000002f0: 148a a6be b508 09be 3d96 a53e 79ed 67bf
00000300: 3ef9 6cbf d101 7fbe 2e5d 3ebf e259 e6be
00000310: dad4 e4bd 7957 9c3e a955 94bd d79a 0e3f
00000320: bea3 febe 470a 4ebf f0d5 fc3e ab9c 68bf
00000330: dcbc 86be 99ad 76bf 3036 2cbf e2a4 e73c
00000340: 7204 83be 9c8a aa3b cb1d 6f3e 809c 95bd
00000350: 8389 7bbe 25f1 ed3d dce0 32bf c4ae 60bd
00000360: c7b7 96be 59d4 dc3e b138 f3be f4f8 023f
00000370: 4062 a2be 553e f3be 61c8 d73d 8ff2 e93d
00000380: 18a6 c03e 2783 dbbd 611b a83e 4a17 34be
00000390: c1df 49bf 1255 adbc dd58 e13e 0a14 1fbf
000003a0: 9a4d 67bf 7938 f0be 5251 733e 9cd5 abbd
000003b0: e427 c33d 9232 a83e 99f2 043f f2f1 073f
000003c0: df1d c0be 3c1e 393e c047 963d 75e0 e2bd
000003d0: 0666 e2be 61eb d3be c4e2 87be 5ef5 08bd
000003e0: 8a7d b3be bca3 0dbf ad29 9ebd 966a b43c
000003f0: 9253 56bd fc36 cebe 1710 393e 1c01 f73e

seq.3.bias f4 [400]
-0.4122225 -0.39122587 -0.08471641 -0.04121607 -0.29164752 -0.06619754 -0.3378902 -0.42572454
-0.02007829 -0.81929165 -0.17365727 -0.32925233 -0.9534436 -0.45044914 -0.24791192 -0.42647752
-0.028654939 -0.101935744 -0.6685053 -0.2969259 -0.114364505 -0.47897667 -0.14634202 -0.81290674
-0.3001358 -0.039283972 -0.44471794 -0.16997246 0.46799085 -0.5350659 -0.1629501 -0.60585856
-0.48105627 -0.32052842 -0.17293286 -0.90387166 0.4789745 -0.41459677 -1.0871336 -0.7830738
-0.20138659 -0.58924437 -0.16720705 -0.25197834 -0.6134739 0.05690129 0.260282 -0.8219944
-0.12786935 -0.49022222 0.0909171 -0.25869808 -0.9222663 -0.21468888 -0.10228031 -0.13526496
-0.26404557 -0.55908453 -0.106231034 -0.22770001 -0.18141761 -0.033905197 -0.8193212 -0.14592661
-0.48115382 0.34460378 -0.3414751 -0.38029316 -0.8913567 -0.07978813 -0.05389746 -0.10038749
-0.15851326 0.09927586 -0.832706 0.13378601 0.31520486 -0.8498853 -0.2162217 -0.08019249
0.1462663 -0.022397142 -0.034232643 -0.5680344 -0.24273019 -0.22721174 -0.15091662 -0.43935323
-0.4182937 -0.102523364 -0.29077706 -0.97864926 -0.13019437 -0.026431218 -0.53750944 0.07273457
-0.017661853 -0.69730836 0.42398372 -0.6825611 -0.23026684 -0.25716794 -0.25674176 -0.31156874
-0.11156804 -0.057531003 -0.7579412 -0.5538097 -1.0939484 -0.11088816 -0.28252777 -0.20983192
-0.76600426 -0.109693624 -0.09971731 0.085614204 -0.10246447 -0.47142097 -0.88886935 -0.023304347
-0.12871028 -0.3458288 -0.28782338 -0.6774375 -0.46565205 -0.035968482 -0.8691532 -0.1877327
-0.37335297 -0.0030446264 -0.047221288 -1.1084028 -0.5695707 -0.35023987 -0.47896293 -0.02050927
-0.4635515 -0.7223655 0.053863224 0.06533305 0.08697139 0.023633586 -0.41691393 -0.2467899
0.011153359 -0.8329987 -0.45643148 -0.5925803 0.3714032 -0.09685472 -0.21894374 -0.061444376
0.25711334 -0.2522611 -0.42252192 -0.4614333 -0.04738895 0.05810056 -0.59492546 -0.12879665
0.26659802 -0.19876897 -0.09416644 -0.5873375 0.64771944 -0.05724708 -0.49208552 0.55749357
-0.052071143 -0.10905277 -0.3680113 -0.01880546 -0.008063068 -0.31857896 -0.5128766 -0.12147585
-0.11569444 -0.5322776 -0.4196437 0.33874393 -0.50845146 -0.25309917 -0.2779501 -0.032795634
-0.9071748 -0.10727121 -0.161543 -0.533042 -0.44442946 -0.40449175 -0.30538806 -1.0414226
-0.3404488 0.23761599 -0.047713302 -0.032495517 -0.1820281 -0.45841128 -0.027919928 -0.822761
-0.5872411 -0.6581297 -0.6433695 0.038636565 -0.20551871 -0.43586424 -0.3704622 0.6024204
-0.6967128 -0.70448464 -0.113982685 -0.68455756 -0.24842648 0.008799906 -0.12587315 0.42898792
0.036524322 -0.67189664 -0.25215802 -0.09278606 -0.383193 -0.8640645 -0.12757157 -0.25792354
0.032813713 0.006690945 0.030075964 -0.4252057 -0.06800211 0.39661145 -0.18746811 -0.5253726
-0.5444108 -0.7146619 -0.034049302 -0.52396214 0.08818408 -0.5029123 -0.064111434 -0.67418605
-0.65388876 -0.41022158 -0.23856845 -0.15896994 -0.122191444 -0.15294768 -0.8785589 -0.97969764
-0.33296287 -0.08861222 -0.19004889 -0.48834395 -0.7734608 -0.364909 -0.026042676 -0.2591716
00000000: d40e d3be c24e c8be cc7f adbd 2fd2 28bd
00000010: d352 95be 9392 87bd f2ff acbe 91f8 d9be
00000020: 3a7b a4bc 19bd 51bf 36d3 31be c393 a8be
00000030: e114 74bf 45a1 e6be 9fdc 7dbe 435b dabe
00000040: c3bd eabc b0c3 d0bd 2a23 2bbf ac06 98be
00000050: f037 eabd 6e3c f5be afda 15be a81a 50bf
00000060: 66ab 99be 3be8 20bd 12b2 e3be 430d 2ebe
00000070: 7f9c ef3e 14fa 08bf 64dc 26be 8c19 1bbf
00000080: 024d f6be 4d1c a4be 5015 31be 2264 67bf
00000090: 253c f53e 0746 d4be 3227 8bbf 8677 48bf
000000a0: 4938 4ebe b8d8 16bf 5338 2bbe 4e03 81be
000000b0: a00c 1dbf 5411 693d af43 853e 3a6e 52bf
000000c0: 2ff0 02be 68fe fabe bf32 ba3d 1374 84be
000000d0: a519 6cbf 67d7 5bbe 5778 d1bd e682 0abe
000000e0: fb30 87be 2a20 0fbf a88f d9bd 312a 69be
000000f0: 8ac5 39be 2de0 0abd 09bf 51bf c96d 15be
00000100: cb59 f6be e86f b03e d3d5 aebe c9b5 c2be
00000110: f42f 64bf f667 a3bd 95c3 5cbd f597 cdbd
00000120: 4d51 22be 2451 cb3d 382c 55bf 33ff 083e
00000130: 8862 a13e 1592 59bf 3969 5dbe f63b a4bd
00000140: d5c6 153e 367a b7bc 8737 0cbd b46a 11bf
00000150: 438e 78be 32aa 68be e389 1abe e8f2 e0be
00000160: 982a d6be c5f7 d1bd bbe0 94be c288 7abf
00000170: ac51 05be 4886 d8bc 389a 09bf ddf5 943d
00000180: 97af 90bc cd82 32bf 6514 d93e 53bc 2ebf
00000190: 12cb 6bbe 84ab 83be a873 83be f085 9fbe
000001a0: c97d e4bd a1a5 6bbd 6f08 42bf 79c6 0dbf
000001b0: 8006 8cbf 5519 e3bd 7ba7 90be 2ede 56be
000001c0: db18 44bf 0da7 e0bd 9738 ccbd 8056 af3d
000001d0: e4d8 d1bd 175e f1be f18c 63bf c2e8 bebc
000001e0: a1cc 03be 7910 b1be 965d 93be 8b6c 2dbf
000001f0: f269 eebe b053 13bd d380 5ebf 003d 40be
00000200: 1f28 bfbe 5b88 47bb 1c6b 41bd 25e0 8dbf
00000210: 63cf 11bf a452 b3be a13a f5be 0e03 a8bc
00000220: 9f56 edbe f2ec 38bf af9f 5c3d 56cd 853d
00000230: 0e1e b23d 399b c13c be75 d5be 7eb6 7cbe
00000240: 94bc 363c 673f 55bf 63b1 e9be 58b3 17bf
00000250: 8f28 be3e c45b c6bd ca32 60be 19ad 7bbd
00000260: 5ca4 833e 5e28 81be cb54 d8be fc40 ecbe
00000270: ea1a 42bd dafa 6d3d 094d 18bf 45e3 03be
00000280: 897f 883e 188a 4bbe 56da c0bd c05b 16bf
00000290: f1d0 253f ea7b 6abd a2f2 fbbe e6b7 0e3f
000002a0: 8d48 55bd 0f57 dfbd fa6b bcbe e80d 9abc
000002b0: f51a 04bc c81c a3be e14b 03bf 55c8 f8bd
000002c0: 35f1 ecbd 5843 08bf 8adb d6be d86f ad3e
000002d0: e029 02bf 3796 81be 7a4f 8ebe b754 06bd
000002e0: 9c3c 68bf 02b1 dbbd 876b 25be 7175 08bf
000002f0: 428c e3be 8b19 cfbe d35b 9cbe 564d 85bf
00000300: 4e4f aebe 9b51 733e 066f 43bd 051a 05bd
00000310: 9365 3abe e2b4 eabe 55b8 e4bc 77a0 52bf
00000320: 6f55 16bf 307b 28bf ddb3 24bf 6041 1e3d
00000330: 7f73 52be 9929 dfbe 39ad bdbe 3938 1a3f
00000340: c55b 32bf 1b59 34bf c16f e9bd 2a3f 2fbf
00000350: 8363 7ebe 7b2d 103c e4e4 00be 4ea4 db3e
00000360: 879a 153d 6b01 2cbf db1a 81be 9e06 bebd
00000370: df31 c4be 5533 5dbf 1fa2 02be 8e0e 84be
00000380: ac67 063d b73f db3b de61 f63c 90b4 d9be
00000390: b144 8bbd a810 cb3e a4f7 3fbe d27e 06bf
000003a0: 825e 0bbf 15f4 36bf 4877 0bbd 6222 06bf
000003b0: db99 b43d dcbe 00bf db4c 83bd 7597 2cbf
000003c0: 4165 27bf 9008 d2be 4a4b 74be 04c9 22be
000003d0: 823f fabd 519e 1cbe 3ce9 60bf 77cd 7abf
000003e0: 1c7a aabe 537a b5bd 2d9c 42be 3808 fabe
000003f0: 8701 46bf 5ad5 babe 7357 d5bc 24b2 84be
